neural-network-1.pt (torch, 7119 bytes, 8 tensors)

weight f4 [8, 8]
0	0x3d4d0332	0.050051875
1	0x3eae4e2f	0.34044024
2	0x3eaf1855	0.3419825
3	0x3f020ab6	0.50797594
4	0xbee17b0a	-0.44039184
5	0xbf831983	-1.024216
6	0xbd8183e2	-0.06323983
7	0x3f0e62b4	0.5561936
8	0x3dc32a18	0.09529513
9	0xbf585cc6	-0.8451656
10	0x3ead6fd2	0.33874375
11	0xbf317bea	-0.693297
12	0xbd96c2bd	-0.07361362
13	0xbf549ea0	-0.8305454
14	0xbd994887	-0.074845366
15	0x3f58c5e1	0.8467694
16	0xbe89f0fd	-0.26941672
17	0x3f99ad2f	1.2005976
18	0x3e86238f	0.26199004
19	0xbf86a450	-1.0518894
20	0x3cb1aec4	0.02168978
21	0xbf99693b	-1.1985239
22	0xbfb60951	-1.4221593
23	0x3e104f4a	0.14092746
24	0xbd82bce3	-0.063836835
25	0x3f8708b9	1.0549537
26	0x3d09752b	0.033559006
27	0xbeb20dd5	-0.34776178
28	0xbcb75b61	-0.02238244
29	0xbea12479	-0.3147314
30	0x3dddb1fa	0.10824962
31	0xbf2093b8	-0.627254
32	0x3d823b7d	0.06359003
33	0xbe2fc235	-0.17163928
34	0x3e9d9cdd	0.3078374
35	0xbdec1d8f	-0.11529075
36	0xbede3317	-0.43398353
37	0x3f97ea69	1.1868411
38	0x3f53a3fc	0.82672095
39	0xbdf9cf7b	-0.12197777
40	0xbd439bd6	-0.04775604
41	0xbf094536	-0.5362123
42	0x3e8ab359	0.27089956
43	0xbe61894a	-0.22025028
44	0x3e4f3137	0.20233618
45	0x3e4a3fb0	0.19750857
46	0x3dc1dcb1	0.09465922
47	0x3f045708	0.516953
48	0x3de779f6	0.11302559
49	0xbceee457	-0.029161615
50	0xbe89a5fe	-0.26884454
51	0xbf26c0cf	-0.6513795
52	0xbd149809	-0.036277805
53	0xbf9cc648	-1.2248011
54	0xbd9e2c11	-0.07723249
55	0x3f429a2b	0.7601649
56	0xbe021587	-0.12703525
57	0x3e4ca0d7	0.1998323
58	0xbf423535	-0.7586244
59	0x3eaeaa0f	0.3411412
60	0x3f999380	1.1998138
61	0x3f727cea	0.94721854
62	0x3efd095d	0.49421206
63	0x3effcc53	0.49960575

bias f4 [8]
0	0x3dfbded8	0.122983634
1	0x3e7faccb	0.24968259
2	0x3f635b10	0.88810825
3	0x3ece0288	0.40236306
4	0x3ed7f32e	0.4217772
5	0x3f448921	0.7677174
6	0x3ed6736a	0.4188493
7	0x3ef30cb0	0.47470617

weight f4 [16, 8]
0	0x3f64b38c	0.89336467
1	0x3fb0f3dd	1.3824421
2	0x3f1a0342	0.6016122
3	0xbe7e9843	-0.2486277
4	0x3ee38c48	0.44442964
5	0xbe1797de	-0.14804026
6	0x3f30fe5f	0.6913814
7	0xbe20c506	-0.15700158
8	0x3f139f4d	0.5766495
9	0x3f2be04d	0.6713913
10	0x3d400df8	0.04688832
11	0xbe559ce5	-0.20860632
12	0x3f4ddaaa	0.8041178
13	0xbf5ca2f8	-0.8618617
14	0x3f638456	0.88873804
15	0x3f67497c	0.90346503
16	0x3fafc1a1	1.3730966
17	0xbef690ae	-0.48157257
18	0x3f9998b7	1.199973
19	0x3e62529d	0.22101827
20	0xbf4976d3	-0.78696936
21	0x3ea2a63d	0.31767455
22	0x3ee75e6f	0.45189235
23	0x3f8d9b56	1.106303
24	0x3d32e2dd	0.043673385
25	0xbf8801a2	-1.0625498
26	0x3ee5fe5c	0.44920623
27	0x3f6b07ed	0.9180897
28	0xbf54bc38	-0.830997
29	0x3ccaa2f9	0.024735915
30	0xbf339e92	-0.70163834
31	0xbd10f4e8	-0.03538981
32	0xbefc2c3c	-0.49252498
33	0x3f91e0b0	1.1396694
34	0x3db1dd71	0.08684815
35	0x3f03c05b	0.51465386
36	0x3f6d81f8	0.9277644
37	0xbf2d7b26	-0.67766035
38	0x3f6bc872	0.9210273
39	0x3f4e92c8	0.8069272
40	0x3e88a30c	0.26686895
41	0x3f501610	0.81283665
42	0x3e9936f1	0.2992473
43	0xbe6b8bde	-0.23002574
44	0x3f8c102a	1.0942433
45	0xbe2edd0a	-0.17076507
46	0x3eb82187	0.3596308
47	0x3f761192	0.9612056
48	0x3f061936	0.5238222
49	0x3f98b811	1.1931173
50	0x3ef26a76	0.47346848
51	0xbe9a3491	-0.3011823
52	0x3f89f18d	1.077684
53	0xbf2e92fe	-0.6819304
54	0x3f7638b0	0.9618025
55	0x3f105793	0.5638363
56	0xbf5002c9	-0.8125425
57	0xbeed5ca3	-0.4635974
58	0x3f591037	0.84790367
59	0x3f3d9915	0.7406171
60	0xbf45a861	-0.7721005
61	0x3e82bc44	0.2553426
62	0xbe3bd214	-0.18341857
63	0xbf284dfd	-0.65744
64	0x3fafac44	1.3724446
65	0x3c868c25	0.016424248
66	0xbd228a44	-0.03968264
67	0xbe4ea865	-0.20181425
68	0x3f4b647d	0.7945021
69	0xbf11e3c7	-0.56988186
70	0x3cb374a6	0.021906208
71	0x3f0b8b9d	0.5450991
72	0x3ec8b9e8	0.39204335
73	0x3f1b91ee	0.60769546
74	0x3f2e2643	0.6802713
75	0xbe7c212a	-0.24622026
76	0xbf661879	-0.8988109
77	0xbf72a867	-0.9478821
78	0x3f6b13cc	0.9182708
79	0xbf01bc5c	-0.5067804
80	0x3f222608	0.6333928
81	0xbee8fe7c	-0.45506656
82	0x3f92ca07	1.1467904
83	0x3f93a526	1.1534774
84	0xbea733ed	-0.32656804
85	0xbe8f40fd	-0.2797927
86	0x3e056018	0.13024938
87	0x3e82caa6	0.25545233
88	0xbec684a7	-0.3877308
89	0xbf770b7b	-0.9650189
90	0x3f64027c	0.8906629
91	0x3f97ccd4	1.1859384
92	0xbf5010f8	-0.8127589
93	0x3f718b0d	0.943528
94	0xbebea095	-0.3723189
95	0x3e706926	0.23477611
96	0x3eca5b65	0.39522853
97	0x3e0caa1a	0.13736764
98	0x3f90ae5f	1.1303214
99	0x3f000c53	0.50018805
100	0x3f0330b8	0.51246214
101	0xbf54e973	-0.83168715
102	0x3f6d477e	0.92687213
103	0x3ef611bc	0.48060405
104	0xbe1b867a	-0.15188017
105	0xbf1dfaa4	-0.6171057
106	0x3f82abc9	1.0208675
107	0x3f577620	0.8416462
108	0xbf442a9a	-0.76627505
109	0xbeb58bff	-0.3545837
110	0xbf33c108	-0.7021642
111	0xbda5bf61	-0.08093143
112	0x3ea949aa	0.33064014
113	0x3f5aa0e7	0.8540177
114	0x3f461dde	0.77389324
115	0xbedfd478	-0.43716788
116	0x3ebed03b	0.37268242
117	0xbf65dbd5	-0.8978856
118	0x3f810044	1.0078206
119	0xbe100b07	-0.14066707
120	0x3e161852	0.14657715
121	0xbf76b158	-0.96364355
122	0x3f7c45ec	0.9854419
123	0x3f8e8fb6	1.1137607
124	0xbf4536cd	-0.77036744
125	0x3f8046d9	1.0021621
126	0xbeb54880	-0.35406876
127	0x3ea314f1	0.31851915

bias f4 [16]
0	0x3f13bc3d	0.57709104
1	0xbdffa036	-0.1248173
2	0x3ee021e6	0.43775862
3	0xbd0f1415	-0.03493126
4	0x3e1229c7	0.1427375
5	0x3e7399cf	0.23789142
6	0xbe89f344	-0.2694341
7	0x3f59dcbb	0.8510243
8	0x3c847260	0.01616782
9	0xbed4ed4b	-0.4158729
10	0x3f0239f3	0.50869673
11	0x3ec0da7c	0.3766669
12	0x3ec8b3c3	0.39199647
13	0xbe9aa012	-0.3020025
14	0xbe35cd75	-0.17754157
15	0x3f6828b5	0.90687114

weight f4 [32, 16]
0	0x3e21b892	0.15793064
1	0x3fb017ab	1.3757223
2	0x3ecd9c6f	0.40158412
3	0xbe8d734f	-0.27627036
4	0x3f7e0b2d	0.992358
5	0x3f0003a2	0.50005543
6	0x3f81c343	1.0137714
7	0xbedf6cfa	-0.4363783
8	0x3f02988d	0.51014024
9	0x3f80821f	1.003971
10	0x3dcd28c6	0.100175425
11	0xbe032398	-0.12806547
12	0x3f134f50	0.57542896
13	0xbf2c237c	-0.67241645
14	0x3f2d402c	0.67676044
15	0xbdd1e93d	-0.10249565
16	0x3e2188ea	0.15774885
17	0xbfc885e8	-1.5665865
18	0xbc9d3ab8	-0.019193038
19	0x3f763c12	0.9618541
20	0xbea6f0bc	-0.3260554
21	0xbf2f4d8c	-0.684777
22	0xbf10a205	-0.5649722
23	0x3f8dad9b	1.1068605
24	0xbfa7c043	-1.3105549
25	0x3d8443b7	0.06458228
26	0x3e90bc32	0.28268582
27	0x3f611680	0.8792496
28	0x3e99d2f1	0.30043748
29	0x3f3e2cdd	0.74287206
30	0xbeb439d1	-0.3520036
31	0x3f07eff2	0.531005
32	0xbecac296	-0.39601582
33	0xbf50bdab	-0.8153941
34	0x3eb27382	0.3485375
35	0x3f8682b7	1.0508641
36	0xbee415e1	-0.44547942
37	0xbeffe130	-0.49976492
38	0xbf47b93a	-0.7801701
39	0x3f8d8d36	1.1058719
40	0xbf1e7125	-0.61891395
41	0xbead59f4	-0.3385769
42	0x3e98fde9	0.29881218
43	0x3f699f45	0.9125865
44	0x3e92e622	0.28691202
45	0x3f995a2c	1.1980643
46	0xbe9737ee	-0.29534858
47	0x3e9d1d89	0.30686596
48	0x3e9f5297	0.311177
49	0x3fb6d5b6	1.4283969
50	0x3ef9ec48	0.4881308
51	0xbeeb0951	-0.45905545
52	0x3f3ab6a0	0.72934914
53	0x3f07d716	0.5306257
54	0x3f84c30c	1.0372024
55	0xbf38bddf	-0.7216472
56	0x3f491078	0.78540754
57	0x3f43db28	0.7650628
58	0x3eb65a4d	0.3561577
59	0xbdc3573e	-0.095381245
60	0x3f0da1e5	0.55325156
61	0xbeb2aa3a	-0.34895498
62	0x3f3b5500	0.73176575
63	0xbe8cdacb	-0.27510676
64	0xbe8b0375	-0.27151075
65	0x3e38bfc5	0.18041904
66	0x3f269923	0.6507742
67	0x3e6198d1	0.22030951
68	0xbf773c4a	-0.9657637
69	0x3edc8463	0.43069753
70	0x3db07199	0.08615417
71	0xbf3a40d5	-0.72755176
72	0x3f715a3b	0.94278306
73	0xbebda367	-0.3703873
74	0x3e67f8ec	0.2265355
75	0x3d1f7433	0.038929176
76	0x3db54e90	0.08852875
77	0x3eb3e9a9	0.35139206
78	0xbe78929f	-0.24274682
79	0x3e918163	0.28419027
80	0x3f4bc014	0.7958996
81	0x3f2efbad	0.68352777
82	0x3f06ab3f	0.5260505
83	0xbe82ca55	-0.25544992
84	0x3ebf5f1f	0.3737726
85	0x3e155ae5	0.14585455
86	0x3f9454a3	1.1588329
87	0xbef49357	-0.4776866
88	0x3f56f51b	0.8396775
89	0x3f6e5709	0.93101555
90	0x3ee72b3a	0.45150167
91	0xbe2343c8	-0.15943825
92	0x3ebf448c	0.37356985
93	0xbed98be9	-0.42489555
94	0x3f596105	0.84913665
95	0xbe4be51d	-0.19911619
96	0x3f303884	0.68836236
97	0x3f1c49be	0.6105002
98	0xbdb712de	-0.089391455
99	0xbe945503	-0.2897111
100	0x3f9b7a74	1.2146745
101	0x3efc1861	0.4923735
102	0x3f925de8	1.1434908
103	0xbd5e3fe7	-0.05426016
104	0x3e6c2b23	0.2306333
105	0x3f41292b	0.7545344
106	0x3eda5a12	0.42646843
107	0x3be0bf23	0.006858723
108	0x3e8adcec	0.27121675
109	0xbf33c91f	-0.7022876
110	0x3f9798a0	1.1843452
111	0xbe8fd306	-0.28090686
112	0x3f2e7f0c	0.6816261
113	0x3f52fe91	0.8241969
114	0x3ecea15f	0.4035749
115	0xbe6f26c1	-0.23354627
116	0x3f5e31fe	0.8679503
117	0x3f0a65db	0.5406167
118	0x3f83a2bf	1.0284041
119	0xbf2215e7	-0.6331467
120	0x3f1f6195	0.62258273
121	0x3f85b637	1.0446233
122	0x3ea6a8f6	0.32550782
123	0xbe045dd0	-0.12926412
124	0x3e7fb29b	0.24970476
125	0xbee4ed00	-0.44712067
126	0x3f84ad18	1.0365324
127	0xbddfc232	-0.10925712
128	0x3e6e4ef1	0.23272301
129	0x3f5314d3	0.8245365
130	0x3e441fca	0.19152752
131	0xbfc01ec9	-1.5009395
132	0x3f1e9d02	0.61958325
133	0x3f1c0cea	0.60957205
134	0x3f89ff6a	1.0781071
135	0xbf204647	-0.62607235
136	0xbe32b771	-0.1745279
137	0x3f89e22a	1.0772145
138	0xbe26620e	-0.16248342
139	0xbedc40b3	-0.43018112
140	0x3e14563b	0.1448602
141	0xbfdd798e	-1.730272
142	0x3f688a08	0.9083562
143	0xbecedb39	-0.4040163
144	0x3ee38763	0.4443923
145	0x3fa04383	1.2520603
146	0x3eedc69d	0.46440592
147	0xbef4b8c5	-0.47797218
148	0x3f7996a9	0.97495514
149	0x3f18362e	0.5945767
150	0x3f81debf	1.0146102
151	0xbe1d5de0	-0.15367842
152	0x3ea0a228	0.31373715
153	0x3f86119e	1.0474126
154	0x3ebff027	0.3748791
155	0xbe8c9f8a	-0.2746547
156	0x3f06ebda	0.5270363
157	0xbf08bfdd	-0.5341776
158	0x3f82df81	1.0224458
159	0xbe8a9028	-0.27063107
160	0x3ef69a9e	0.4816484
161	0x3f06ae3d	0.52609617
162	0x3f16303f	0.5866737
163	0xbe4b4723	-0.19851355
164	0x3edac7e2	0.42730623
165	0x3ebb6610	0.36601305
166	0x3f47b004	0.78002954
167	0xbf03ac2b	-0.5143458
168	0x3f95792c	1.1677604
169	0x3f7def90	0.9919367
170	0x3efc9cad	0.49338284
171	0xbea04f70	-0.31310606
172	0x3ec72e80	0.38902664
173	0xbe974b6d	-0.29549733
174	0x3f369b21	0.7133046
175	0xbe750b67	-0.23930131
176	0x3ed3312b	0.4124845
177	0x3eb9f692	0.3632093
178	0x3e44b316	0.19208941
179	0xbfc84a7a	-1.5647728
180	0x3f35fc00	0.71087646
181	0x3ee1c122	0.4409266
182	0x3f2e8ea2	0.6818639
183	0xbed28f59	-0.4112499
184	0x3caf461d	0.021395737
185	0x3f8229bf	1.016899
186	0xbe6d6172	-0.23181704
187	0xbeb6dd29	-0.35715607
188	0x3ed52b38	0.41634536
189	0xbfdd9b4a	-1.7313015
190	0x3f7b4062	0.98145115
191	0xbec66446	-0.38748378
192	0x3e3feefc	0.18743509
193	0x3f3107f5	0.69152766
194	0xbcf0bdfc	-0.029387467
195	0xbf0ade3e	-0.54245365
196	0x3f9ad022	1.2094767
197	0x3ebddaa3	0.3708087
198	0x3f5a0d1a	0.8517624
199	0x3ef7a577	0.48368427
200	0xbead0632	-0.3379379
201	0x3f80d2c7	1.0064324
202	0x3ef35fae	0.47533935
203	0xbdcf99cc	-0.10136756
204	0x3ed6f546	0.41984004
205	0xbf3826f4	-0.7193444
206	0x3f91742c	1.1363578
207	0xbed60bcd	-0.41805878
208	0xbdef4f6c	-0.116850704
209	0xbe376e0e	-0.17913076
210	0xbe2e17f2	-0.17001322
211	0x3e76c998	0.2410034
212	0x3e16fc1a	0.14744607
213	0xbdb2b778	-0.087264
214	0xbe5c02f8	-0.21485507
215	0x3cd0db60	0.025495231
216	0x3e1d0776	0.15334877
217	0xbdb50754	-0.08839288
218	0xbe125272	-0.14289263
219	0x3dba3e6c	0.09093937
220	0xbdf93be8	-0.12169629
221	0x3e709d78	0.2349757
222	0xbe074c56	-0.13212714
223	0xbe63d05c	-0.22247452
224	0x3f411183	0.75417346
225	0x3f226abc	0.63444114
226	0xbdd1818d	-0.10229788
227	0xbdeb7d76	-0.11498539
228	0x3f89af70	1.0756664
229	0x3e7ae67f	0.2450199
230	0x3f88b4d0	1.068018
231	0xbe2ceee8	-0.1688801
232	0x3f0948b0	0.5362654
233	0x3f9dfd93	1.234301
234	0x3e94b9bc	0.29047954
235	0xbe0ea9ac	-0.13931912
236	0x3e1d05e5	0.1533428
237	0xbec94d84	-0.39316952
238	0x3f939abe	1.1531599
239	0xbd276d85	-0.04087593
240	0xbdc494cc	-0.09598693
241	0x3ca69460	0.020334423
242	0x3e0b0036	0.13574299
243	0xbd312038	-0.043243617
244	0xbdebae40	-0.11507845
245	0xbe4fbf9e	-0.2028794
246	0xbe5ffa80	-0.21872902
247	0x3e1f7f9c	0.15576023
248	0x3e5fd326	0.2185789
249	0xbdce3c00	-0.10070038
250	0xbe163ee0	-0.14672422
251	0xbe26c074	-0.16284353
252	0xbe6723d2	-0.22572258
253	0x3db9ab98	0.09065932
254	0x3e6926c6	0.22768697
255	0xbe47147e	-0.19441411

bias f4 [32]
0	0xbece5a71	-0.40303376
1	0x3e9936ee	0.2992472
2	0x3e787562	0.24263528
3	0xbe9c592a	-0.30536777
4	0x3e526aa9	0.205485
5	0x3d4e6000	0.05038452
6	0xbe3f791b	-0.18698542
7	0xbef66d78	-0.48130393
8	0xbf226139	-0.634296
9	0xbf09484a	-0.5362593
10	0xbdce2520	-0.10065675
11	0xbced9f06	-0.029006492
12	0x3e1acd93	0.15117483
13	0x3e128218	0.1430744
14	0xbdde6060	-0.10858226
15	0xbdc27a1c	-0.09495947
16	0xbefe5b1f	-0.49678895
17	0x3ddbb4a6	0.10727815
18	0x3f039b89	0.514092
19	0xbebd1df3	-0.36936912
20	0xbc25b599	-0.010114097
21	0xbde58ec7	-0.11208873
22	0xbeb83202	-0.35975653
23	0x3d7afccb	0.06127624
24	0xbce2c105	-0.02767993
25	0xbeb863b5	-0.3601357
26	0x3f1caf63	0.6120512
27	0x3f1965c0	0.59920883
28	0xbe7f267b	-0.24917023
29	0xbe465576	-0.19368538
30	0xbe8d82ca	-0.27638847
31	0x3d2bd8c1	0.04195476

weight f4 [4, 32]
0	0xbecef56c	-0.40421617
1	0x3ece7cef	0.40329692
2	0x3e9f7998	0.31147456
3	0xbf13a477	-0.5767283
4	0x3f301043	0.68774813
5	0xbeabef97	-0.3358123
6	0xbf40b8e4	-0.7528212
7	0xbf071959	-0.5277305
8	0xbf4dcb26	-0.80388105
9	0xbf34782f	-0.70495886
10	0xbe91b802	-0.284607
11	0xbf2c0fc7	-0.67211574
12	0xbf455831	-0.77087694
13	0x3dab7b5e	0.0837314
14	0xbed511bf	-0.41615102
15	0xbe24a656	-0.16079077
16	0xbf1b567a	-0.6067883
17	0x3f3dd654	0.74155164
18	0x3f32847a	0.69733393
19	0xbf09c6d3	-0.53819007
20	0xbf2fc1b3	-0.68654937
21	0x3e0b772d	0.1361968
22	0xbf04a1e8	-0.5180955
23	0x3e09265d	0.1339354
24	0x3f3a110d	0.7268227
25	0xbf0fe29e	-0.56205165
26	0x3f09e062	0.53858006
27	0x3f507376	0.8142618
28	0xbf1bc68a	-0.6084982
29	0xbebd13ba	-0.36929113
30	0xbe8bef43	-0.2733098
31	0x3f6c507a	0.923103
32	0xbf45cbf3	-0.77264327
33	0x3f2ea03e	0.6821326
34	0x3efa6046	0.48901576
35	0xbf2e2184	-0.6801989
36	0x3ef79351	0.4835458
37	0xbe657063	-0.22406153
38	0xbf1db929	-0.61610657
39	0xbeb713e4	-0.35757363
40	0xbf60ad7e	-0.8776473
41	0xbf2b37f0	-0.6688223
42	0xbe7fd9f4	-0.24985486
43	0xbf097c0f	-0.53704923
44	0xbf652839	-0.895145
45	0xbe1c4cb4	-0.15263635
46	0xbf046dff	-0.5173034
47	0x3d039914	0.03212841
48	0xbe93b09e	-0.28845686
49	0x3f0fbd76	0.5614847
50	0x3f8e45aa	1.111501
51	0xbf6469ec	-0.89224124
52	0xbf39c494	-0.7256558
53	0xbe407af0	-0.18796897
54	0xbf12e315	-0.5737775
55	0xbde06e83	-0.109585784
56	0x3edd9afa	0.432823
57	0xbf164a90	-0.58707523
58	0x3e5d3e0a	0.21605697
59	0x3f75184b	0.95740193
60	0xbf0ffa6a	-0.56241477
61	0xbf2819ff	-0.65664667
62	0xbe788c22	-0.24272206
63	0x3f373b55	0.7157491
64	0xbf09a1cf	-0.53762525
65	0x3f8c8b05	1.0979925
66	0x3f2618fb	0.6488187
67	0xbf502d23	-0.81318873
68	0xbf72371d	-0.94615346
69	0xbf49dc5a	-0.78851855
70	0xbe8999bc	-0.26875103
71	0xbf3d1d92	-0.73873246
72	0xbf28298a	-0.65688384
73	0xbefe7c77	-0.49704334
74	0xbf4b8e26	-0.79513776
75	0xbe973287	-0.29530737
76	0x3dd0a937	0.10188525
77	0x3dcda6fa	0.10041614
78	0xbe9ec131	-0.31006768
79	0xbdf7662c	-0.120800346
80	0xbf31810a	-0.69337523
81	0x3f3493b8	0.705379
82	0x3f4b8bbd	0.795101
83	0xbf0688b6	-0.52552354
84	0x3eac3ed6	0.3364169
85	0x3ef068b8	0.46954894
86	0xbf0b445c	-0.54401183
87	0xbd2fbb70	-0.042903364
88	0x3eb1eefa	0.34752637
89	0xbf05c0db	-0.522474
90	0x3f3f843e	0.7481116
91	0x3f34e1a5	0.70656806
92	0xbf24e9f6	-0.64419496
93	0xbf7d9afe	-0.99064624
94	0xbea2e463	-0.3181487
95	0x3f14b669	0.58090836
96	0xbee72094	-0.45142043
97	0x3e01d175	0.12677558
98	0x3efe894d	0.49714127
99	0xbe5795fe	-0.21053311
100	0x3f2ccbb0	0.674983
101	0xbf33303d	-0.6999548
102	0xbf4c611f	-0.79835695
103	0xbf014d0c	-0.5050819
104	0xbf3c23e2	-0.7349225
105	0xbeecff92	-0.46288735
106	0xbf1f11a4	-0.6213629
107	0xbf80811b	-1.00394
108	0xbf2e57c5	-0.68102676
109	0xbc1f8900	-0.009737253
110	0xbf44ab9d	-0.7682436
111	0xbe13c18d	-0.14429303
112	0xbf1cbb9a	-0.6122376
113	0x3f38b5ca	0.7215239
114	0x3f20addf	0.62765306
115	0x3e06c54b	0.13161199
116	0xbf54251c	-0.82869124
117	0x3f140334	0.5781739
118	0xbec9cfaf	-0.39416263
119	0x3dd3b09a	0.103364184
120	0x3f489b02	0.78361523
121	0xbf312685	-0.691994
122	0x3f3d77cc	0.7401092
123	0x3f5b26f1	0.85606295
124	0xbef08912	-0.46979576
125	0xbf09f0da	-0.53883135
126	0xbf15a0f3	-0.58448714
127	0x3f3c2a78	0.735023

bias f4 [4]
0	0x3e89b3fb	0.26895127
1	0x3f08621a	0.5327469
2	0x3f2e15a0	0.6800175
3	0x3e4f86d1	0.20266272
