neural-network-4.pt (torch, 43791 bytes, 8 tensors)

weight f4 [16, 8]
0	0x3ee6b21f	0.4505777
1	0x3f601628	0.8753381
2	0xbd93276b	-0.07185253
3	0x3eb96180	0.362072
4	0x3e989b18	0.29805827
5	0x3cf80bf1	0.030279132
6	0x3e9a2f55	0.30114236
7	0xbd3d3c4f	-0.046200093
8	0x3f22f1cf	0.6365022
9	0x3d089d7d	0.033353318
10	0x3da3b248	0.07992989
11	0xbedef2c2	-0.43544585
12	0xbf1addea	-0.60494864
13	0xbef6139d	-0.4806184
14	0xbcb96e6f	-0.022635667
15	0x3d90c262	0.070683256
16	0xbe76a130	-0.24084926
17	0x3e496c64	0.19670254
18	0x3f21ce2b	0.6320521
19	0xbf733078	-0.9499583
20	0xbf237c19	-0.63861233
21	0xbf1f9bb9	-0.6234699
22	0xbe46e405	-0.1942292
23	0x3f07bdce	0.53023994
24	0x3d8a36f9	0.067487665
25	0x3f136f8d	0.5759209
26	0x3e6f077e	0.23342702
27	0xbe91f6b9	-0.28508547
28	0x3e2e02b2	0.16993216
29	0x3e929462	0.28628832
30	0xbed905c0	-0.423872
31	0xbeaba639	-0.33525255
32	0xbd3bef39	-0.045882437
33	0xbd1a17c9	-0.03762034
34	0xbf05e287	-0.5229878
35	0xbe398dac	-0.1812045
36	0xbf1e9549	-0.6194654
37	0xbc47e1d1	-0.012199835
38	0x3ddcf0bb	0.10788103
39	0x3da2cf06	0.07949643
40	0x3d155efc	0.036467537
41	0xbcbf4473	-0.023348069
42	0x3edf7bae	0.43649048
43	0x3d7785f1	0.06043047
44	0x3ed60573	0.41801032
45	0xbe93e7bf	-0.28887746
46	0x3e53c78a	0.20681587
47	0x3f12242b	0.5708644
48	0x3d6cea49	0.05784062
49	0xbdb6a7a4	-0.08918694
50	0x3e8d40c5	0.27588478
51	0xbe82a88f	-0.25519225
52	0x3f12325a	0.5710808
53	0xbe38f1fe	-0.18061063
54	0x3e19ae75	0.15007956
55	0x3e805e07	0.25071737
56	0x3e28b42d	0.16474982
57	0xbe455eed	-0.19274493
58	0xbda9f3ba	-0.0829844
59	0xbe39a25d	-0.18128343
60	0x3ecb4019	0.3969734
61	0x3e9c7e94	0.3056532
62	0x3ed22259	0.4104183
63	0x3d911bfe	0.07085417
64	0xbe0bc246	-0.13648328
65	0x3e1abb77	0.15110575
66	0xbea7f24e	-0.3280205
67	0x3f061bef	0.52386373
68	0xbe539a9d	-0.20664449
69	0xbf788caa	-0.97089636
70	0x3e41a541	0.18910696
71	0x3ede6c23	0.43441877
72	0xbef4d654	-0.4781977
73	0xbd3a6189	-0.045503173
74	0x3d861c89	0.065484114
75	0xbd0e5e18	-0.034757704
76	0x3eb53d0f	0.35398147
77	0x3e8c00a2	0.27344233
78	0xbe0e6475	-0.13905509
79	0xbd8cbfaa	-0.068724945
80	0xbe51d445	-0.2049113
81	0x3eebc1b0	0.4604621
82	0x3f375612	0.7161571
83	0x3f22a3a4	0.63530946
84	0xbe8b9652	-0.27263123
85	0x3dd451c6	0.103671595
86	0xbe801040	-0.25012398
87	0x3e4ba0c4	0.19885546
88	0x3f2d935e	0.6780299
89	0x3f117b9e	0.5682925
90	0xbe220983	-0.15823941
91	0xbdad553f	-0.08463525
92	0x3f4c7c90	0.7987757
93	0xbf18f9bd	-0.5975607
94	0xbf172701	-0.5904389
95	0x3e3044bc	0.1721372
96	0x3d986437	0.074409895
97	0x3e14c272	0.145273
98	0xbe2f3c75	-0.17112906
99	0x3ec7306b	0.38904127
100	0x3f13f752	0.57799256
101	0x3f3d1e12	0.7387401
102	0x3e8e7a02	0.2782746
103	0x3eb290b6	0.3487603
104	0x3ea1400b	0.31494173
105	0x3e52acec	0.20573777
106	0x3db6af16	0.08920114
107	0xbccad97f	-0.024761913
108	0xbf214345	-0.6299327
109	0x3ebd5604	0.36979687
110	0x3e658a93	0.22416143
111	0xbeed7c77	-0.46384022
112	0xbe917de0	-0.28416348
113	0x3ef0f4d3	0.47061786
114	0xbbfe0d21	-0.00775303
115	0xbda07bed	-0.07836137
116	0xbf0dcc12	-0.5538951
117	0xbee185c8	-0.4404738
118	0xbe0e1958	-0.13876855
119	0xbeeb5b40	-0.45968056
120	0xbccd28a2	-0.02504379
121	0x3e4807d6	0.19534239
122	0xbec8f4b5	-0.39249197
123	0xbf097399	-0.53692013
124	0x3eb14916	0.34626073
125	0x3d29fb7c	0.0414996
126	0xbe6e1f30	-0.23254085
127	0xbe1458c4	-0.14486986

bias f4 [16]
0	0x3edf0278	0.4355657
1	0x3e8a1778	0.2697103
2	0x3f07eb8d	0.53093797
3	0x3de31031	0.11087073
4	0x3e8ef117	0.27918312
5	0x3f249b8e	0.6429986
6	0x3e5a2115	0.21301682
7	0xbdd65a61	-0.10466457
8	0x3ee6068b	0.44926867
9	0x3d60e8d0	0.054909527
10	0x3d878661	0.066174276
11	0xbd2d0b6a	-0.042247213
12	0x3efa7d1c	0.48923576
13	0x3f08e5bd	0.5347555
14	0xbcd1c434	-0.025606252
15	0x3f021c73	0.5082466

weight f4 [64, 16]
0	0x3eec4417	0.46145698
1	0xbe45d36f	-0.19318937
2	0xbdee3395	-0.11630932
3	0x3ece6a54	0.40315497
4	0x3eee900e	0.4659428
5	0xbe1ef5a9	-0.155234
6	0x3cbac5ec	0.022799455
7	0xbee69317	-0.45034096
8	0xbeca9d09	-0.39572933
9	0xbd0c29e6	-0.034219645
10	0x3f0ec21f	0.55764955
11	0x3f11c19b	0.56936044
12	0xbef11b4b	-0.47091135
13	0xbe1dfdbc	-0.15428823
14	0xbd1cecb6	-0.038311683
15	0x3e4f10d8	0.20221269
16	0xbf048db3	-0.51778716
17	0x3f23400d	0.6376961
18	0x3f0291e5	0.5100387
19	0xbf48b7f3	-0.78405684
20	0xbe4679da	-0.1938242
21	0x3df47df6	0.11938088
22	0xbde200ea	-0.110353306
23	0x3ea7b768	0.32757115
24	0x3f1714b4	0.59015965
25	0x3eb8305a	0.3597439
26	0xbefd27b5	-0.49444357
27	0x3e905b65	0.28194728
28	0x3df147c5	0.11781267
29	0xbf3ae16f	-0.73000234
30	0xbf103b75	-0.56340724
31	0xbd84ed1d	-0.06490538
32	0x3ea50fb2	0.32238537
33	0xbe791b1e	-0.2432675
34	0xbe7cf650	-0.24703336
35	0x3eb68463	0.35647878
36	0x3f2ddd28	0.6791558
37	0xbd1bc0a4	-0.038025513
38	0x3ed7d908	0.4215777
39	0xbe76223d	-0.24036498
40	0xbe293b10	-0.16526437
41	0x3e07490e	0.13211462
42	0x3d23d5c4	0.039998785
43	0x3ed7f5a5	0.421796
44	0x3e08499c	0.1330933
45	0x3e28c84d	0.16482659
46	0x3e0a6d90	0.13518357
47	0x3e6a6069	0.2288834
48	0x3ee4c494	0.44681227
49	0xbdb8afcb	-0.09017905
50	0xbecea849	-0.40362766
51	0x3eaf4ff0	0.34240675
52	0xbebad472	-0.36490208
53	0xbd938580	-0.072031975
54	0xbedc9496	-0.43082112
55	0x3de82857	0.11335819
56	0x3f20329d	0.6257723
57	0x3d05dab3	0.03267927
58	0x3e4f93b2	0.20271185
59	0xbea1e4f5	-0.31619993
60	0x3ebc977c	0.36834323
61	0xbe0465b9	-0.12929429
62	0xbbb5fa7d	-0.005553542
63	0x3d97d192	0.07413019
64	0xbb5bea1a	-0.0033556283
65	0xbe912d68	-0.28354955
66	0xbf035423	-0.5130026
67	0xbeb6748d	-0.35635796
68	0x3ed47028	0.41491818
69	0x3edb7bd1	0.42867902
70	0x3f13d620	0.57748604
71	0x3d583c19	0.05279169
72	0x3f169073	0.5881416
73	0xbd70a31a	-0.058749296
74	0x3f21cbd6	0.63201654
75	0xbe44e230	-0.19226909
76	0x3e7eee9d	0.24895711
77	0xbde99d51	-0.11406959
78	0xbb08b81c	-0.002086169
79	0xbee451bd	-0.4459361
80	0x3e58dc5e	0.21177813
81	0x3ed9f36e	0.42568535
82	0x3e9e9ad8	0.3097751
83	0x3ef87cc4	0.4853269
84	0x3e9827bc	0.29717815
85	0x3e38db9e	0.18052527
86	0x3e89d34b	0.26919016
87	0x3e6e26a1	0.23256923
88	0x3e8639ac	0.26215875
89	0x3e49843b	0.19679348
90	0x3d7286cc	0.059210584
91	0x3e6193a0	0.2202897
92	0x3e9f7a65	0.31148067
93	0x3ed0d1bd	0.40785018
94	0x3ede4f19	0.43419722
95	0x3ec11e81	0.37718585
96	0x3e368625	0.1782461
97	0xbd05db69	-0.03267995
98	0xbef9723b	-0.48719963
99	0xbee5cddf	-0.4488363
100	0x3ec501c5	0.38477913
101	0x3e924c57	0.28573868
102	0x3f2ebe70	0.68259335
103	0x3e9fbe6c	0.31199968
104	0x3f281fc3	0.65673465
105	0xbe143aff	-0.1447563
106	0x3e0995bb	0.13436024
107	0xbe18ba71	-0.14914872
108	0x3d4b2bdc	0.049602374
109	0x3c8dd938	0.017315492
110	0xbedfbd44	-0.43699086
111	0xbd7fbf69	-0.062438402
112	0x3ee05c55	0.43820444
113	0xbe612096	-0.21985087
114	0xbc456b92	-0.012049573
115	0x3ebb6554	0.36600745
116	0x3e5b54f7	0.2141913
117	0x3f0b035b	0.54301995
118	0x3f0ae57e	0.5425643
119	0xbed4bec4	-0.41551793
120	0xbe92cbbc	-0.28671062
121	0xbe8ee717	-0.27910683
122	0x3f074859	0.5284477
123	0x3dc32878	0.09529203
124	0x3e18a2c3	0.14905839
125	0x3e8b24ee	0.27176613
126	0x3e9f8501	0.3115616
127	0x3e465708	0.19369137
128	0x3e3f3045	0.18670757
129	0x3f0bec38	0.54657316
130	0x3f1d822c	0.6152675
131	0x3f115731	0.5677367
132	0x3e93a152	0.28834015
133	0x3f0ca73d	0.54942685
134	0x3ef1f574	0.47257578
135	0x3eae1cd2	0.34006363
136	0x3e376175	0.1790827
137	0x3e7f529f	0.24933861
138	0x3e520947	0.20511352
139	0x3dd31ab1	0.10307825
140	0x3eaa57ac	0.33270013
141	0x3d435973	0.047692727
142	0x3e932716	0.28740758
143	0x3edf927e	0.43666452
144	0x3ecff068	0.40613103
145	0xbee94432	-0.4555984
146	0xbddca20c	-0.107730955
147	0x3cb769d1	0.022389324
148	0x3e801afe	0.25020593
149	0x3ede71dc	0.43446243
150	0x3f48d832	0.7845489
151	0xbeb2f49b	-0.34952244
152	0x3d9fd558	0.07804364
153	0xbe698a52	-0.22806671
154	0x3eb1141e	0.3458566
155	0x3e8067c7	0.25079176
156	0xbdbb8229	-0.091556855
157	0x3b6159a0	0.0034385696
158	0xbe0e888f	-0.1391928
159	0x3eae2c69	0.34018257
160	0x3e01999d	0.12656255
161	0x3e1f688b	0.15567224
162	0x3e7ada5e	0.24497363
163	0x3daf5a3b	0.08562132
164	0x3e1a05f9	0.15041341
165	0x3d75c12d	0.05999868
166	0xbc75dcbb	-0.0150062395
167	0xbe81ed14	-0.2537619
168	0xbefc6c04	-0.4930116
169	0xbe826335	-0.25466314
170	0xbb891069	-0.0041828644
171	0x3f141262	0.5784055
172	0xbe64e349	-0.22352327
173	0x3d9834bf	0.074319355
174	0x3e7b35ce	0.24532244
175	0x3ec46dd0	0.3836503
176	0xbd0d727b	-0.034533005
177	0xbde460be	-0.111512646
178	0xbf0b240d	-0.54351884
179	0xbeb7c7e8	-0.35894704
180	0x3f23b8a4	0.63953614
181	0x3e86e0ad	0.2634329
182	0x3ee8a4e5	0.45438305
183	0x3e601a27	0.21884976
184	0x3f10361d	0.5633257
185	0xbe4b8200	-0.1987381
186	0xbe14906f	-0.14508222
187	0xbd776920	-0.06040299
188	0x3d7c964e	0.06166678
189	0x3dfd3fed	0.123657085
190	0xbf0fdab5	-0.56193095
191	0xbe1088b3	-0.14114647
192	0xbdf38190	-0.118899465
193	0xbef4591d	-0.47724238
194	0xbeeb48b7	-0.45953915
195	0xbebfdac1	-0.37471583
196	0xbe2d0dcd	-0.16899796
197	0x3e7e491d	0.24832578
198	0x3f09c13b	0.5381047
199	0x3e942840	0.28936958
200	0x3e90426f	0.28175685
201	0x3e49f51a	0.19722405
202	0xbe11dbc2	-0.14243987
203	0x3ce707c6	0.028201949
204	0x3ea97fcf	0.33105323
205	0xbdf9f167	-0.12204247
206	0xbf7a1f7c	-0.9770429
207	0x3da0bfe7	0.078491025
208	0x3dd2a3d0	0.10285151
209	0xbf0196a1	-0.50620466
210	0xbcf2c177	-0.029633267
211	0x3ea55b55	0.32296243
212	0x3eb0f4c5	0.34561744
213	0xbc8b7408	-0.017023101
214	0x3e8aaa9a	0.27083284
215	0xbe3d7bdf	-0.18504284
216	0xbf5ea949	-0.8697706
217	0xbf01c54b	-0.5069167
218	0xbe92c8c1	-0.28668788
219	0x3e92056d	0.28519765
220	0xbe9289eb	-0.28620848
221	0xbe77927d	-0.24176975
222	0xbf5ccee7	-0.8625321
223	0x3ed47cc0	0.41501427
224	0x3e8e85cc	0.27836454
225	0xbd662f7f	-0.05619764
226	0x3e932c54	0.28744757
227	0x3ee1381f	0.4398813
228	0x3f74a1c1	0.95559317
229	0x3e8aa696	0.2708022
230	0x3f692a7c	0.9108045
231	0x3f0bacdb	0.5456063
232	0xbea8948d	-0.32925835
233	0xbe4d8468	-0.2007004
234	0xbe1b0d51	-0.15141799
235	0x3e633d08	0.2219125
236	0xb7124254	-8.717721e-06
237	0x3e5b5328	0.2141844
238	0x3e93828f	0.28810546
239	0x3e9bd782	0.30437857
240	0x3ea716f9	0.32634714
241	0x3e916150	0.28394556
242	0x3ebed568	0.3727219
243	0xbe3ae1cf	-0.18250202
244	0x3ee85d4c	0.4538368
245	0x3f20bf18	0.62791586
246	0x3e2658a5	0.16244753
247	0xbee26ae2	-0.4422217
248	0x3cffef9f	0.03124219
249	0x3ebdb146	0.3704931
250	0x3e00aa83	0.12565045
251	0x3efc1ce5	0.49240795
252	0x3eb09128	0.34485745
253	0x3e15ceb2	0.14629629
254	0x3e5f62df	0.2181506
255	0xbd10038b	-0.03515963

bias f4 [64]
0	0xbd03f7b0	-0.032218635
1	0xbdf2a7ba	-0.118483976
2	0x3e8489d8	0.25886416
3	0xbd571176	-0.052506886
4	0x3c28d7af	0.010305329
5	0x3d12aeee	0.035811357
6	0x3dc24899	0.09486503
7	0x3e190952	0.14944962
8	0x3eccaa8c	0.39973867
9	0x3ee8a4ac	0.45438135
10	0x3b799f37	0.0038089284
11	0x3ef56f61	0.47936538
12	0x3daede0c	0.08538446
13	0x3e21ab25	0.15787943
14	0xbcf6447a	-0.030061949
15	0x3e495df2	0.19664744
16	0xbda07d35	-0.07836381
17	0x3e90efa3	0.28307828
18	0x3ee563b1	0.4480262
19	0x3ea57dab	0.3232244
20	0x3e00630f	0.12537788
21	0x3d1e0216	0.038576208
22	0x3de2b843	0.110703014
23	0xbdc7e638	-0.097607076
24	0x3e2d8730	0.16946101
25	0x3e59f968	0.21286547
26	0xbdf480f1	-0.11938656
27	0x3e304077	0.17212091
28	0x3d383efd	0.044981945
29	0xbdaeaacb	-0.0852867
30	0x3eacba53	0.33735904
31	0x3e6192cf	0.2202866
32	0x3ef0e086	0.47046298
33	0xbcc9b920	-0.024624407
34	0x3ef71b81	0.4826317
35	0xbcfa5c00	-0.030561447
36	0x3e1a8fa2	0.15093854
37	0x3e1af6af	0.15133165
38	0xbd9e7be1	-0.07738472
39	0x3ebf01ab	0.3730596
40	0x3e239bcc	0.159774
41	0x3e0d0c16	0.13774142
42	0xbba03c48	-0.0048899986
43	0x3e0ce084	0.13757521
44	0x3e9052c0	0.28188133
45	0x3e9d9d9a	0.30784303
46	0x3ee7fdef	0.45310923
47	0x3eb79ced	0.35861912
48	0x3e5d595f	0.21616124
49	0x3d52a301	0.051424984
50	0xbe726051	-0.23669554
51	0x3cc533a9	0.024072485
52	0xbe51ed85	-0.20500763
53	0x3ebabc5b	0.3647183
54	0x3ec74366	0.38918608
55	0x3db98792	0.09059061
56	0x3e7a17e9	0.24423184
57	0xbe000c98	-0.12504804
58	0x3def41fb	0.11682507
59	0x3e23e3b2	0.16004828
60	0x3e686663	0.22695307
61	0x3d86e394	0.06586376
62	0x3d70ee0a	0.05882076
63	0x3da0332f	0.078222625

weight f4 [128, 64]
0	0xbe749fd3	-0.23889093
1	0x3f34facd	0.7069519
2	0x3e13c6f0	0.14431357
3	0x3f2ac552	0.66707337
4	0xbf53cf61	-0.8273831
5	0x3eb79841	0.35858348
6	0xbf334d96	-0.7004026
7	0x3d937864	0.07200697
8	0x3e8d4090	0.2758832
9	0xbe41f5b3	-0.18941383
10	0xbe1418eb	-0.1446263
11	0xbf2003fd	-0.62506086
12	0xbecce58f	-0.4001889
13	0xbf0c34bb	-0.5476796
14	0x3e7c4e90	0.24639344
15	0x3ea899d8	0.32929873
16	0x3ee92637	0.45536968
17	0xbe647cf1	-0.22313286
18	0x3e410b9a	0.18852082
19	0x3e2f0dbe	0.17095086
20	0xbf23a72a	-0.6392695
21	0x3f132067	0.5747132
22	0x3cd63902	0.02615023
23	0x3f2d386a	0.67664206
24	0x3ed19249	0.4093192
25	0xbe54eec4	-0.20794207
26	0xbe04df54	-0.12975818
27	0x3f0a594f	0.54042524
28	0xbf5a5d76	-0.8529886
29	0x3f1a252e	0.6021298
30	0x3e3031aa	0.17206445
31	0x3e7851d7	0.2424997
32	0x3e3ef510	0.18648171
33	0x3ec1151b	0.37711415
34	0x3d993452	0.074806824
35	0xbf40efe3	-0.7536604
36	0x3d98c22e	0.07458912
37	0xbe23ec1e	-0.1600804
38	0xbdf94523	-0.1217139
39	0x3e5955f1	0.2122419
40	0x3cc2d583	0.023783451
41	0xbf2185c4	-0.63094735
42	0xbed94910	-0.42438555
43	0x3e4760f3	0.19470577
44	0x3dea77ef	0.11448657
45	0xbd3a7a36	-0.045526706
46	0x3e03b764	0.12862927
47	0xbe613b7d	-0.21995349
48	0xbdd3491e	-0.1031668
49	0xbe6b5adc	-0.22983879
50	0x3f326e94	0.6969998
51	0xbdb910cf	-0.09036409
52	0x3f0d022e	0.5508145
53	0x3f0d71e6	0.5525192
54	0x3e309734	0.1724518
55	0x3de50fb2	0.11184634
56	0xbf33fdf7	-0.70309395
57	0x3f1d2e78	0.6139903
58	0x3f1bed2d	0.60908777
59	0x3e839358	0.25698352
60	0xbd2b20c0	-0.04177928
61	0x3daf550b	0.085611425
62	0x3dff7a07	0.12474447
63	0x3b3b2553	0.0028556183
64	0x3ea2d00b	0.3179935
65	0xbed9ed1f	-0.42563722
66	0x3dbc000a	0.09179695
67	0xbf3cb7e5	-0.737181
68	0x3ed80ddf	0.42198083
69	0xbdac3a3d	-0.084095456
70	0x3eb7e997	0.35920402
71	0x3e250696	0.16115794
72	0x3da868a6	0.08223085
73	0x3dc18a2a	0.09450181
74	0x3e2ee989	0.17081274
75	0x3edf8305	0.43654647
76	0x3eeef8f2	0.46674305
77	0x3ed89fce	0.4230942
78	0x3dc6d795	0.09709088
79	0x3e1a5234	0.1507042
80	0xbec3597d	-0.38154212
81	0x3e51e8a8	0.20498908
82	0xbccb830b	-0.02484276
83	0x3e3f4934	0.18680269
84	0x3f5a126c	0.8518436
85	0xbede30cf	-0.43396613
86	0x3e78451e	0.24245116
87	0xbe8e771a	-0.27825242
88	0x3da145e3	0.07874658
89	0x3ed70b90	0.4200101
90	0x3e92402c	0.28564584
91	0xbe88509f	-0.2662401
92	0x3ee665a4	0.4499942
93	0xbee0aa17	-0.43879768
94	0xbd91b8f8	-0.07115358
95	0x3dfca75b	0.12336608
96	0x3e94e239	0.29078844
97	0xbd38ad9a	-0.045087434
98	0x3da223c5	0.07916979
99	0x3f5f5d52	0.8725177
100	0x3db5feb1	0.08886469
101	0x3e16d6f5	0.14730437
102	0x3e8ae80c	0.27130163
103	0x3ca6334b	0.02028813
104	0x3e5b73d6	0.21430907
105	0x3f0daf06	0.5534519
106	0x3ed8091d	0.42194453
107	0x3d2f68bd	0.042824496
108	0x3e85a66c	0.26103532
109	0x3def6f44	0.11691144
110	0x3d5a58fa	0.05330751
111	0x3e38a78b	0.18032663
112	0x3d3e2f17	0.046431627
113	0x3e94a2a4	0.29030335
114	0xbe9cef3c	-0.3065127
115	0x3e8ec81e	0.27887052
116	0xbf0a0582	-0.53914654
117	0xbe8684b8	-0.2627313
118	0x3e8ac5f3	0.27104148
119	0x3d993ead	0.074826576
120	0x3ee9fce6	0.4570076
121	0xbedc26a8	-0.42998242
122	0xbef81a87	-0.4845774
123	0xbd087e30	-0.033323467
124	0x3dfb80b3	0.12280407
125	0x3dd4963c	0.103802174
126	0xbae4162c	-0.0017401627
127	0x3d306250	0.043062508
128	0xbea38273	-0.31935462
129	0xbd93bbb4	-0.07213536
130	0xbe92d04e	-0.2867455
131	0xbedf16db	-0.43572125
132	0x3efb4402	0.49075323
133	0x3de2d5bf	0.11075925
134	0x3ed6f089	0.4198039
135	0x3d9a6367	0.07538491
136	0x3e2562ef	0.16151021
137	0x3d62706e	0.055283003
138	0x3e7753a5	0.24153002
139	0x3f10d781	0.5657883
140	0x3f067f22	0.5253774
141	0xbe1e02ae	-0.1543071
142	0xbd259e68	-0.04043427
143	0x3e0dc91e	0.13846251
144	0xbe92860e	-0.286179
145	0x3eb1f7f9	0.347595
146	0x3e8d3853	0.27582034
147	0x3d4fad82	0.05070258
148	0x3f3f9eb1	0.7485152
149	0xbe9fcecb	-0.31212458
150	0x3e11b9ca	0.14231029
151	0xbe1e85ae	-0.15480682
152	0x3e415368	0.18879473
153	0x3dd8a6ea	0.10578711
154	0x3df36e39	0.11886258
155	0xbe6e3f2a	-0.23266283
156	0x3f244dbc	0.64181113
157	0x3d43e620	0.047826886
158	0x3e8fa498	0.28055263
159	0xbe83cd10	-0.25742388
160	0x3e6eebb7	0.23332106
161	0x3dbabe33	0.09118309
162	0x3e74acb5	0.23894008
163	0x3effdbfa	0.49972516
164	0x3bdcf067	0.0067425254
165	0xbeded242	-0.4351979
166	0x3cb1f879	0.021724926
167	0xbe12e780	-0.14346123
168	0xbd8d10cf	-0.068879716
169	0x3de29e3f	0.11065339
170	0xbed54e26	-0.41661185
171	0xbdf3613a	-0.11883779
172	0x3db892e9	0.09012396
173	0xbdf238c8	-0.118272364
174	0x3dfde26d	0.12396703
175	0xbd8f08b2	-0.069840804
176	0x3e9273dd	0.28604022
177	0xbe412083	-0.18860058
178	0x3d0e2607	0.034704234
179	0xbef8b574	-0.48575938
180	0xbeac965a	-0.3370846
181	0x3cdf2530	0.027239412
182	0x3d9f0249	0.07764108
183	0xbd81c240	-0.06335878
184	0x3f274980	0.6534653
185	0xbebcaa4c	-0.36848676
186	0x3c17f463	0.009274575
187	0x3e4f67c8	0.20254433
188	0x3eaa1af1	0.3322368
189	0xbe36f48e	-0.17866728
190	0xbef332d3	-0.47499713
191	0x3cefdebe	0.029281016
192	0x3ebd67ae	0.36993164
193	0xbee9e3cc	-0.45681608
194	0x3d496d1d	0.049176324
195	0xbf4dfdcd	-0.80465394
196	0x3efdaa3d	0.49543944
197	0x3dc6b5ba	0.0970263
198	0x3eabd593	0.33561382
199	0x3e2773ea	0.16352811
200	0x3bee8986	0.0072795777
201	0x3e9d1aa2	0.30684382
202	0x3e143242	0.14472297
203	0x3eb60017	0.35546944
204	0x3eeb7970	0.45991087
205	0x3ee444ad	0.44583645
206	0x3db4ab26	0.088217065
207	0x3e02fd5e	0.12791964
208	0xbeffc34a	-0.4995368
209	0x3e8cc50a	0.2749408
210	0x3d2311c7	0.039811876
211	0x3db4fd94	0.08837429
212	0x3f2fc91e	0.68666255
213	0xbec71c22	-0.3888865
214	0x3e6e0fdf	0.23248242
215	0xbdfb0f4e	-0.122587785
216	0x3e1046f5	0.14089568
217	0x3f00ee7c	0.503639
218	0x3e94a755	0.29033914
219	0xbed5234d	-0.41628495
220	0x3e48f62b	0.19625156
221	0xbed0891e	-0.40729612
222	0xbcd17d5c	-0.025572471
223	0x3e88cc7e	0.26718515
224	0x3e4e9ab9	0.2017621
225	0xbe47be6f	-0.19506238
226	0x3e117165	0.14203413
227	0x3f3ae881	0.7301102
228	0x3e47a093	0.19494848
229	0x3e1cea3c	0.15323728
230	0x3e8a5f09	0.2702563
231	0xbc878799	-0.01654415
232	0x3e7e5098	0.24835432
233	0x3f3624d8	0.7114997
234	0x3ed5f2f2	0.41786915
235	0x3dbd295e	0.09236406
236	0x3e7c29ad	0.24625273
237	0xbc4b4aac	-0.01240794
238	0x3e1190f8	0.14215457
239	0x3e05c1f9	0.13062276
240	0x3e0e6ac8	0.13907921
241	0x3e9538a5	0.2914478
242	0xbef129b1	-0.4710212
243	0x3ec2ed8b	0.38071856
244	0xbf1d46c6	-0.61436117
245	0xbe5d5553	-0.2161458
246	0x3e76f3ae	0.24116394
247	0x3b2e143e	0.0026562358
248	0x3e87b640	0.26506233
249	0xbeae8dd3	-0.34092578
250	0xbebbccd7	-0.36679718
251	0xbcb02492	-0.021501813
252	0x3b61eed4	0.0034474628
253	0xbcc731df	-0.024315773
254	0x3d0b9206	0.034074806
255	0x3c7594e9	0.014989116

bias f4 [128]
0	0x3e338c1f	0.1753392
1	0x3e5cbd99	0.21556701
2	0x3e103de8	0.14086115
3	0x3e3931ec	0.1808545
4	0xbd49b320	-0.049243093
5	0xbd4246dc	-0.047430858
6	0x3df830fd	0.12118719
7	0x3dca7769	0.09886057
8	0x3d47932e	0.048724346
9	0x3deed24d	0.116612054
10	0x3ea16d63	0.31528768
11	0xbdc87ede	-0.09789823
12	0x3e7700b5	0.24121363
13	0x3e4f33dc	0.20234627
14	0x3e11b506	0.14229211
15	0x3e4b4f05	0.19854362
16	0xbba94c0f	-0.0051665376
17	0x3dd7f32b	0.105444275
18	0x3c5f846f	0.0136424145
19	0x3dc6ae4d	0.09701214
20	0xbdc7782a	-0.09739716
21	0x3d787218	0.060655683
22	0x3e968efe	0.2940597
23	0x3b65d3dd	0.0035068907
24	0xbd93a3d8	-0.07208985
25	0xbd00dd0d	-0.03146081
26	0x3e364a13	0.17801695
27	0x3e57ea6b	0.21085517
28	0x3da91649	0.08256204
29	0x3d872380	0.06598568
30	0x3cdf4e85	0.02725912
31	0x3dd1a58f	0.10236656
32	0x3db97e60	0.09057307
33	0x3e0537dd	0.13009591
34	0xbdf1bd9a	-0.11803742
35	0x3e420d5f	0.18950413
36	0x3bc2e749	0.0059479815
37	0x3e357c91	0.177233
38	0xbd44c7c8	-0.04804209
39	0x3d076d85	0.03306343
40	0x3d58ef13	0.052962374
41	0x3e0e4c9c	0.13896412
42	0x3c398c59	0.011324965
43	0x3e9d079a	0.30669862
44	0x3bb273bb	0.005445925
45	0x3e6a94af	0.22908281
46	0x3e366492	0.17811802
47	0x3d89243c	0.06696364
48	0x3e822c8a	0.25424606
49	0x3d9d46ae	0.07679497
50	0x3e39de70	0.1815126
51	0x3e58465d	0.21120591
52	0x3dac8699	0.0842411
53	0x3e374afa	0.17899695
54	0xbdf5ac58	-0.119957626
55	0x3dd2850a	0.102792814
56	0x3e8483e2	0.2588187
57	0xbd8be8aa	-0.068314865
58	0x3e57a34e	0.2105839
59	0xbe10fb47	-0.14158355
60	0x3deab59f	0.11460423
61	0xbe0ed7dc	-0.13949531
62	0x3de97c7c	0.11400697
63	0x3ed879e7	0.42280504
64	0xbcda62f6	-0.026658516
65	0x3df55309	0.11978728
66	0x3d93b878	0.07212919
67	0x3e1dd3b6	0.15412793
68	0x3e8f1723	0.2794734
69	0x3d0ae071	0.03390545
70	0xbd867934	-0.065660864
71	0x3e2a25ac	0.16615933
72	0xbcbe8398	-0.023256108
73	0x3e025045	0.12725933
74	0xbdaea312	-0.08527197
75	0x3d18452c	0.037175342
76	0xbda94fac	-0.08267149
77	0x3e607afc	0.21921915
78	0x3e23ea4c	0.16007346
79	0x3e1ab922	0.15109685
80	0x3e09948f	0.13435577
81	0x3d28cca5	0.04121079
82	0xbb47beae	-0.0030478644
83	0xbdb969e4	-0.090534
84	0x3d4d156c	0.050069258
85	0x3e4245a9	0.18971886
86	0xbc84d2b8	-0.01621376
87	0x3d996e2a	0.07491715
88	0x3d790d01	0.060803417
89	0xbc9e4e48	-0.019324437
90	0x3e130793	0.14358358
91	0x3dde4b04	0.10854152
92	0x3e661466	0.22468719
93	0x3d6a9f8a	0.057281055
94	0x3db4812b	0.08813699
95	0xbd84c87d	-0.064835526
96	0xbe023b35	-0.12717898
97	0x3eab95c9	0.33512715
98	0x3e0907b8	0.1338185
99	0x3e492c1a	0.1964573
100	0x3e71857b	0.23586075
101	0xbca87d7d	-0.02056765
102	0x3e1bcf06	0.15215692
103	0x3da0e5d7	0.078563385
104	0x3e274e04	0.16338354
105	0x3e6d8e25	0.23198755
106	0x3e1f2d69	0.15544666
107	0x3dbca785	0.09211639
108	0x3ddf7c4e	0.10912381
109	0x3e0edc1c	0.13951153
110	0x3dd7b903	0.10533335
111	0x3cf16e96	0.029471677
112	0xbda90437	-0.08252757
113	0x3e8fdb33	0.28096923
114	0x3d1ffb9a	0.039058305
115	0x3d65e400	0.05612564
116	0x3d903a90	0.0704242
117	0xbcdcb150	-0.026940018
118	0x3e1309d8	0.14359224
119	0x3df03338	0.11728519
120	0x3d921f1d	0.07134841
121	0x3e15bf8a	0.14623848
122	0x3e64dd81	0.22350122
123	0x3e2f06a7	0.17092381
124	0x3e13106b	0.14361732
125	0xbd715a7d	-0.058924187
126	0x3e4795c3	0.19490723
127	0x3e010146	0.12598142

weight f4 [4, 128]
0	0xbf0280cd	-0.50977784
1	0x3e9b3acf	0.30318305
2	0x3e924b96	0.28573292
3	0x3e92d952	0.28681427
4	0xbccdc374	-0.025117613
5	0xbccbfd9c	-0.024901204
6	0x3e5d7d6b	0.21629874
7	0xbed02ae4	-0.40657723
8	0x3f271d61	0.65279204
9	0x3eb58651	0.35454038
10	0x3e62378d	0.22091503
11	0xbce80b7c	-0.028325789
12	0xbed10153	-0.40821323
13	0x3ebe45bd	0.3716258
14	0x3da1a8cc	0.078935236
15	0x3e913048	0.28357148
16	0xbdedb4fa	-0.11606784
17	0x3e86771b	0.26262745
18	0xbe8b7b83	-0.2724267
19	0x3e81f237	0.25380108
20	0x3eeb152d	0.45914593
21	0xbe1eea3d	-0.15519042
22	0xbe89d060	-0.2691679
23	0x3d52c956	0.05146154
24	0xbcf8f37c	-0.03038954
25	0x3c7683cf	0.015046074
26	0xbeb36bd4	-0.35043204
27	0xbe9b8523	-0.30375013
28	0xbe925250	-0.28578424
29	0x3e91961c	0.28434837
30	0x3e0501d2	0.12988976
31	0x3e7319d3	0.2374032
32	0x3ea42659	0.32060507
33	0x3e75bdfc	0.23998255
34	0x3c810508	0.01574947
35	0xbe5cf068	-0.21576083
36	0x3e907b9f	0.28219315
37	0x3ed2e552	0.41190583
38	0xbd3c5756	-0.045981728
39	0x3ec2cd28	0.38047147
40	0x3e5da770	0.21645904
41	0xbec464c7	-0.38358137
42	0x3edbb23c	0.4290942
43	0x3db2aec8	0.08724743
44	0x3e873339	0.26406267
45	0xbea63b90	-0.32467318
46	0x3f2e83f3	0.6817009
47	0x3e94c180	0.2905388
48	0x3e2526e2	0.16128114
49	0x3ece4feb	0.40295348
50	0x3ec3dbbd	0.38253585
51	0x3e5141d9	0.20435275
52	0x3ecb35eb	0.39689574
53	0x3eb44af0	0.35213423
54	0xbbf17b30	-0.0073694214
55	0xbc01d6aa	-0.007924715
56	0x3e38bae0	0.18040037
57	0xbd8fa184	-0.070132285
58	0xbecbbebd	-0.3979396
59	0x3d805637	0.06266444
60	0x3eac7f7b	0.3369101
61	0xbf37d0f8	-0.71803236
62	0x3ed093a9	0.40737656
63	0x3f37bd5a	0.717733
64	0xbe4bf28f	-0.19916748
65	0x3ed0d382	0.40786368
66	0xbe871862	-0.2638579
67	0x3e9feb10	0.31234026
68	0x3e481005	0.19537361
69	0x3edb1f95	0.42797533
70	0x3e444104	0.19165426
71	0x3eb5c8b1	0.35504678
72	0xbd50b9ea	-0.05095855
73	0x3e8d0635	0.27543798
74	0xbd730af4	-0.059336618
75	0xbe34ead5	-0.17667706
76	0xbd96ee44	-0.07369664
77	0x3edccee5	0.43126598
78	0xbeb5b3ec	-0.35488832
79	0x3e816ce9	0.25278404
80	0x3e5ee8af	0.21768449
81	0x3eda3538	0.42618728
82	0xbf11bb72	-0.56926644
83	0xbc143cf8	-0.009047739
84	0x3c9837cc	0.018581294
85	0x3e9ede80	0.3102913
86	0xbf386215	-0.7202466
87	0xbecfbf0e	-0.4057545
88	0x3eef64fd	0.46756735
89	0xbdb31533	-0.08744278
90	0x3e5793a6	0.21052417
91	0x3e7deb8c	0.24796885
92	0xbeb7b49f	-0.3587999
93	0xbeb4e6b5	-0.35332265
94	0x3ed6fb9b	0.41988835
95	0x3f0379bb	0.5135762
96	0x3d83b54d	0.06431065
97	0x3f07c37a	0.5303265
98	0x3e2770a9	0.1635157
99	0x3f3daa0a	0.74087584
100	0x3ed1a448	0.4094565
101	0x3cf35a74	0.029706217
102	0x3f055aaa	0.5209147
103	0xbef60909	-0.48053768
104	0xbe980bbd	-0.29696456
105	0xbed0ca3a	-0.40779287
106	0x3e86a632	0.26298672
107	0x3e0e7bb6	0.1391438
108	0x3e16afce	0.14715502
109	0xbe9f4e35	-0.31114355
110	0x3eaa7dfc	0.33299243
111	0xbc596648	-0.013269015
112	0xbf46d2ca	-0.7766539
113	0xbe859709	-0.26091793
114	0x3f0fd9f7	0.5619196
115	0x3edbeaab	0.42952475
116	0x3eaffb0e	0.34371227
117	0x3ca11734	0.019664384
118	0x3e9663af	0.29372928
119	0x3ebdd455	0.3707606
120	0xbec028a2	-0.37531
121	0x3eb87491	0.36026433
122	0xbea59231	-0.32338098
123	0x3ebf9767	0.37420198
124	0xbe83d536	-0.25748605
125	0x3d2739dd	0.040826667
126	0x3f0c953d	0.5491522
127	0xbede2a95	-0.43391863
128	0xbededb85	-0.43526855
129	0x3e8a2fb1	0.2698951
130	0x3e2f4265	0.17115171
131	0x3ea07bc2	0.3134442
132	0xbd32393f	-0.043511625
133	0x3d8205ad	0.06348739
134	0x3e71898e	0.23587629
135	0xbec48b75	-0.38387647
136	0x3f8aa911	1.0832845
137	0x3ea878b2	0.32904583
138	0x3e808503	0.2510148
139	0xbdb38fa4	-0.08767632
140	0xbe9d1bb7	-0.30685207
141	0x3e624293	0.22095709
142	0x3cccf9e2	0.025021497
143	0x3ebdbf93	0.37060222
144	0xbe723b3d	-0.2365541
145	0x3edceec2	0.43150908
146	0xbe83be09	-0.25730923
147	0x3e3a5515	0.18196519
148	0x3f127693	0.5721218
149	0xbea78ba5	-0.32723728
150	0xbe526868	-0.2054764
151	0xbdc5b507	-0.09653669
152	0xbd026250	-0.03183204
153	0xbd3d83d3	-0.046268295
154	0xbe08177b	-0.13290207
155	0xbebaabb7	-0.36459133
156	0xbe976a76	-0.2957341
157	0x3ec3ff71	0.38280824
158	0x3dba3366	0.09091835
159	0x3e1b3c0d	0.15159626
160	0x3dee6103	0.11639597
161	0x3e2caffe	0.1686401
162	0x3d5b15ce	0.05348759
163	0xbea559d2	-0.3229509
164	0x3e51b3ae	0.20478699
165	0xbe33e635	-0.17568286
166	0xbd95e20e	-0.07318507
167	0x3eb8235b	0.35964474
168	0x3e645e51	0.22301604
169	0xbee156d0	-0.44011545
170	0x3eb20974	0.34772837
171	0x3e7de1e7	0.24793206
172	0x3ce08704	0.02740813
173	0xbeb4ca85	-0.3531076
174	0x3f49f269	0.78885514
175	0x3e7f481b	0.2492985
176	0x3eb63586	0.3558771
177	0x3e148f19	0.14507712
178	0x3ed93fc1	0.42431453
179	0x3ed173be	0.40908617
180	0x3ed3bd69	0.41355446
181	0x3e979afe	0.29610437
182	0xbd3985a5	-0.04529347
183	0x3d96ca6b	0.07362827
184	0x3ea47c89	0.32126263
185	0x3d62f356	0.055407844
186	0xbeb2563a	-0.3483141
187	0x3d3c597c	0.045983776
188	0x3e5832eb	0.21113174
189	0xbda38ddd	-0.07986043
190	0x3eaf0e52	0.34190613
191	0x3f2f57e8	0.6849351
192	0xbeadad5a	-0.3392132
193	0x3ecf5ca7	0.40500376
194	0xbeb7b753	-0.35882053
195	0x3e781771	0.24227692
196	0x3e64f929	0.22360672
197	0x3ef49a07	0.47773764
198	0x3c511806	0.012762075
199	0x3eee9ac5	0.46602455
200	0xbd9f6bba	-0.07784219
201	0x3e5c66d5	0.21523602
202	0x3d61d256	0.055132233
203	0xbd8b7858	-0.06810063
204	0xbd0da8cc	-0.034584805
205	0x3ef93c37	0.48678753
206	0xbebbf9b3	-0.36713943
207	0x3eac9cdd	0.33713427
208	0x3d9693bc	0.07352397
209	0x3ec59c3a	0.38595754
210	0xbef64c67	-0.48105165
211	0x3d0fff20	0.035155416
212	0xbd17424e	-0.036928467
213	0x3e94a04f	0.29028556
214	0xbf16c9cb	-0.5890166
215	0xbe9f3471	-0.31094697
216	0x3f133a34	0.57510686
217	0xbd5aaa65	-0.053385157
218	0x3e6dc731	0.23220517
219	0x3eb3db9c	0.35128486
220	0xbe8f654b	-0.28006968
221	0xbed561fb	-0.41676316
222	0x3ecd86cb	0.401419
223	0x3f1b26ee	0.60606277
224	0xbdab66c7	-0.083692126
225	0x3f1c9d94	0.61177945
226	0x3e092295	0.13392098
227	0x3f130820	0.5743427
228	0x3ef8974c	0.4855293
229	0xbd950cda	-0.07277842
230	0x3f392a10	0.7232981
231	0xbecf2181	-0.4045525
232	0xbe2f0fc8	-0.17095864
233	0xbed5802d	-0.41699353
234	0x3ed0830b	0.40724978
235	0x3e6bea25	0.23038538
236	0x3e0a31e5	0.13495596
237	0xbe8e01c1	-0.27735713
238	0x3ed17577	0.4090993
239	0xbd8c222c	-0.06842455
240	0xbdb5900d	-0.08865366
241	0xbe7c6602	-0.24648288
242	0x3ef87efe	0.48534387
243	0x3eb5d2c8	0.35512376
244	0x3eb0bb92	0.34518105
245	0x3c18fe20	0.009337932
246	0x3ebb4312	0.36574608
247	0x3ebdada0	0.37046528
248	0xbe9c5219	-0.30531386
249	0x3ea87ebd	0.32909194
250	0xbeaaab6b	-0.33333907
251	0x3ee5ed02	0.44907385
252	0xbeb41d38	-0.35178542
253	0x3c813580	0.015772581
254	0x3e99d5a0	0.30045795
255	0xbee6a9ff	-0.45051572

bias f4 [4]
0	0xbdebf61a	-0.115215495
1	0x3dec8479	0.11548705
2	0x3cc2ece2	0.023794595
3	0xbd838d64	-0.064234525
