neural-network-3.pt (torch, 41487 bytes, 8 tensors)

weight f4 [8, 8]
0	0x3d8bf263	0.06833341
1	0x3f5fa2db	0.8735787
2	0xbe2570dd	-0.16156335
3	0xbd9b3188	-0.07577807
4	0x3f9e65ea	1.2374852
5	0x3e6f51f6	0.2337111
6	0xbe78fa97	-0.24314342
7	0xbf64974c	-0.8929336
8	0x3e815ee1	0.252677
9	0x3eece905	0.4627153
10	0x3e95cbc5	0.29257026
11	0x3f98bfee	1.1933572
12	0xbeec765b	-0.46184048
13	0xbeb1154b	-0.34586558
14	0x3df6c979	0.120501466
15	0xbcffd05c	-0.031227283
16	0xbd85ff6d	-0.06542859
17	0xbf0be87b	-0.5465161
18	0x3f263d79	0.6493755
19	0xbe41f980	-0.18942833
20	0x3f2cdb2d	0.67521936
21	0x3e839546	0.25699824
22	0xbc6b2829	-0.014352837
23	0xbcd75fe7	-0.026290847
24	0xbc88a518	-0.016680285
25	0x3c911ed6	0.017714899
26	0x3f78dd75	0.97212917
27	0x3e493751	0.19650008
28	0x3e0eefc5	0.13958652
29	0x3df145d2	0.11780895
30	0xbd151fb0	-0.036407173
31	0xbeafa608	-0.3430636
32	0xbd5bd4e0	-0.05366981
33	0x3f27678c	0.65392375
34	0xbece408a	-0.40283614
35	0xbeab37a5	-0.3344089
36	0xbfaeb25b	-1.364818
37	0x3e519511	0.2046702
38	0xbdb073b6	-0.0861582
39	0xbda5edb8	-0.08101982
40	0x3e2a0730	0.16604304
41	0x3e20a86d	0.1568925
42	0x3ec545df	0.3852987
43	0xbd91229e	-0.07086681
44	0xbf4be74a	-0.79649794
45	0x3e2d9eb6	0.16955075
46	0x3ed1b190	0.40955782
47	0xbdf2d217	-0.11856478
48	0x3e8ec452	0.27884156
49	0x3e247cc3	0.16063218
50	0x3f0107cd	0.5040253
51	0xbf1ec32d	-0.62016565
52	0xbe62f6b4	-0.22164422
53	0xbec589da	-0.38581735
54	0xbe41c4d3	-0.18922739
55	0x3dc6b8b4	0.09703198
56	0xbeefcd9f	-0.46836564
57	0x3e0eba44	0.13938242
58	0xbf02e809	-0.5113531
59	0x3e0626be	0.13100716
60	0x3eea62de	0.45778555
61	0x3f3a3218	0.72732687
62	0xbc8cdb1e	-0.017194327
63	0xbdbb938a	-0.09159

bias f4 [8]
0	0x3f00cfd6	0.5031713
1	0x3ea275a7	0.31730387
2	0x3da028d9	0.07820291
3	0xbb9088ce	-0.0044108396
4	0x3ece01fc	0.4023589
5	0x3dc481be	0.09595059
6	0x3e87c07a	0.26514035
7	0x3f04abe4	0.51824784

weight f4 [64, 8]
0	0x3eff8779	0.49908045
1	0xbe58863f	-0.21144961
2	0x3f384b0c	0.7198951
3	0x3f12972d	0.57261926
4	0x3f132519	0.5747848
5	0xbec68560	-0.38773632
6	0xbeae3dc0	-0.34031487
7	0xbf0220ea	-0.5083147
8	0x3f1619e4	0.58633256
9	0xbc37a86e	-0.01120959
10	0x3e927e74	0.286121
11	0x3ed6b846	0.41937464
12	0x3f120d72	0.57051766
13	0xbe043c85	-0.12913711
14	0x3db3ef90	0.08785927
15	0xbecfbaa2	-0.40572077
16	0x3e95c1d4	0.29249442
17	0xbee7fcad	-0.45309964
18	0xbdfa8506	-0.122324035
19	0xbd9af768	-0.0756672
20	0x3f2918f8	0.66053724
21	0xbf483241	-0.7820168
22	0xbe2382bb	-0.15967838
23	0xbefc0279	-0.49220636
24	0xbe7bf324	-0.2460447
25	0x3bb84cc0	0.0056243837
26	0x3db4d528	0.08829719
27	0x3de35984	0.11101058
28	0xbeaeff6c	-0.34179246
29	0xbe47f47d	-0.19526859
30	0xbe927304	-0.28603375
31	0x3cc445c0	0.02395904
32	0x3f1b8dc9	0.6076322
33	0xbb1a633f	-0.002355769
34	0x3ea67dfb	0.3251799
35	0x3df1bff0	0.11804187
36	0xbf00400c	-0.5009773
37	0xbf0b0629	-0.54306275
38	0xbf010887	-0.50403637
39	0xbe278b87	-0.16361819
40	0x3dd88d66	0.105738446
41	0xbdce6638	-0.100780904
42	0x3f107429	0.56427246
43	0x3f7f07d4	0.9962132
44	0x3ec282e5	0.3799049
45	0xbd9e40d4	-0.07727209
46	0x3e73f84a	0.23825184
47	0xbec7070e	-0.3887257
48	0x3e2e3668	0.17012942
49	0x3f392f4b	0.7233779
50	0x3dbb933c	0.09158942
51	0x3f4a9624	0.79135346
52	0x3efe3c7a	0.49655515
53	0xbd0413cc	-0.032245442
54	0xbf3de747	-0.74181026
55	0xbf1bb0a0	-0.60816383
56	0x3efb51c1	0.4908581
57	0x3dd592a7	0.10428362
58	0xbf83db7f	-1.030136
59	0x3d8985f4	0.06715003
60	0xbe053dc8	-0.13011849
61	0x3f2aaad7	0.6666693
62	0xbddcd2c8	-0.10782391
63	0x3e739a52	0.23789337
64	0x3f3f4189	0.74709374
65	0x3f85d346	1.04551
66	0xbedcf5f8	-0.4315641
67	0x3ea50e32	0.32237393
68	0x3f21ea25	0.632479
69	0x3ea87b70	0.32906675
70	0x3e90d710	0.2828908
71	0xbd960ff0	-0.073272586
72	0x3efecccb	0.4976562
73	0x3e7a2a7b	0.24430268
74	0xbe3580ca	-0.1772491
75	0x3e7e68a5	0.24844606
76	0xbec8a520	-0.3918848
77	0x3dc707f0	0.09718311
78	0x3f378ce4	0.7169936
79	0x3edb34e0	0.42813778
80	0x3ddd3215	0.10800568
81	0x3f172607	0.590424
82	0x3e1634a4	0.14668518
83	0x3f484050	0.78223133
84	0xbe44180c	-0.19149798
85	0xbd7b44c2	-0.06134487
86	0x3e7d07c2	0.2470999
87	0x3f293c24	0.6610739
88	0x3dc4b583	0.09604933
89	0x3e967174	0.29383433
90	0x3ed644c9	0.41849354
91	0x3ebc3142	0.3675633
92	0x3ef5a6b0	0.47978735
93	0xbdb17570	-0.086649776
94	0xbe65bc44	-0.22435099
95	0x3e5358e4	0.20639378
96	0x3ed7a8f3	0.42121086
97	0x3f70e95b	0.9410607
98	0x3ee4884c	0.44635236
99	0xbe4b9ab0	-0.19883227
100	0x3cffee05	0.031241426
101	0xbe8ffb90	-0.28121614
102	0xbeb47bdd	-0.3525075
103	0x3ee9f668	0.45695806
104	0x3c8c420e	0.017121341
105	0x3e6af1d9	0.2294382
106	0x3dd9f09a	0.10641594
107	0x3fa6d9cd	1.3035218
108	0x3f08972d	0.53355676
109	0x3e5e807a	0.21728697
110	0x3e6d6391	0.23182513
111	0xbee38ef2	-0.44444996
112	0x3ef697a6	0.48162574
113	0x3e104cad	0.1409175
114	0x3f22990d	0.63514787
115	0x3ec4d075	0.3844029
116	0xbeca70f6	-0.39539307
117	0xbeeed509	-0.46646908
118	0xbf1d6585	-0.6148303
119	0xbe9158af	-0.28387973
120	0x3e3f828e	0.18702146
121	0x3e7aea42	0.24503425
122	0xbd20a983	-0.03922416
123	0xbe2f2e88	-0.17107594
124	0xbe96cf0c	-0.2945484
125	0x3f116c57	0.5680594
126	0xbdd4fcec	-0.103998035
127	0x3e34c675	0.1765383
128	0x3d337814	0.043815687
129	0x3e8c6627	0.27421686
130	0x3f51bd9e	0.8192996
131	0x3ec8f540	0.3924961
132	0x3dc27743	0.094954036
133	0xbd8f3b92	-0.06993784
134	0xbedba074	-0.42895854
135	0xbe89b2cb	-0.2689422
136	0x3dbba8c8	0.09163052
137	0x3db81e52	0.08990158
138	0x3f511cfa	0.8168484
139	0x3fad8c17	1.3558377
140	0xbf15ddb4	-0.5854142
141	0x3f497b8f	0.7870416
142	0xbf393afe	-0.7235564
143	0x3e3d78eb	0.18503158
144	0x3f0cabc3	0.5494959
145	0xbdd52aa3	-0.10408523
146	0xbe1feafe	-0.15616986
147	0x3f299acb	0.6625182
148	0x3e9cca07	0.30622885
149	0xbf513cc7	-0.81733364
150	0xbf2161d7	-0.63039917
151	0xbf1d7688	-0.6150899
152	0xbd29b4c6	-0.041432165
153	0x3f1a7b7f	0.6034469
154	0x3e7e7ced	0.24852343
155	0xbeb44349	-0.35207585
156	0xbc498bd0	-0.0123014
157	0xbf3575ff	-0.7088317
158	0x3f08222f	0.5317716
159	0x3d12a24d	0.035799313
160	0x3ed7230a	0.4201892
161	0x3f1f6fec	0.62280154
162	0x3f0740e2	0.5283338
163	0x3f40e6e8	0.75352335
164	0x3e389c75	0.18028434
165	0xbc3a82cd	-0.011383724
166	0xbf834e2a	-1.0258229
167	0x3f1e488b	0.6182944
168	0xbeca98e8	-0.39569783
169	0x3edcbba4	0.43111908
170	0x3f06c2aa	0.52640784
171	0x3e7ae82d	0.2450263
172	0xbea169b7	-0.31525967
173	0xbec0c1be	-0.37647814
174	0x3eee520d	0.46546975
175	0xbd2f8dc6	-0.042859815
176	0x3f0fc8d2	0.561658
177	0x3e8ef853	0.2792383
178	0xbe98872c	-0.29790628
179	0xb99ff583	-0.00030509764
180	0x3f1b3aa1	0.60636336
181	0xbf048e40	-0.51779556
182	0xbeb11f9a	-0.34594423
183	0xbef2ae6e	-0.47398704
184	0x3eaf9063	0.34289846
185	0x3f24da1a	0.64395297
186	0x3dd591b1	0.10428179
187	0x3f0d6f7f	0.55248255
188	0x3ccbb498	0.024866387
189	0x3f00709e	0.5017184
190	0x3ee6234e	0.4494881
191	0x3f2410ea	0.6408831
192	0x3f276f16	0.6540388
193	0x3f959693	1.1686577
194	0x3e3a26b5	0.18178828
195	0xbc0008f9	-0.007814639
196	0x3ed35320	0.41274357
197	0x3ea148c9	0.31500843
198	0xbe489075	-0.19586356
199	0x3eaf911f	0.34290406
200	0xbe090027	-0.13378964
201	0x3f318057	0.69336456
202	0x3eb3d863	0.35126027
203	0x3f3bd545	0.733723
204	0x3eea2891	0.45734075
205	0x3f5888c0	0.84583664
206	0x3e923c1e	0.2856149
207	0xbe681a1a	-0.22666207
208	0x3f08bb3f	0.53410715
209	0x3e47032b	0.19434802
210	0x3e8080ac	0.2509817
211	0x3f0e7750	0.55650806
212	0x3f03930f	0.5139627
213	0x3cfa79fb	0.030575743
214	0x3e9e2cdd	0.30893603
215	0xbda0b939	-0.078478284
216	0x3f40dd10	0.75337315
217	0x3f189f02	0.59617627
218	0x3da8bdda	0.08239336
219	0x3ee1a920	0.44074345
220	0x3e0ecffe	0.1394653
221	0x3da67e70	0.08129585
222	0x3e5e0543	0.21681695
223	0x3f01304b	0.50464314
224	0x3ed5642d	0.4167799
225	0x3f50775f	0.81432146
226	0x3f587c39	0.8456455
227	0x3e73b041	0.23797704
228	0xbdd677fa	-0.104721025
229	0x3e9bca5c	0.30427825
230	0xbf89fd53	-1.0780433
231	0x3f1d87a8	0.6153512
232	0x3e3daf1a	0.18523827
233	0xbef22f98	-0.47301936
234	0x3e3c7bd3	0.1840661
235	0xbe923813	-0.28558406
236	0x3f076416	0.52887094
237	0xbe88b425	-0.2669994
238	0xbe72abf0	-0.23698401
239	0x3e871adf	0.2638769
240	0x3d92721c	0.07150671
241	0x3dbcfdef	0.092281215
242	0xbe2216f7	-0.15829073
243	0x3c820187	0.015869869
244	0xbddea734	-0.10871735
245	0x3f252a57	0.6451773
246	0x3ee84338	0.45363784
247	0x3f192438	0.5982089
248	0xbf4fd01d	-0.8117693
249	0x3e97b2f6	0.29628724
250	0x3e53a66d	0.20668955
251	0x3c06670a	0.008203277
252	0xbe772dba	-0.24138537
253	0x3c8c7536	0.017145734
254	0xbebc56ce	-0.36784977
255	0x3e5615f0	0.20906806

bias f4 [64]
0	0x3f11e67f	0.56992334
1	0xbc415b9d	-0.011801627
2	0x3db44d7e	0.08803843
3	0xbe0d16c5	-0.13778217
4	0x3e2918a7	0.1651331
5	0x3f0e33b6	0.55547655
6	0x3e4cf654	0.20015842
7	0xbef4a10e	-0.47779125
8	0x3ecd0cf3	0.40048942
9	0xbdf12c0c	-0.117759794
10	0x3cc5e5a8	0.02415736
11	0x3e67f562	0.226522
12	0x3e8f5e48	0.28001618
13	0x3ede77c8	0.4345076
14	0x3e2ce016	0.16882357
15	0x3e2d1a7b	0.16904633
16	0x3f0fbc6d	0.5614689
17	0x3d86056a	0.065440014
18	0x3db9c857	0.09071415
19	0x3de96784	0.11396697
20	0x3ccc2c34	0.024923421
21	0xbdba9cb3	-0.09111919
22	0x3e2e62f7	0.1702994
23	0xbe2a7883	-0.16647534
24	0x3ec987a0	0.39361286
25	0x3eb9fced	0.3632578
26	0x3eafb1b2	0.34315258
27	0xbdc5b46b	-0.096535526
28	0xbc00c2c3	-0.007858935
29	0x3f1406e2	0.57823
30	0x3d58e930	0.05295676
31	0x3ee8139a	0.45327455
32	0x3e929377	0.28628132
33	0xbea197d1	-0.3156114
34	0x3f23107d	0.63697034
35	0xbdfc2d38	-0.12313312
36	0x3f16e18e	0.5893792
37	0xbe0e6e23	-0.13909201
38	0x3ea8b62f	0.32951495
39	0xbe1f94c8	-0.155841
40	0x3e73d1da	0.23810521
41	0xbed32d30	-0.41245413
42	0x3e6a31fd	0.22870632
43	0x3f0d2d53	0.55147284
44	0x3ef48952	0.47761017
45	0x3e2da7f9	0.16958608
46	0x3c74c97b	0.014940615
47	0xbe6d8741	-0.23196127
48	0x3ecdf26c	0.40224016
49	0xbeb54b7f	-0.3540916
50	0x3dc74920	0.09730744
51	0x3e5cd66f	0.21566175
52	0xbd8b76ad	-0.06809745
53	0x3c48a6e6	0.012246823
54	0x3e3df10f	0.18548988
55	0x3d811e59	0.063046165
56	0x3e75e468	0.24012911
57	0x3f024949	0.50893074
58	0x3e28af10	0.16473031
59	0x3e274e3a	0.16338435
60	0x3efd6d5a	0.4949749
61	0xbd963535	-0.07334367
62	0x3edb5719	0.42839888
63	0xbe36fd58	-0.1787008

weight f4 [128, 64]
0	0x3d97b1c4	0.07406953
1	0xbdc2c698	-0.09510535
2	0xbdadba1a	-0.08482762
3	0xbd75681c	-0.05991374
4	0x3d544400	0.051822662
5	0xbd9cf0da	-0.07663126
6	0xbdaefcac	-0.08544287
7	0xbbf78960	-0.007554218
8	0xbdf14c1e	-0.11782096
9	0xbc6255d0	-0.013814405
10	0xbde70dee	-0.11281954
11	0x3db73130	0.08944929
12	0xbd1685a8	-0.03674856
13	0xbcbb7ce0	-0.022886693
14	0xbd567520	-0.052357793
15	0x3dded688	0.10880762
16	0xbdd77a90	-0.10521424
17	0x3dd285d4	0.10279432
18	0xbce989c8	-0.028508082
19	0x3db587c0	0.08863783
20	0x3cf301b8	0.029663906
21	0x3dfdfad6	0.12401359
22	0x3d20934c	0.039202973
23	0xbdb6a620	-0.089184046
24	0x3d2d89f0	0.042367876
25	0x3d8896e0	0.06669402
26	0x3dc4a8e2	0.09602524
27	0xbdd282a4	-0.10278824
28	0x3d6c2ab8	0.057657927
29	0x3cd13cd8	0.025541708
30	0x3d59776c	0.053092405
31	0xbdb1e2fa	-0.086858705
32	0xbd9a1866	-0.07524185
33	0xbdddccba	-0.10830064
34	0xbd031c88	-0.03200963
35	0xbd5482bc	-0.05188249
36	0x3d8ef220	0.069797754
37	0x3dc462b2	0.09589137
38	0xbdd7df16	-0.10540597
39	0x3df98594	0.12183681
40	0x3dd09676	0.10184948
41	0x3d13688c	0.035988376
42	0x3d6fc0b4	0.058533385
43	0xbbe1b4a0	-0.0068879873
44	0x3c714a60	0.014727205
45	0x3cd78e38	0.026312932
46	0xbd37ee70	-0.044905126
47	0x3dcd4452	0.10022797
48	0xbdfe1fc6	-0.12408404
49	0xbddff576	-0.1093549
50	0x3db30028	0.08740264
51	0x3dd7f184	0.10544112
52	0xbd4b89ec	-0.04969208
53	0xbde49b58	-0.11162442
54	0x3c8e9348	0.017404214
55	0x3d11e888	0.03562215
56	0xbde0e618	-0.10981387
57	0xbc2b5740	-0.010457814
58	0x3cbe6300	0.023240566
59	0x3b87dca0	0.0041461736
60	0xbd520eb4	-0.051283553
61	0xbde405d0	-0.11133921
62	0xbd9e401c	-0.07727072
63	0xbcfa0400	-0.030519485
64	0x3ea26085	0.31714264
65	0x3ecb7824	0.39740098
66	0x3f17913e	0.59205997
67	0x3df995ba	0.12186761
68	0x3fcb05dd	1.5861164
69	0x3f05b2f3	0.5222618
70	0x3f68af1a	0.90892184
71	0xbf09f081	-0.53882605
72	0x3e747141	0.23871328
73	0xbe6e7aa3	-0.2328897
74	0x3e2eba4d	0.17063256
75	0x3e19b0dc	0.15008873
76	0x3dc889fe	0.09791945
77	0x3e5e09a2	0.21683362
78	0x3f89882e	1.0744684
79	0xbe83bd02	-0.2573014
80	0x3e9357c4	0.28777897
81	0x3e1120b1	0.14172627
82	0x3f570d04	0.84004235
83	0xbe6c8be1	-0.23100235
84	0xbe7c1c02	-0.24620059
85	0xbf1056ac	-0.5638225
86	0x3ecd752a	0.40128452
87	0x3dc33006	0.09530644
88	0x3e8117e1	0.2521353
89	0x3e58d03f	0.2117319
90	0x3e88bb12	0.26705223
91	0x3d82a72d	0.063795425
92	0xbe35843d	-0.17726226
93	0x3edd55f3	0.43229637
94	0xbe9b8453	-0.30374393
95	0x3f4db2bd	0.8035086
96	0x3ec63ea5	0.3871967
97	0xbf2eee10	-0.68332005
98	0x3ee3a46e	0.44461387
99	0x3d15d0f3	0.036576223
100	0x3eb89e54	0.36058295
101	0xbd064f48	-0.032790452
102	0x3d1a5496	0.037678324
103	0xbf3c8329	-0.73637635
104	0x3c88f2a0	0.016717255
105	0xbf3519b9	-0.70742375
106	0xbe9f68b8	-0.31134582
107	0x3f363b3b	0.7118413
108	0x3ea1df3f	0.31615636
109	0x3f3a048d	0.72663194
110	0x3f0b1d49	0.5434156
111	0x3f22cddb	0.6359536
112	0x3e72496b	0.23660819
113	0xbed174ad	-0.4090933
114	0xbf0033a2	-0.50078785
115	0x3e311410	0.1729281
116	0x3f79ae9a	0.97532046
117	0xbe8a466b	-0.2700685
118	0x3e71b985	0.23605926
119	0x3efe8e87	0.49718115
120	0x3f2bd677	0.6712412
121	0x3efd0e53	0.4942499
122	0x3ee49fe8	0.4465325
123	0x3df551fe	0.119785294
124	0x3e49548d	0.1966116
125	0xbe4dabbd	-0.20085044
126	0x3ee877eb	0.4540399
127	0xbf4a473e	-0.79014957
128	0xbe20b8c0	-0.15695477
129	0xbe0c907d	-0.13726993
130	0xbe88350e	-0.26602978
131	0xbdef3f12	-0.116819516
132	0xbf8b5e9c	-1.0888247
133	0xbe28de15	-0.16490968
134	0xbf10393d	-0.5633734
135	0x3e62db32	0.22153929
136	0x3d42e1a7	0.04757848
137	0x3e802fea	0.25036556
138	0x3e4d6cf5	0.20061095
139	0x3df15386	0.11783509
140	0x3dedb5dd	0.11606953
141	0x3c5011c0	0.012699544
142	0xbf405d0b	-0.7514197
143	0x3e1e5571	0.15462281
144	0x3c24dcf2	0.010062443
145	0x3ec0d59d	0.37662974
146	0xbecb960d	-0.39762917
147	0x3e6e597b	0.23276322
148	0x3f28fea8	0.66013575
149	0x3ec7f86d	0.3905672
150	0xbdc03f39	-0.09387059
151	0x3e9ecaa7	0.31013986
152	0x3dbea7d5	0.09309355
153	0x3d13a204	0.036043182
154	0x3d9329b0	0.07185686
155	0x3e8a4192	0.2700315
156	0x3f0471a4	0.517359
157	0xbdc230f2	-0.09481992
158	0x3e0c0c7b	0.13676636
159	0xbf163bf0	-0.5868521
160	0x3db63172	0.0889615
161	0x3e56b494	0.20967323
162	0xbd676b89	-0.056499038
163	0x3c50ad10	0.012736574
164	0xbd48b93c	-0.04900478
165	0xbda7f5fc	-0.08201215
166	0x3e6808e1	0.22659637
167	0x3f384a8f	0.7198877
168	0x3e543c6e	0.20726177
169	0x3f81418e	1.0098131
170	0x3e42476b	0.18972556
171	0xbc1a7a87	-0.009428627
172	0xbc927d1d	-0.017881924
173	0xbef0cac1	-0.4702969
174	0xbe5dfecb	-0.21679227
175	0xbf0f2831	-0.559207
176	0xbd062b7f	-0.032756325
177	0x3d66559d	0.05623399
178	0x3ec1628c	0.37770498
179	0x3c6480cf	0.013946726
180	0xbf1f60eb	-0.6225726
181	0x3e80ae63	0.25133047
182	0xbdec4bca	-0.11537893
183	0xbe4eb1d0	-0.20185018
184	0xbef3ba30	-0.47602987
185	0xbc14142f	-0.009038015
186	0xbdb11d61	-0.08648182
187	0x3e0e2236	0.13880238
188	0x3a8613e4	0.0010229317
189	0x3e098f19	0.13433494
190	0xbef2c220	-0.4741373
191	0x3f742dcf	0.953824
192	0x3e84a7ae	0.2590918
193	0x3e996e5c	0.2996701
194	0x3ebc32de	0.3675756
195	0xbd176088	-0.036957294
196	0x3f8fb99c	1.1228518
197	0x3ece0a7e	0.4024238
198	0x3f2258ea	0.6341692
199	0xbe1d935b	-0.15388243
200	0x3dce05cd	0.100597
201	0x3d24cc6e	0.04023402
202	0x3dee4153	0.11633553
203	0xbdd90523	-0.10596683
204	0xbd2917e6	-0.041282557
205	0x3e5d1fb1	0.2159412
206	0x3f617c69	0.8808046
207	0xbe0c797b	-0.13718216
208	0x3e398b00	0.1811943
209	0x3e77a8cd	0.24185486
210	0x3f342f5b	0.7038476
211	0xbea4751f	-0.32120606
212	0xbeb82f7c	-0.35973728
213	0xbea34dbf	-0.31895253
214	0x3e3d355c	0.18477386
215	0xbcb4c38b	-0.022065898
216	0x3d494ad2	0.04914362
217	0x3e97d497	0.2965438
218	0x3def5182	0.11685468
219	0x3dca288a	0.098710135
220	0xbecebbec	-0.40377748
221	0x3e8220c0	0.2541561
222	0x3d69c3b1	0.05707139
223	0x3ef76c9b	0.48325047
224	0x3e370449	0.17872728
225	0xbf14c1d4	-0.5810826
226	0x3ef5f21a	0.4803627
227	0x3ce979fa	0.028500546
228	0x3e5c38ad	0.21505995
229	0xbd910148	-0.070803225
230	0x3e77a665	0.24184568
231	0xbf256f77	-0.64623207
232	0x3db9a8bc	0.09065387
233	0xbf4cbc76	-0.7997507
234	0xbe11e1b5	-0.14246257
235	0x3ee1b7e0	0.44085598
236	0x3e53349e	0.2062554
237	0x3f02c0fa	0.5107571
238	0x3ee0ad19	0.43882063
239	0x3f2b0972	0.6681129
240	0x3e2531b5	0.16132243
241	0xbea4299b	-0.32062992
242	0xbee220f3	-0.44165763
243	0x3e111a32	0.14170149
244	0x3f97baf5	1.185393
245	0xbe8f7336	-0.28017586
246	0x3e91a345	0.28444877
247	0x3ef95dc8	0.48704362
248	0x3f206440	0.6265297
249	0x3ed41c6e	0.4142794
250	0x3ee04ef4	0.43810236
251	0x3d81b87f	0.06334018
252	0x3dd84bef	0.10561358
253	0xbe6d41d1	-0.23169638
254	0x3f17e33f	0.59331125
255	0xbf3bba2e	-0.7333096

bias f4 [128]
0	0xbdd8b672	-0.10581674
1	0x3ea84412	0.32864434
2	0xbd467393	-0.048450064
3	0x3e9f1688	0.31071877
4	0xbdc652a2	-0.0968373
5	0xbdf2b2ec	-0.11850533
6	0x3e20999b	0.15683596
7	0x3e07b5a7	0.13252889
8	0x3ca49308	0.020089641
9	0xbe21fcbb	-0.15819065
10	0x3eb19a81	0.3468819
11	0xbc1f265f	-0.009713738
12	0x3e9f2dc4	0.31089604
13	0x3e86bbcf	0.26315162
14	0x3dcb9a22	0.09941508
15	0x3dc30f2b	0.095243774
16	0xbd8df5f4	-0.069316775
17	0xbe3cca29	-0.18436493
18	0xbca6587b	-0.020305863
19	0xbdf0b8c9	-0.11753995
20	0x3ca7eeb4	0.020499565
21	0x3dc40a5a	0.09572287
22	0xba05fcb2	-0.0005111202
23	0x3d790676	0.060797177
24	0x3d4304a9	0.047611866
25	0x3dda5871	0.106614
26	0x3e127c44	0.14305216
27	0x3d14f7eb	0.036369245
28	0x3e009f37	0.12560736
29	0x3edc5243	0.4303151
30	0x3d71aea5	0.059004445
31	0xbde1337c	-0.10996148
32	0x3d051ad4	0.03249629
33	0x3e8bb196	0.27283925
34	0xbc2b7219	-0.010464215
35	0x3e7aa3c8	0.2447654
36	0x3da5f752	0.08103813
37	0xbd8e44ca	-0.06946714
38	0x3c4fe241	0.0126882205
39	0x3e6f679b	0.23379366
40	0xbdba7efb	-0.09106251
41	0xbdb63ce1	-0.088983305
42	0x3d756edc	0.059920177
43	0xbdfc6228	-0.12323409
44	0xbdf63ec6	-0.12023692
45	0xbcd18339	-0.025575267
46	0x3ee03d82	0.43796927
47	0x3e8f1bd4	0.2795092
48	0xbdb6a00a	-0.08917244
49	0xbd87417f	-0.06604289
50	0x3d2464aa	0.040135063
51	0x3d11c590	0.0355888
52	0xbb01b171	-0.0019789601
53	0x3e87f2ad	0.26552334
54	0x3e1991ce	0.14997026
55	0xbd057283	-0.03257991
56	0xbd2854ee	-0.04109662
57	0x3c3d8689	0.01156772
58	0x3da0482b	0.07826265
59	0xbdf583ce	-0.119880304
60	0x3e24555a	0.16048184
61	0x3db9a6e2	0.090650335
62	0x3e675b6f	0.22593473
63	0x3e823860	0.25433636
64	0xbc772652	-0.01508482
65	0x3dba9ab6	0.0911154
66	0x3d0ea3e4	0.034824267
67	0xbd7daab9	-0.061930392
68	0x3ea88291	0.32912114
69	0x3d54b762	0.0519327
70	0x3d5e1c6d	0.054226328
71	0x3dcf2b7c	0.10115716
72	0xbce5917f	-0.02802348
73	0x3ecf1475	0.40445295
74	0xbde87c56	-0.1135184
75	0xbde780e2	-0.11303879
76	0xbc026fa8	-0.007961191
77	0x3d822966	0.063555524
78	0x3e68d614	0.22737914
79	0xbd90d3a9	-0.07071621
80	0x3da86a8d	0.08223448
81	0x3e3d117c	0.18463701
82	0x3eac291a	0.33625108
83	0x3ea7bd3a	0.32761556
84	0x3e45ec64	0.19328457
85	0xbe0aa78e	-0.1354048
86	0x3d98f60a	0.07468803
87	0x3d09f84c	0.03368406
88	0x3ea1ce56	0.31602734
89	0x3e2a086e	0.16604778
90	0xbd1c0c68	-0.03809777
91	0xbdb1c0a0	-0.086793184
92	0x3e30ebf0	0.17277503
93	0x3dcd59e8	0.10026914
94	0x3ddc6bdc	0.1076276
95	0xbd28799e	-0.04113161
96	0xbe5e12e8	-0.216869
97	0x3d11e952	0.035622902
98	0x3ec44821	0.3833628
99	0x3d7661a3	0.060151707
100	0x3e8d8317	0.27639076
101	0xbc91b60d	-0.017787004
102	0x3dd41dae	0.103572235
103	0x3adfde16	0.0017079737
104	0x3e9bfe68	0.30467534
105	0x3e9d2690	0.30693483
106	0xbdd559ef	-0.10417544
107	0xbd19a994	-0.037515238
108	0x3ea82167	0.32837984
109	0xbe42cdbc	-0.19023794
110	0x3ea20616	0.31645268
111	0x3e09ebdd	0.13468881
112	0x3eaaf4ec	0.33389986
113	0xbcb96353	-0.02263037
114	0x3d03f311	0.032214228
115	0x3da30e5d	0.07961724
116	0x3e19a0e2	0.15002778
117	0xbccd5680	-0.02506566
118	0x3d6f5ed9	0.058440063
119	0x3dac3310	0.08408177
120	0x3d2de6c1	0.042456392
121	0x3e298665	0.16555174
122	0x3e91e87e	0.2849769
123	0x3d3bafff	0.04582214
124	0x3e4f30c1	0.20233442
125	0x3e678d85	0.22612579
126	0xbe38ecb1	-0.1805904
127	0x3dcece80	0.100979805

weight f4 [4, 128]
0	0xbc634128	-0.013870515
1	0x3ee11565	0.43961635
2	0xbe8e76fd	-0.27825156
3	0x3e471014	0.19439727
4	0xbefbe67b	-0.4919928
5	0x3efff28d	0.4998974
6	0xbee1a1a4	-0.44068635
7	0x3eb87bbc	0.36031902
8	0x3d92ce75	0.07168285
9	0x3f7d677d	0.98986036
10	0x3e9f8821	0.31158546
11	0x3ef8a34a	0.4856208
12	0x3ed0ca72	0.40779454
13	0x3e7eb380	0.24873161
14	0xbed7ceea	-0.4215005
15	0xbea8824c	-0.3291191
16	0x3c860d38	0.016363725
17	0x3eee0d27	0.4649441
18	0x3d9c915f	0.07644915
19	0xbe72a9e1	-0.23697616
20	0xbef6b4dd	-0.48184863
21	0x3c520aba	0.01281994
22	0x3f06ddcb	0.5268218
23	0xbef0e6ad	-0.47050992
24	0xbed0caed	-0.4077982
25	0x3d518068	0.05114785
26	0x3e66c628	0.22536528
27	0xbda36a9b	-0.07979318
28	0x3f6e960f	0.9319772
29	0x3eab297f	0.33430097
30	0x3e3d4b28	0.18485701
31	0x3f030f76	0.51195467
32	0xbe974276	-0.29542893
33	0x3ecf4f45	0.40490165
34	0x3e5e717e	0.21722981
35	0x3e90cf5d	0.28283206
36	0x3b43f42a	0.0029900172
37	0x3ec00537	0.3750398
38	0x3ea61e92	0.32445198
39	0x3e897119	0.268441
40	0x3d25491f	0.040352937
41	0x3f4c6552	0.798421
42	0x3eaa97ac	0.3331884
43	0x3edc597f	0.4303703
44	0xbd67d5b8	-0.056600302
45	0xbeb22224	-0.34791672
46	0x3ebf56db	0.37370953
47	0x3eafb139	0.34314898
48	0xbd8f369c	-0.06992838
49	0xbee6472d	-0.44976178
50	0xbd6120a6	-0.054962777
51	0x3d9dc497	0.07703512
52	0xbf615ef5	-0.8803552
53	0x3e50cb94	0.20390159
54	0xbeb22ffd	-0.34802237
55	0xbf27a324	-0.6548331
56	0xbeabccda	-0.33554727
57	0xbeb503e6	-0.35354537
58	0xbf06e6c5	-0.52695876
59	0xbd3c4dbf	-0.045972582
60	0xbec7d06c	-0.390262
61	0x3e895952	0.26825958
62	0x3ef9e4ae	0.4880728
63	0x3f0ed8ab	0.5579936
64	0xbbcb276b	-0.0061997673
65	0xbee529cd	-0.44758454
66	0xbed3010d	-0.4121174
67	0x3ecc8559	0.39945486
68	0x3ee0a25d	0.43873873
69	0xbed504e6	-0.416053
70	0x3ed1df1d	0.40990534
71	0xbf5e810a	-0.8691565
72	0xbe972fc5	-0.29528633
73	0x3eaa33a6	0.3324253
74	0xbd680e5c	-0.05665432
75	0x3cf2594f	0.029583601
76	0xbe85c1d6	-0.26124448
77	0xbe8158ca	-0.25263053
78	0x3ec2d1e4	0.3805076
79	0x3e8dd884	0.2770425
80	0x3ed5e505	0.4177629
81	0xbea68093	-0.3251997
82	0x3ed17b9e	0.40914625
83	0x3eb92fbb	0.36169228
84	0x3eb01745	0.34392753
85	0xbeb4a20e	-0.35279888
86	0x3ef50886	0.47858065
87	0x3f03f938	0.5155215
88	0x3f0c183c	0.5472448
89	0x3f8095fa	1.0045769
90	0x3becd715	0.007227788
91	0xbce1cd62	-0.027563754
92	0xbea5918e	-0.32337612
93	0xbee7eff1	-0.45300248
94	0xbec1f612	-0.3788305
95	0x3eca8683	0.3955575
96	0x3ecc7a0c	0.39936864
97	0xbeb6fac6	-0.357382
98	0x3e8f4947	0.27985594
99	0xbecba487	-0.39773962
100	0x3eacffa6	0.33788794
101	0xbed7705d	-0.42077914
102	0xbf075e25	-0.5287803
103	0xbec2a05a	-0.38012964
104	0x3f13dc06	0.57757604
105	0x3ecea5f3	0.40360984
106	0x3ee5ee5f	0.44908425
107	0x3ef005c1	0.4687939
108	0x3eb82187	0.3596308
109	0x3ec37711	0.38176778
110	0x3ecbca05	0.39802566
111	0x3f519a73	0.81876296
112	0x3e54f20f	0.20795463
113	0xbe9bbe77	-0.3041875
114	0x3edc2fd0	0.43005228
115	0xbf0d9438	-0.5530429
116	0x3eb69bed	0.35665837
117	0x3d16ceee	0.036818437
118	0xbedd4c08	-0.4322207
119	0xbd3a1c41	-0.0454371
120	0xbebb9b12	-0.36641747
121	0x3f438631	0.76376635
122	0x3ea4ff8e	0.32226223
123	0xbeb52e4c	-0.35386884
124	0xbc8c4832	-0.01712427
125	0x3ea3f571	0.32023194
126	0xbef2db03	-0.47432718
127	0xbec4c934	-0.38434756
128	0x3cb2c838	0.021823987
129	0x3ec0f2de	0.37685293
130	0xbec85a24	-0.39131272
131	0x3eb56a40	0.35432625
132	0xbf157780	-0.5838547
133	0x3eba217a	0.36353666
134	0xbef6387d	-0.48089972
135	0x3eff44de	0.4985723
136	0xbd1cae99	-0.038252447
137	0x3f4c0722	0.79698384
138	0x3ed69e2e	0.41917557
139	0x3ed9a81b	0.42511067
140	0x3edee60c	0.43534887
141	0x3e0ba2c8	0.13636315
142	0xbeda4ca9	-0.42636612
143	0xbeb8923d	-0.3604907
144	0x3c76ad50	0.015055969
145	0x3ec7434a	0.38918525
146	0x3d895c57	0.067070656
147	0xbec507f5	-0.38482633
148	0xbef42ae9	-0.47688988
149	0xbdb805ee	-0.08985506
150	0xbcf8e728	-0.030383661
151	0xbf439255	-0.7639516
152	0xbec41348	-0.3829596
153	0x3d3c20d4	0.045929745
154	0x3e373833	0.17892532
155	0xbec571dd	-0.38563433
156	0x3f263359	0.649221
157	0x3ea0af36	0.31383675
158	0x3ef8daad	0.48604336
159	0x3f08b34e	0.533986
160	0xbef9cbc9	-0.48788288
161	0x3ed3fea7	0.41405222
162	0x3eb9085a	0.36139184
163	0x3e211e95	0.15734322
164	0xbd93142e	-0.07181583
165	0x3eb5698a	0.35432082
166	0x3f2b73c5	0.66973525
167	0x3eb76f35	0.35827032
168	0x3c950ed0	0.01819554
169	0x3f4f36b3	0.8094284
170	0x3b1cf63c	0.0023950478
171	0x3e7ff24b	0.24994771
172	0xbd279535	-0.04091378
173	0xbe97a52b	-0.296182
174	0x3ea71095	0.3262984
175	0x3e99351c	0.29923332
176	0x3cd08ef4	0.02545879
177	0xbeab1bb0	-0.3341956
178	0xbdada374	-0.08478442
179	0x3d5b646a	0.05356256
180	0xbf38da07	-0.72207683
181	0x3e6d88db	0.23196737
182	0xbea89e98	-0.32933497
183	0xbf09e774	-0.53868794
184	0xbe47108e	-0.19439909
185	0xbe111aef	-0.1417043
186	0xbeddffac	-0.43359125
187	0x3d4fc4be	0.050724737
188	0xbefdf1ea	-0.49598628
189	0x3daf072c	0.0854629
190	0x3ecaaf5e	0.3958692
191	0x3f1313cd	0.5745209
192	0x3d7e9727	0.06215587
193	0xbe8c58ed	-0.27411595
194	0xbecdfb7e	-0.40230936
195	0x3f415015	0.7551282
196	0x3ec19c35	0.3781449
197	0xbef50c49	-0.47860935
198	0x3ed54e00	0.41661072
199	0xbebb6904	-0.36603558
200	0xbec39a67	-0.38203737
201	0x3e9da8f5	0.30792966
202	0x3d0af5ec	0.033925936
203	0x3d315a98	0.043299288
204	0xbea91258	-0.33021808
205	0xbee4e60d	-0.44706765
206	0x3edf46d1	0.43608716
207	0x3e55157d	0.20808978
208	0x3e5d6a6f	0.21622632
209	0xbede7ff6	-0.43457
210	0x3ebff3cf	0.374907
211	0x3eb73a9c	0.35786903
212	0x3f03a363	0.51421183
213	0xbee7c610	-0.45268297
214	0x3e9db2ac	0.30800378
215	0x3f10899f	0.56459993
216	0x3f0ecaf5	0.5577844
217	0x3f4dcbba	0.8038899
218	0x3ca91e28	0.020644262
219	0x3d073f12	0.033019133
220	0xbf0a6240	-0.5405617
221	0xbebf510e	-0.37366527
222	0xbeb3bfd0	-0.3510728
223	0x3eeb86bb	0.4600123
224	0x3eee04c5	0.46488014
225	0xbea6cd2a	-0.32578403
226	0x3eaad8a2	0.33368403
227	0xbec7de60	-0.39036846
228	0x3eb4143d	0.3517169
229	0xbee5c05c	-0.4487332
230	0xbee89108	-0.4542315
231	0xbebe31ac	-0.37147272
232	0x3f0f236e	0.55913436
233	0x3e9c195f	0.30488107
234	0x3ec3911a	0.3819664
235	0x3edc357f	0.43009564
236	0x3f091a19	0.53555447
237	0x3eb63eeb	0.35594878
238	0x3e84aef7	0.25914738
239	0x3f1f6fa5	0.6227973
240	0x3eacace9	0.3372567
241	0xbed948c3	-0.42438325
242	0x3eba10bc	0.36340892
243	0xbef7b985	-0.48383728
244	0xbd6ae2e6	-0.057345293
245	0xbc94147c	-0.018076174
246	0xbed39a59	-0.41328695
247	0x3ad6f7a2	0.0016400705
248	0xbea09365	-0.31362453
249	0x3f11c14d	0.5693558
250	0x3ef476cc	0.47746885
251	0xbee576ce	-0.44817203
252	0x3ebad82e	0.36493057
253	0x3eec2d14	0.46128142
254	0xbea7653f	-0.32694432
255	0xbec0c830	-0.3765273

bias f4 [4]
0	0xbd2a128f	-0.041521605
1	0xbe4dcdf7	-0.200981
2	0x3e4ae10d	0.19812413
3	0x3cae0f98	0.02124767
