neural-network-2.pt (torch, 14479 bytes, 8 tensors)

weight f4 [8, 8]
00000000: 5dde 973d d7c1 5a3f 685c 9c3f 19f1 8bbf
00000010: b07f ac3f 5d19 08bf ac86 2dbf 2de7 c33e
00000020: 8bdd adbc bd6c 283e d9a1 b53e d29f 7fbe
00000030: 0d7d 0abf 11b5 193f a801 ab3e f10d 38bd
00000040: 6a95 26bc 4652 96be 6f82 6f3e 6a57 69bf
00000050: 7b54 e5be ced1 c8be 4445 bd3d 79d5 e93e
00000060: e075 c33d 561b 763f 27c8 8b3e 3a9f 9b3f
00000070: 2fb4 ff3e 1435 eebe 2999 143c 6334 eb3e
00000080: 1387 5e3d ba77 983f 8749 ed3e ed10 933e
00000090: 242d 81be f7ab ca3e 1b3d c5bc 2d01 0dbe
000000a0: 9d91 2ebd 35c8 b73e 84b3 0bbf 4e95 bebe
000000b0: e15b 0040 6225 543f 36dd 093e 39ab babe
000000c0: aa76 f63d 85c3 563f 83b7 35bf 0d8d 04bf
000000d0: 9656 2cbf 473a 193f 6dcb 82bc d63e 54bf
000000e0: 472d db3c b1f0 de3e 368e dabe a332 98be
000000f0: fdec 6cbf f4f3 8dbf 837c 5ebf 93b8 b33d
0.07415459 0.85452026 1.22157 -1.0932952 1.3476467 -0.531637 -0.6778362 0.3826231
-0.021223804 0.1644773 0.35475042 -0.2496331 -0.5409706 0.6004191 0.333997 -0.04493517
-0.010167459 -0.29359645 0.233896 -0.9114901 -0.44791016 -0.39222568 0.09241727 0.4567068
0.09543967 0.9613546 0.27301142 1.2157967 0.49942157 -0.4652487 0.009069719 0.45938405
0.054328036 1.1911538 0.4634516 0.2872385 -0.25229752 0.39584324 -0.024076989 -0.1376998
-0.042619336 0.35894933 -0.54570794 -0.37223285 2.0056078 0.8286954 0.13463292 -0.36458758
0.12034352 0.8389209 -0.7098314 -0.51777726 -0.6731962 0.5985455 -0.015966142 -0.8290838
0.026754988 0.43543008 -0.42686623 -0.29726133 -0.92549115 -1.1090074 -0.8690874 0.08775439

bias f4 [8]
00000000: 79a5 6a3e 88dd 943e d537 c6bd fb34 cd3e
00000010: ee0a ad3e bc79 be3e c71f 143e bc0c e03e
0.22914685 0.29075265 -0.09678618 0.40079483 0.337974 0.3720225 0.14465247 0.43759716

weight f4 [32, 8]
00000000: 8a0a 1bbe 5f10 433f daee e33e 0a16 ed3e
00000010: cce1 c7be 11ab 803e d8bc 8f3e accd 003f
00000020: e5c4 2cbf ccef afbe 51f9 f33e 316b 93be
00000030: 2fc6 933e 9b02 eabe 766b 483f 9191 763e
00000040: bbd2 ddbe 8051 803e 2913 7d3e 2df0 a63d
00000050: 4c34 c83e a6e9 abbd a244 acbf dad7 f0be
00000060: 81a3 d43e 480c 113e 2e85 a8be 86ac 273e
00000070: 0494 213f 359d a4be 6f2c 743f f616 6c3f
00000080: cd46 343f f741 cdbe 1c46 9abf fc5b 0abf
00000090: 56fe 973d b3f5 22be 630b 513f bc5b 823d
000000a0: a976 37be f3b6 413f ab97 d73e 53c1 e7bd
000000b0: 6121 083e 7043 523f bd18 6abb 62d0 4abf
000000c0: 42ef 0d3e e460 8fbe 537f 883e d0e3 eb3e
000000d0: 5edf ddbc 9670 41bf bbc1 a2be 0097 223f
000000e0: 11e0 773f 3f87 98bd d3d5 a6be 3712 01bf
000000f0: 3ca0 003f e702 f33e e046 373f 7a58 c63e
00000100: 1dce 4a3e f67e 92bf aa61 40bf 2fac 403e
00000110: 9e04 b03e 7970 8e3e 1085 313f 2941 b3be
00000120: 95e8 693e f75c 02bf ae52 83bf 2822 893e
00000130: 22b4 463f 54cf 9dbd 5f6d ab3d dcb9 88be
00000140: b03f 0ebe 5015 d63c ec7f a73d e9ba 06be
00000150: 4f37 1abe 20ff 1dbe 7f71 77be c45d 53be
00000160: 2999 8a3f 2848 563e 2400 5dbf 10d1 04bf
00000170: de2b 333e 4cf9 e53e 469b ce3e 0189 96be
00000180: 9ac1 0abe 81fc fabe 6ecc cd3e 00be a03e
00000190: d135 20bf 89b8 eebe 5df5 4bbf 0e53 673e
000001a0: b0aa ee3e 115c b3bf 1483 8cbf 966a 863c
000001b0: fd32 2c3f 131d 4e3e b03d e53e 3f53 33bd
000001c0: 9294 1b3f dfcf 5e3c 752a 87be 014d 38be
000001d0: 5ad6 7e3f fd7a f9be 68bd 2f3f 19a0 c63e
000001e0: b11a bc3d b8e6 08bf 5245 3abf 8d6b 413f
000001f0: 6545 303f 5152 103f bad9 acbd 9753 dfbd
00000200: 5043 aebe 2f7a 963e 8eca 3d3f b627 173e
00000210: ad10 853e 9e53 fe3d 17aa eabe 2bfb 6e3f
00000220: d3c5 48be 6760 1e3f f80a 053f 4544 46bf
00000230: 4190 17bf 03d7 5a3f eea5 c53e cee1 35bf
00000240: 7be9 2a3e d5bb ae3e 5000 19bf 5c93 263f
00000250: 9fa5 f53e 32a9 1fbf 1f13 31bd 2f00 9dbb
00000260: 4a3a c9be fb96 083f d630 053e bf4b d93e
00000270: 5a9a 38bf d276 ff3e 08e5 7abe 9b1a 543f
00000280: dbea 56be 18da 353f 1483 0a3e 5793 583e
00000290: 3db0 8e3e 4c86 633f 1a0b b53e 32d6 38bf
000002a0: 64a5 513e aea0 2b3f 1639 173f abc2 a33d
000002b0: acfb f2bd d900 0abe 3eb7 abbe 62b2 0b3f
000002c0: 49b9 973e d336 1cbf 405d 1fbf 48ab 183d
000002d0: 586b 023f 721c 583f dfec 3a3f 58ce febe
000002e0: c5d1 703e bac8 dcbf d94f 9abf 1e30 78bc
000002f0: 72a7 0e3f bc97 413e 73cf 4f3e f187 89be
00000300: 2b29 793f 46dd 91be ad64 b7be 5222 a43c
00000310: d519 5d3e e8e6 7e3e 2bf2 143e 6900 d53e
00000320: 2629 5d3f 663b b1be 06e4 7cbe 6a29 d2bd
00000330: 3504 313e 0ea8 273f 4602 343f bb10 ba3c
00000340: 1d04 e73d 0ef6 3dbe a412 693d 4ec1 4dbf
00000350: 97c5 46bf 3c5d 783f b57a 123f f811 f5be
00000360: 2ef4 a83e 2733 c9bd a463 f43e e9a3 3b3f
00000370: dda7 3bbe 3601 873e 84c9 b2bf 73f3 3fbf
00000380: aebc 293d 191f 4abe f7c3 3c3e 329d 5d3f
00000390: a010 083f 59f4 973e 6f43 403f df5e 843f
000003a0: 0827 793d 90ee 70bf 958a 7fbf 4811 353f
000003b0: 2710 5d3f 6fb3 d33e bb98 063f e3eb 2d3e
000003c0: de0c 7d3e 552b dc3e e5e2 ef3e 8921 a83d
000003d0: 17cb cf3e a1e3 543f 36b4 80be abfd 19bf
000003e0: 9f34 b2be e3f1 89bd ccf3 b33e 95df 543f
000003f0: a984 463f 11e7 02bf 95da 83bf eeca 4cbf
-0.15140739 0.76196855 0.44518167 0.46305877 -0.39039457 0.25130513 0.28073764 0.5031383
-0.6748794 -0.34362638 0.4765115 -0.28792718 0.2886214 -0.45705113 0.7828897 0.24078967
-0.43324837 0.2506218 0.2471434 0.08151279 0.391024 -0.08394174 -1.3458445 -0.47039682
0.41530994 0.14164841 -0.32914108 0.16374406 0.6311648 -0.3215119 0.953803 0.92222536
0.70420533 -0.4008939 -1.2052646 -0.54046607 0.074215576 -0.1591404 0.81658 0.06365153
-0.17916359 0.75669783 0.421079 -0.113161705 0.13293983 0.8213415 -0.0035720312 -0.79224217
0.13860801 -0.2800361 0.2665964 0.46072245 -0.027084049 -0.7556242 -0.3178843 0.6351166
0.96826273 -0.07447671 -0.3258501 -0.5041842 0.502445 0.47463152 0.7159252 0.38739377
0.19805188 -1.1444995 -0.75149024 0.18815683 0.34378523 0.27820185 0.6934366 -0.3501065
0.22842629 -0.50923103 -1.0259607 0.26783872 0.7761861 -0.0770556 0.0837047 -0.267043
-0.13891482 0.02613321 0.08178696 -0.13157238 -0.15060161 -0.15429354 -0.24164389 -0.20641237
1.0827991 0.20925963 -0.8632834 -0.51881504 0.17497203 0.4491676 0.4035284 -0.294014
-0.13550416 -0.4902077 0.4019503 0.31394958 -0.6258212 -0.46625164 -0.7967127 0.22590277
0.466146 -1.4012471 -1.0977502 0.016408246 0.672653 0.20128278 0.44773626 -0.04378056
0.60773575 0.013599365 -0.2639958 -0.17998125 0.99545825 -0.48726645 0.68648386 0.3879402
0.091847785 -0.5347705 -0.72762024 0.75554734 0.6885589 0.56375605 -0.084399655 -0.10904615
-0.3403573 0.29390094 0.741372 0.14761242 0.25989285 0.124182925 -0.45832893 0.93352
-0.19606714 0.6186585 0.5196986 -0.7744792 -0.5920449 0.8548433 0.38603157 -0.71047676
0.16690628 0.3412768 -0.597661 0.650686 0.4797792 -0.62367547 -0.043231126 -0.0047912817
-0.39302284 0.5335538 0.1300691 0.42440602 -0.7211052 0.4989534 -0.24501431 0.82853097
-0.20988028 0.7103591 0.13526565 0.21149956 0.27868834 0.88876796 0.35360032 -0.72201836
0.20473248 0.6704205 0.5907148 0.07996114 -0.11864409 -0.13476886 -0.3353824 0.54569066
0.2963355 -0.61021155 -0.62251663 0.03727272 0.50945044 0.84418404 0.73017687 -0.49766803
0.2351752 -1.7248757 -1.2055618 -0.015148191 0.5572425 0.18905538 0.2029398 -0.26861528
0.9732844 -0.2848913 -0.35818997 0.020035896 0.21591885 0.24892771 0.14545505 0.41601875
0.8639091 -0.3461563 -0.24696359 -0.10261805 0.17286761 0.65490806 0.7031597 0.022713056
0.112800814 -0.18550894 0.056902543 -0.80373085 -0.7764525 0.97017264 0.57218486 -0.47865272
0.32998794 -0.0982421 0.4773227 0.7329698 -0.18325754 0.2636811 -1.3967748 -0.7498085
0.041439705 -0.19738425 0.1843413 0.86567986 0.5315037 0.2967861 0.75102895 1.0341452
0.06082824 -0.9411402 -0.99820834 0.70729494 0.8635277 0.41347834 0.525768 0.16984515
0.2471194 0.4300181 0.46852794 0.08209521 0.40584633 0.83159834 -0.2513749 -0.6015269
-0.34805772 -0.06735589 0.3514694 0.8315366 0.77546173 -0.5113383 -1.0301081 -0.79997146

bias f4 [32]
00000000: a0a5 3b3c 4a06 843e 98a8 393f 5be1 713d
00000010: 35ed f1bc 71b6 783a 17ab 243e 8884 6ebe
00000020: 245d fa3e a464 993e d12b 5bbe d533 e33b
00000030: defa 85bd c1ca dabe a356 1f3e 2cdf 373e
00000040: 65c5 06bd 9d25 ed3c b76a 9cbe 3967 453e
00000050: 306a 1ebd 15a3 7d3e 4575 fc3e 10b2 3abf
00000060: 56bc db3e 11da 033f 52d0 b83b 0381 9f3e
00000070: 6c8b 1d3e 4f1a e3be a2bd 033d e1ad 493e
0.011453062 0.25786048 0.7252288 0.059052806 -0.029532054 0.0009487635 0.1608089 -0.23292744
0.48899186 0.29959595 -0.21403433 0.006933669 -0.0654199 -0.42732814 0.15560393 0.17956227
-0.032903094 0.0289486 -0.30550167 0.19277658 -0.038675487 0.24769242 0.4930822 -0.7292795
0.42917126 0.5150462 0.005640068 0.31153116 0.15385216 -0.4435601 0.03216327 0.19695236

weight f4 [64, 32]
00000000: 33d9 febd b322 893f ad37 b63f aa08 eabe
00000010: 5268 86bf 3368 bb3d 36e1 cbbd 15b2 6fbf
00000020: 1123 7dbe bbf1 1a3e 7cca 06bd 1099 42bf
00000030: 523b 99be 10ee 9dbf 4256 e5be c542 8b3e
00000040: 25e6 1b3d 96f9 9a3e 7113 32bf 565d 953e
00000050: de4e 19be f2c2 843d df52 96bd 3618 14bf
00000060: 2047 643d 9afc 35bd 290b 993e ff7f 813f
00000070: 6583 183e 2ce2 06bf 8141 d43d 0002 863f
00000080: 5fe7 123e a564 8bbe c492 92bd 8835 003e
00000090: 9cfa 93be 19ee 863d 366a a4be 6e87 a8bd
000000a0: 0229 63bc e483 563d 2e21 bd3d 0a84 703d
000000b0: 4198 b2bd 667c 493c fb5f 34be 9e27 17bd
000000c0: 05de cabd d939 62be e695 24be c558 ffbd
000000d0: da96 973e b642 8bbe c259 e4bd 2743 a3be
000000e0: 96d9 ec3d 1e40 21be 4179 03bc 12f3 eb3d
000000f0: 1bb8 043e 5f5b 833e 90e1 253e e37f 973d
00000100: 7876 2e3f 23b9 fabf fb77 61bf 4368 de3d
00000110: fc6a a9bd d271 e03e d221 6e3f 72eb 9a3e
00000120: 0b97 86be 9a9d 27be e04a c33b 04b4 cd3e
00000130: 0b8d 383f 9595 ddbe 5736 8ebe b0ba 4e3e
00000140: 2995 ef3e cd64 273f 06c5 533f de3f 603f
00000150: d143 293f 2aab 3d3f 155f 463d eb30 8dbf
00000160: fce5 253d b404 283e 21c9 2b3f ff79 20bf
00000170: ee69 e73d 650e b2be df69 0e3f 1774 7cbf
00000180: 207d c53e 2cda 44be 6bc1 99bd e114 b1bc
00000190: 0a01 bbbe 40f8 11be e21f 10bf 9ef9 debe
000001a0: 6839 403f 13b6 fd3d bcb8 67bd 9d94 50bf
000001b0: 25d6 2abf d1dd 983d f854 efbe bc43 e03e
000001c0: e71f 1fbe 6ebf 34be ad13 46bf 35c6 1d3f
000001d0: 619b 493b 3e83 37bf f77a c73e 150c 17be
000001e0: 69b5 2cbe efb0 423e 3887 df3e 35cb 1e3e
000001f0: 52c5 9c3d f451 213f 740c babe 68e2 683e
00000200: 2766 1b3f ea00 7ebe 78d4 81bf 94f6 48bd
00000210: 67f4 1fbf 1008 413e cc54 f53e 6eae acbe
00000220: bf42 84be 1927 18bf 9677 da3d 6de4 a8bd
00000230: 502f 5f3f 11fd 9ebe e50c 91be 06c1 93be
00000240: f62d b23e f0db da3c 95d7 073f 9b16 193f
00000250: 9ced cf3e 8b14 103e 150a 7cbe e372 ea3b
00000260: 8337 a6bc 94e6 9ebe e6a9 e93e c996 fbbe
00000270: 4473 153d db45 51be 2f76 db3c 2183 02bf
00000280: 0e7c a93d 00f1 2c3b ee87 d93d 8562 2ebc
00000290: 6b38 2bbe 5eb3 c8bc 6cba d5bd ae8e 91bd
000002a0: 40d5 09be 200f a4bd 4959 1f3e 6b0f 163e
000002b0: 965d 0c3e 3cf8 1d3d 9fb1 3e3c 2376 e4bd
000002c0: fe26 28bd b70d f1bd 5b96 a43d ee76 2bbe
000002d0: 3bf1 d13d f829 3ebe 566a 22bd 4956 343e
000002e0: 724b 8bbd 578b 1fbe e049 f63b d2a0 503d
000002f0: e0f8 ecbd 00cf b33c 5e79 0e3e e9b5 0f3e
00000300: da6c b03c fe5d be3f 29b9 0fbe 1f47 313e
00000310: 1b9f 0e3f b625 dbbe e622 18be d703 1d3e
00000320: a270 5d3e 18b5 63be d250 0dbe 6ade 863d
00000330: 614b 4fbf 89e9 51be 9a09 6c3e 657a 08bf
00000340: fb01 6bbd 15ca 3ebe 95be c3bf 930a dfbe
00000350: e03d 4fbf 0fdb 88be f49f 333e b2c4 f1bd
00000360: 8804 5bbe 748e 183e 9b1e efbd 080e 47be
00000370: 97b4 cc3d 5fe7 a2be 6fd5 a5bf 0057 263f
00000380: 6870 a2bd d64d ac3d 309a 2abc 1894 9ebc
00000390: 34e1 50bd 3870 87bd 903b 11be 982c febd
000003a0: 9ce6 17be 9b68 d5bd bcfb 5a3d a0d1 84bc
000003b0: 849e 17be f60e f33d 3911 2abe 00e0 783a
000003c0: cf69 cdbd 72e2 ce3d 80ff 463b a714 33be
000003d0: 90b1 0b3c f7f0 293e c0ed 6ebb d683 e53d
000003e0: d2d7 2ebe e004 8bbb 7631 27be 4f7a 93bd
000003f0: 674e 06be 43a1 213e 4aa4 893d c0f9 953b
-0.12443771 1.0713714 1.4235741 -0.45709735 -1.0500586 0.09150734 -0.09955065 -0.93631107
-0.24720408 0.15131275 -0.032907948 -0.76014805 -0.2992807 -1.2338276 -0.44792372 0.2719938
0.03806128 0.30268544 -0.69560915 0.29172772 -0.14971492 0.06482495 -0.07340025 -0.5784944
0.055731893 -0.044430353 0.29891327 1.0117186 0.14893873 -0.5268886 0.103640564 1.046936
0.14346074 -0.27225223 -0.071568996 0.1252042 -0.28902137 0.06588382 -0.32112283 -0.08228956
-0.0138647575 0.052371874 0.09234844 0.058719672 -0.087204464 0.012297725 -0.17614739 -0.036903016
-0.09905628 -0.2209238 -0.16072807 -0.12468103 0.29607278 -0.27199334 -0.111499324 -0.3188717
0.11564939 -0.15747115 -0.008024515 0.11520971 0.12960856 0.25655648 0.16199327 0.07397439
0.6814952 -1.9587749 -0.880737 0.1085973 -0.08272359 0.43836838 0.93020356 0.30257756
-0.26287112 -0.16368714 0.0059598535 0.40176404 0.72090214 -0.43278185 -0.27775833 0.20188403
0.46793488 0.65388185 0.8272251 0.87597454 0.66119105 0.740893 0.04843052 -1.1030554
0.040502533 0.16408044 0.67103773 -0.6268615 0.11299501 -0.34776607 0.55630296 -0.9861464
0.38572025 -0.19223851 -0.07507595 -0.021616401 -0.3652423 -0.14254856 -0.5629865 -0.43549818
0.75087595 0.123882435 -0.05657266 -0.81476766 -0.6673301 0.07464183 -0.46744514 0.43801677
-0.15539514 -0.1765115 -0.7737377 0.61630565 0.003076278 -0.71684635 0.38961002 -0.14750703
-0.16866077 0.19012807 0.4365785 0.15507205 0.07654823 0.63015676 -0.36337626 0.22742617
0.6070275 -0.24805036 -1.0142965 -0.04906328 -0.62482303 0.18850732 0.47916257 -0.3372683
-0.25832173 -0.5943466 0.106673405 -0.08246694 0.8718157 -0.3105245 -0.2833015 -0.28858203
0.3480069 0.026716202 0.5306333 0.5980012 0.4061097 0.14070337 -0.24613221 0.007154809
-0.020290142 -0.31035292 0.45637435 -0.49138477 0.03648688 -0.20436804 0.026789753 -0.50981337
0.08275615 0.0026388764 0.1062163 -0.010643606 -0.1672074 -0.024499591 -0.10435948 -0.07107292
-0.13460255 -0.08010697 0.15561403 0.14654319 0.13707575 0.038566813 0.011639028 -0.11155345
-0.04105281 -0.11770194 0.080364905 -0.16744587 0.10251089 -0.18570697 -0.03965219 0.1761104
-0.068014994 -0.15580498 0.007516131 0.05093462 -0.11570907 0.021949291 0.13913485 0.14034237
0.02153628 1.4872434 -0.14035477 0.17312287 0.55711526 -0.4280221 -0.14857063 0.15333496
0.21624997 -0.2223705 -0.13800362 0.06585391 -0.80974394 -0.20499243 0.23050538 -0.5331176
-0.057374936 -0.18631776 -1.5292536 -0.43562755 -0.8095379 -0.26729628 0.17541486 -0.11805095
-0.21388447 0.14898092 -0.116757594 -0.19438946 0.09995382 -0.31817147 -1.295576 0.649765
-0.07931596 0.084132835 -0.010412738 -0.019357726 -0.05099602 -0.06613201 -0.14182878 -0.12410849
-0.14834064 -0.104203425 0.05346273 -0.016213238 -0.14806563 0.11868088 -0.16608132 0.0009493828
-0.10029947 0.10101785 0.0030364692 -0.17488347 0.008526221 0.16595827 -0.0036457628 0.11206786
-0.17074516 -0.0042425245 -0.16327462 -0.07201063 -0.13115846 0.15784173 0.06720789 0.0045768917

bias f4 [64]
00000000: 54e2 e03e 9163 2abe 354d be3e 75f2 223d
00000010: 641a 0cbe 0847 fcbd 633c b33d 04d6 703d
00000020: ae54 113e aae6 d53d d234 913d 6275 f3b7
00000030: 6cae 913e a7d8 d53d 0e88 af3e b8bb 533e
00000040: 90a5 403e c5aa d63d 74f2 453d e7f7 09be
00000050: 4e6b 0bbc fe74 223f 9568 393e 81e9 e03d
00000060: 7f14 68bd 3391 573e a41c 91bd 6ba2 a83c
00000070: e61d 0d3e ea78 5d3b 4e2d c93e 5da7 a2be
00000080: 543f 8bbe a1cb 0bbe 8057 e7bd 81b1 803e
00000090: ed64 8d3e 9b6e 6bbd ae6d f43e c9bd 20be
000000a0: 5b34 8d3e 910d b5bd e7ad 3abd 2482 3dbe
000000b0: 4b1e 7abb 00c4 87bd 4339 a93c bd41 783e
000000c0: 4dbd 823e 54a5 7ebc 23bf 84bd 82a6 07be
000000d0: 7b49 1cbe 4e22 4e3b 47fe 283e a834 4c3e
000000e0: 95a0 553d 2fdc 4a3e 0060 4d3d 90a8 4abe
000000f0: f2b7 03bd 0b44 0cbd d7d5 2abc 61e5 333e
0.43922675 -0.16639544 0.3716828 0.039782006 -0.13681942 -0.12318236 0.08751752 0.05879785
0.14192459 0.10444386 0.07090153 -2.9022518e-05 0.28453386 0.10441714 0.3428349 0.20677078
0.18813157 0.104817905 0.048326924 -0.13473473 -0.00850947 0.63459766 0.18106301 0.10982037
-0.05666017 0.21051483 -0.07085541 0.02058526 0.13780937 0.0033793994 0.39292377 -0.31768313
-0.27196753 -0.13651897 -0.11295986 0.25135425 0.27616063 -0.05747853 0.4773993 -0.15697397
0.27579007 -0.08840478 -0.045576002 -0.18506676 -0.0038165029 -0.06629181 0.020657187 0.24243827
0.2553505 -0.015542347 -0.06481769 -0.13247111 -0.15262406 0.0031453553 0.16503249 0.19941962
0.052155096 0.19810556 0.05014038 -0.19790864 -0.032157846 -0.03424458 -0.01042696 0.1756797

weight f4 [4, 64]
00000000: 03d2 863f 1b28 8b3c 30f5 19bf d7dd f53f
00000010: 13d0 aa3e 384c 7e3b d52b 403f 1878 7c3d
00000020: 030a 6dbe d40d a8be dd0f a83d eeb9 073f
00000030: 64b8 1cbf 042f a13f e13b 09bf 521b c93e
00000040: 558a ee3e 795d 213e 8c19 1ebd a44b d63d
00000050: 4c87 d93e cdff 66bf dc5b ab3d bdfa cb3f
00000060: 13cc 083f cc06 e23e faa1 bdbd 3cfd b83e
00000070: bf70 0cbf c722 7d3d 8f73 03bf 9c8f 0f3f
00000080: dda7 003f 0237 ac3d bcde 1f3f ac32 2d3f
00000090: 2555 e33f ca30 e2bc ed85 fbbe e3d6 93bc
000000a0: 4f86 07bf 56d1 153f 16b6 053f 02f9 273f
000000b0: 861b ecbe 2f7c f53d 09f3 d63e 2fe0 c53d
000000c0: a297 1abf b8fd 4bbd 501c 45bd 651e 94bd
000000d0: d53a babe da99 793f d1a7 0dbf b699 eebe
000000e0: d6d0 563e 365e f5be 4754 d93e d735 15be
000000f0: 9ff1 973d 256b b9be fd7b d93e 2417 013f
00000100: 590e 883f f654 ddbe 6845 13bf ed09 a93e
00000110: 1138 e0be 7705 8fbb ece6 873f 28aa 843c
00000120: 96e2 c0be 54e1 f7be bed4 30bd e78c e33e
00000130: d2d8 09bf 831c ca3f 8ff8 b9be 68bc 103f
00000140: 229b 213f 386b 0bbe 6422 e03d f37d 833d
00000150: 91ab a63e 2a43 70bf f58a a73e 5246 b73f
00000160: 5bfb ef3e ba51 ef3d 8d42 3abd 72db 073f
00000170: 6c68 0abf 7a5c 543d 814c e9be 5d56 453f
00000180: 55c6 fd3e 2002 51bd d41d f13e 612e 383f
00000190: d742 ea3f a802 f9bc 0bcb e3be 9be4 413e
000001a0: ac0a 06bf ad2a e33e 7852 bf3e 1daf 1e3f
000001b0: b2aa 94be 5812 833d 4505 093f 0157 f53d
000001c0: 5ed9 34bf cdce de3d 6663 9abd 0f4b 65be
000001d0: ee1f f2be 5626 29be a25f 19bf 4b8e 0ebf
000001e0: 62ef b03b bef2 18bf c1e4 0c3f 8a82 4abf
000001f0: 3bc8 0dbd 093a c1be f11f fb3e d242 9e3e
00000200: 6f09 6d3f 0786 c6be 0c9c a7be 422b fabf
00000210: 9286 4bbf 0ad5 dbbd 9767 eb3f daad d3bd
00000220: 49a5 babe 9f4f 32bf 2736 973d c5ce a23e
00000230: be18 abbe 90fe 943f 31d8 cfbe feb9 553f
00000240: 4708 8e3f 4bd3 363f 58b3 733d d5f7 febc
00000250: f1d2 053f a569 ca3d 03b3 3a3f 9aee f83e
00000260: e27f 093f d073 153f c2e2 bb3d e7a1 ce3e
00000270: 182f d5be 26ce aabd d5f2 c3be 1c35 783e
00000280: 7d1e 003f 7057 e4bd 4d28 3a3f 74ac 9b3e
00000290: 6dec b23f ff73 c33d 633e b5be bcfa 43bf
000002a0: e310 85be f854 2f3f b243 933e 9a53 d13d
000002b0: a426 2ebf 08e1 163d 752a 1c3f 9453 163f
000002c0: bbdd 5dbe fe6e 6f3d f9a5 dcbd 016f 50bf
000002d0: e1e8 37bf 1a49 b1be d6be debe 4b8c 8bbe
000002e0: 306d 243e 1f99 05bf b39d 093f e6bc 03bf
000002f0: 301d 863d 8890 55bf 1729 103f effa 6c3f
00000300: b17e 8a3f 1694 b33e e251 1cbf bc9b 0f40
00000310: 3eae a2bd 864c 8e3d 8002 f2bc 2687 c6bd
00000320: 0f64 e4be 5452 1abf 7ea3 f73b 6571 a83e
00000330: 3399 23bf 7835 9a3f 0ae6 11bf 4456 de3e
00000340: 301b bb3e 994a 2a3f 5eab ecbd 3d8e cc3d
00000350: 4d36 b33e 1be1 1fbf 3db9 473e be56 953f
00000360: 8e97 033f 839a 463f c522 ddbd cc67 923e
00000370: 1198 0bbf 3afb 843c 10ce f6be da4c a13e
00000380: dcb5 a83e b2f8 97bd f2de 133f d0c0 603f
00000390: 3ba1 b53f e871 ab3d 37f0 04bf 2cbe 6bbe
000003a0: b56e c6be 6ac5 0e3f bc8c 003f 19d1 313f
000003b0: 9058 13bf b05c 803c b7fb 313f e2ed a23d
000003c0: 9f15 18bf 9390 d23d c32e a1bd 17ab 02bf
000003d0: 92c1 8abe 6418 8e3f acee debe 421a f6be
000003e0: abad 983d be56 fdbe 0cfe 9a3e 3d97 eabe
000003f0: a9b5 05be 09e0 e0be ae0b 203f 06df 653d
1.053284 0.016986897 -0.6013975 1.9208325 0.33361873 0.0038802754 0.7506688 0.061637968
-0.2314835 -0.3282305 0.08206151 0.5301808 -0.6121886 1.2592473 -0.5360699 0.39278656
0.46589914 0.15758313 -0.038598582 0.10463646 0.42486036 -0.9023407 0.0836713 1.5935894
0.5343639 0.4414581 -0.0925941 0.36130702 -0.54859537 0.061800744 -0.51348203 0.56078506
0.5025614 0.084089294 0.6244924 0.67655444 1.7760359 -0.027611155 -0.49125615 -0.018046802
-0.52939314 0.58522546 0.52230966 0.6561433 -0.4611475 0.11986577 0.41982296 0.096619
-0.60387623 -0.049802512 -0.048122704 -0.0723236 -0.3637301 0.97500384 -0.5533419 -0.46601647
0.20978102 -0.4792344 0.4244711 -0.1457132 0.074191324 -0.36214557 0.42477408 0.50425935
1.0629379 -0.43228883 -0.5752778 0.33015385 -0.43792775 -0.004364665 1.0617347 0.016194418
-0.3767287 -0.484141 -0.043171637 0.44443437 -0.53846467 1.5789951 -0.36322448 0.56537485
0.6312734 -0.1361512 0.109440595 0.06420507 0.3255277 -0.93852484 0.32723203 1.4318335
0.46871457 0.1168551 -0.045473624 0.5306922 -0.54065585 0.051846005 -0.4556618 0.77084905
0.49565378 -0.051027417 0.4709307 0.7194577 1.8301648 -0.030396774 -0.44490847 0.18934862
-0.52360034 0.44368497 0.37367606 0.6198595 -0.2903648 0.06399983 0.53523666 0.11979485
-0.70644176 0.10879288 -0.0753849 -0.22391914 -0.47289985 -0.1651853 -0.5991155 -0.5568587
0.0053996304 -0.59745395 0.5503655 -0.79105437 -0.034614783 -0.3773959 0.49047807 0.30910355
0.9259252 -0.3877413 -0.32736242 -1.9544451 -0.79502213 -0.10733993 1.8390988 -0.10335894
-0.36454228 -0.6965274 0.073833756 0.31798378 -0.33417314 1.1640186 -0.40594628 0.83486927
1.1096276 0.7141616 0.059497207 -0.031124035 0.52274996 0.09883431 0.729294 0.4861954
0.5371076 0.5837984 0.0917411 0.40357897 -0.41637492 -0.08340101 -0.38271204 0.2423901
0.5004652 -0.1114949 0.72717744 0.3040501 1.3978401 0.09543609 -0.3539916 -0.76554465
-0.25989446 0.6848903 0.28762585 0.10221024 -0.6802771 0.0368357 0.61002284 0.5872128
-0.21666615 0.05845546 -0.10773844 -0.8141938 -0.7183972 -0.34626085 -0.4350497 -0.27255473
0.16057277 -0.5218677 0.53756255 -0.5146011 0.06548536 -0.8342366 0.563127 0.92570394
1.0819913 0.35073918 -0.61062443 2.2438803 -0.0794339 0.069481894 -0.029542208 -0.09693746
-0.4460759 -0.6028187 0.0075573316 0.32899013 -0.6390564 1.2047567 -0.56991637 0.4342519
0.3654418 0.66520077 -0.11556123 0.09988067 0.35002366 -0.6245286 0.19504257 1.1667097
0.5140313 0.77579516 -0.107976474 0.28594816 -0.5452891 0.016233075 -0.48204088 0.31503946
0.32951248 -0.07420482 0.5776206 0.8779421 1.4189829 0.08371335 -0.5192904 -0.23021764
-0.38756338 0.5576998 0.50214744 0.6945968 -0.5755701 0.015669197 0.6952471 0.07955529
-0.5940799 0.102814816 -0.07870247 -0.5104231 -0.27100807 1.1101193 -0.43541467 -0.48066908
0.074549995 -0.49480242 0.30271947 -0.4581851 -0.13057579 -0.43920925 0.6251782 0.056120895

bias f4 [4]
00000000: 7e9e 80be 28f4 b7be cf34 ea3e c4e4 57bd
-0.2512092 -0.35928464 0.45743415 -0.052708402
