neural-network-1.pt (torch, 14479 bytes, 8 tensors)

weight f4 [8, 8]
0.11900521 0.041663136 0.09713221 -0.78733903 0.058798503 -1.2346039 -0.286708 0.49838316
0.2011803 1.006572 -0.39501226 0.47696695 0.0045642024 0.08958046 0.37304318 -0.31365526
-0.17155246 0.5647908 -0.19817421 1.406378 0.32017857 0.01095007 0.31908888 0.27919692
-0.011524954 -0.15516745 -0.2921013 -0.10612644 1.116258 0.93122673 0.4351282 0.80233353
0.12728038 0.013080132 0.5280814 0.009033455 -0.6204503 0.4781897 0.35584086 -0.97917867
0.31591326 0.48748523 0.18388753 0.40241668 -2.2514977 -0.41054946 -0.72002345 -0.28471676
-0.060098212 -0.31739295 0.83724105 -0.3249409 0.6338245 -0.0141922645 0.22206403 0.21073906
-0.23451981 0.699026 -0.43230218 -0.27963024 -0.28145865 0.74212295 -0.11226411 -1.1372355
00000000: 01b9 f33d f7a6 2a3d 41ed c63d 0d8f 49bf
00000010: b3d6 703d 8007 9ebf 64cb 92be 142c ff3e
00000020: 3502 4e3e 5ad7 803f 0c3f cabe 0335 f43e
00000030: 4e8f 953b f675 b73d 84ff be3e 6c97 a0be
00000040: 73ab 2fbe 2196 103f 2eee 4abe 3204 b43f
00000050: 72ee a33e ec67 333c 9e5f a33e e6f2 8e3e
00000060: 29d3 3cbc 37e4 1ebe 4d8e 95be d258 d9bd
00000070: 8be1 8e3f e064 6e3f 20c9 de3e bb65 4d3f
00000080: ca55 023e 0d4e 563c 5830 073f 0e01 143c
00000090: d5d5 1ebf 48d5 f43e c630 b63e 74ab 7abf
000000a0: 62bf a13e aa97 f93e 034d 3c3e 8f09 ce3e
000000b0: 8a18 10c0 8a33 d2be 7553 38bf 65c6 91be
000000c0: 8b29 76bd 5481 a2be 6e55 563f a75e a6be
000000d0: 5342 223f ac86 68bc c164 633e fbcb 573e
000000e0: f625 70be 5ef3 323f b656 ddbe b22b 8fbe
000000f0: 591b 90be c5fb 3d3f baea e5bd ef90 91bf

bias f4 [8]
0.38162193 0.6909712 0.2952994 0.76051044 0.11861902 0.12576447 0.44020036 0.391875
00000000: f363 c33e 7de3 303f 7c31 973e d0b0 423f
00000010: 87ee f23d 67c8 003e f161 e13e d7a3 c83e

weight f4 [32, 8]
0.28270742 0.5734474 0.6421478 0.6058865 -0.4492546 1.0291189 0.39007503 0.963927
0.04855203 -0.05711051 0.8769428 -0.23667242 -1.2512487 0.6866914 0.89425814 -0.2546131
-0.04823098 0.08557257 0.7706683 0.43483734 -0.3755719 -0.51170915 0.8664594 -0.77933043
-0.43701208 0.45830047 -0.5046007 -0.4405089 -0.7546868 0.039542716 0.48618263 0.6317232
-0.22056992 0.786426 -0.5870766 -0.6894763 -0.38534755 0.10076121 0.45983326 0.48256692
0.31884703 0.17966327 0.66083944 0.3303706 -0.28972015 -0.7519506 1.0807351 -0.77294606
-1.5244304 0.6337863 1.2161989 0.84332716 -0.38048697 -0.55953354 -0.12630068 0.34473836
-0.6065648 0.47042263 -0.24893995 -0.56158864 -0.48862368 0.649169 0.5561459 0.5384944
1.0341803 0.20528445 0.105513796 0.96416026 0.6045909 0.68009055 -0.37067345 0.13844287
0.30347663 -0.055009045 0.45943785 0.81730735 0.4058092 0.31585467 -0.46693435 0.16835931
-0.3166597 0.42943594 0.0645414 -0.61553603 -0.33989036 0.34015486 0.49174795 0.22962129
1.0567161 -0.5399317 -0.17461231 -0.16535902 0.38485503 0.20590572 -0.213705 0.15463664
-0.34944496 0.63208574 -0.59011805 -0.5141713 -0.6423894 0.2913822 0.31671202 0.55029595
-0.69559044 0.17432109 0.3140548 -0.606906 -0.27783477 0.9234874 0.7410259 0.026151162
0.58635205 0.6026136 -0.124546565 0.27698132 -0.93355024 0.55179524 0.19477437 0.75859565
1.0063719 -0.14782572 0.33783266 0.92928565 0.83221954 0.7028396 -0.6734649 0.04473685
-0.34866735 0.68326914 -0.11735573 -0.41969603 -0.8358393 0.3354197 0.26035565 0.53976446
0.7677374 -0.41611186 0.93331987 0.35797575 0.3523667 0.84425116 -0.27013096 -0.15946321
-0.28329605 0.03048575 0.1219928 -0.16658323 -0.21413815 -0.24867205 -0.2247793 0.0019738674
-0.4296078 0.29403204 -0.6471606 -0.33586365 -0.7405497 0.13106346 0.4721156 0.6874066
-0.4373432 -0.31870487 0.23339644 0.62671995 0.4473064 -0.5108623 -0.07700168 0.2861079
0.26315245 -0.028833563 0.5117502 0.33219182 -0.2735037 -0.7135964 1.2643343 -0.7778043
-0.31803653 0.5465036 0.009717963 -0.2241792 -0.48599228 0.18769176 1.3227057 0.13922657
-1.0087022 0.099523045 0.1851862 -0.61012286 -0.15741742 0.71971214 1.1923078 0.4349115
-0.37099653 0.5130938 0.65661263 0.23395501 -0.6875664 0.68834066 0.27439377 -0.24261402
-0.9566644 0.27785137 -0.039714254 -0.6411073 -0.62614137 0.6121339 0.9600702 0.60039407
0.0717736 0.7722244 -0.017764203 -0.16150562 -0.17037761 0.7262303 0.8308425 0.37442213
-0.6401805 0.5685208 -0.20669371 -0.58738464 -0.6804625 0.4450257 0.9506817 0.5380561
-0.4492863 0.602489 -0.2141727 0.1973454 -0.87015224 0.41557768 0.78335327 0.3716092
-0.31684092 0.25483394 -0.3289598 -0.5288562 -0.24579117 0.41612625 0.54736376 0.5419078
-0.4042569 0.32390708 0.0881703 -0.5882877 -0.39616933 0.47484386 0.7421435 0.61397874
-0.2339289 -0.32148245 -0.13595048 -0.26006076 -0.15306905 -0.2276674 0.029087871 -0.304842
00000000: 07bf 903e 73cd 123f cc63 243f 611b 1b3f
00000010: b304 e6be 2bba 833f eab7 c73e ebc3 763f
00000020: 7ede 463d b6ec 69bd 537f 603f 415a 72be
00000030: eb28 a0bf 02cb 2f3f 1aee 643f a65c 82be
00000040: d98d 45bd ac40 af3d 854a 453f 00a3 de3e
00000050: f64a c0be 5fff 02bf 49d0 5d3f 3382 47bf
00000060: 0cc0 dfbe 5ca6 ea3e 832d 01bf 628a e1be
00000070: 2733 41bf 8bf7 213d eeec f83e 9db8 213f
00000080: 15dd 61be 3753 493f a74a 16bf 8581 30bf
00000090: 464c c5be e55b ce3d 446f eb3e 0313 f73e
000000a0: eb3f a33e a6f9 373e c62c 293f 5626 a93e
000000b0: 3356 94be d67f 40bf 8755 8a3f cbdf 45bf
000000c0: 8920 c3bf d23f 223f 68ac 9b3f 4ae4 573f
000000d0: 30cf c2be 973d 0fbf f754 01be 8c81 b03e
000000e0: d547 1bbf 3cdb f03e 1dea 7ebe 46c4 0fbf
000000f0: e22c fabe f12f 263f 945f 0e3f c5da 093f
00000100: 0560 843f 1636 523e 9e17 d83d 35d3 763f
00000110: 78c6 1a3f 6a1a 2e3f e9c8 bdbe f8c3 0d3e
00000120: 4a61 9b3e 2a51 61bd 703b eb3e 0e3b 513f
00000130: 39c6 cf3e b4b7 a13e 0512 efbe 6266 2c3e
00000140: 3821 a2be 07df db3e 482e 843d c593 1dbf
00000150: 1c06 aebe c728 ae3e 63c6 fb3e d821 6b3e
00000160: 7942 873f f738 0abf 92cd 32be e053 29be
00000170: b80b c53e f3d8 523e 7cd5 5abe 1159 1e3e
00000180: 73ea b2be 5fd0 213f fa11 17bf bba0 03bf
00000190: a273 24bf 0c30 953e 1428 a23e 32e0 0c3f
000001a0: 3712 32bf 3a81 323e cacb a03e 315e 1bbf
000001b0: 5c40 8ebe ac69 6c3f e0b3 3d3f f63a d63c
000001c0: 2b1b 163f e344 1a3f 4512 ffbd 7fd0 8d3e
000001d0: 26fd 6ebf 7442 0d3f ef72 473e 5333 423f
000001e0: cbd0 803f a05f 17be 67f8 ac3e aae5 6d3f
000001f0: 570c 553f 4ced 333f 3268 2cbf fd3d 373d
00000200: 8784 b2be baea 2e3f 3358 f0bd 66e2 d6be
00000210: 90f9 55bf 22bc ab3e 564d 853e 012e 0a3f
00000220: 708a 443f 9d0c d5be 0dee 6e3f 9948 b73e
00000230: 6869 b43e d820 583f 9b4e 8abe 534a 23be
00000240: 2e0c 91be 40bd f93c 5cd7 f93d cb94 2abe
00000250: 0847 5bbe e3a3 7ebe 8b2c 66be 005c 013b
00000260: 8ef5 dbbe 5e8b 963e 51ac 25bf 52f6 abbe
00000270: aa94 3dbf 8035 063e 23b9 f13e e1f9 2f3f
00000280: 73eb dfbe 492d a3be 7aff 6e3e b870 203f
00000290: 5805 e53e dfc7 02bf 0fb3 9dbd bc7c 923e
000002a0: ebbb 863e 5d34 ecbc 1002 033f 0c15 aa3e
000002b0: ad08 8cbe 41ae 36bf b5d5 a13f 2f1e 47bf
000002c0: afd5 a2be a9e7 0b3f 1738 1f3c 3b8f 65be
000002d0: fbd3 f8be 4532 403e 6c4e a93f 6991 0e3e
000002e0: 271d 81bf bdd2 cb3d 74a1 3d3e 0331 1cbf
000002f0: 0832 21be 0e3f 383f 8b9d 983f b8ac de3e
00000300: 42f3 bdbe 1e5a 033f c417 283f e791 6f3e
00000310: 5a04 30bf 1837 303f 577d 8c3e cf6f 78be
00000320: f5e7 74bf 8942 8e3e 6aab 22bd 9c1f 24bf
00000330: cd4a 20bf cfb4 1c3f 29c7 753f 6db3 193f
00000340: 0afe 923d 80b0 453f 3c86 91bc bb61 25be
00000350: 7877 2ebe 3bea 393f 18b2 543f 42b4 bf3e
00000360: dfe2 23bf 948a 113f 84a7 53be d75e 16bf
00000370: ca32 2ebf 69da e33e e05f 733f 0bbe 093f
00000380: db08 e6be b83c 1a3f 1750 5bbe ea14 4a3e
00000390: 4cc2 5ebf 99c6 d43e d789 483f 9043 be3e
000003a0: f938 a2be 9879 823e 6b6d a8be 1f63 07bf
000003b0: aeb0 7bbe 800e d53e 0820 0c3f 78ba 0a3f
000003c0: c3fa cebe 26d7 a53e a192 b43d 069a 16bf
000003d0: b5d6 cabe bc1e f33e 1efd 3d3f b62d 1d3f
000003e0: 0f8b 6fbe 5999 a4be 9a36 0bbe af26 85be
000003f0: 22be 1cbe a521 69be b049 ee3c 4014 9cbe

bias f4 [32]
0.54067177 0.35192674 0.30472228 0.33389023 0.18645333 0.18378174 0.024087638 0.2712346
0.0518326 0.08708324 0.5523688 -0.06579772 0.32350433 0.09295862 0.76468295 0.28231746
0.050993744 0.3873961 -0.30536532 0.1233595 0.10625575 -0.058439698 -0.020347426 -0.40423632
-0.11202213 -0.21809374 0.35187757 0.11480824 0.19105774 0.3630039 0.2036683 0.18377258
00000000: 7769 0a3f be2f b43e 8f04 9c3e a9f3 aa3e
00000010: 9fed 3e3e 4831 3c3e 7053 c53c 43df 8a3e
00000020: 6c4e 543d b358 b23d 0b68 0d3f f4c0 86bd
00000030: 5ca2 a53e 1761 be3d 43c2 433f ea8b 903e
00000040: d1de 503d c858 c63e d858 9cbe e8a3 fc3d
00000050: 9d9c d93d 775e 6fbd a5af a6bc 10f8 cebe
00000060: dc6b e5bd f753 5fbe 4c29 b43e 9520 eb3d
00000070: a4a4 433e a6db b93e 6c8e 503e e12e 3c3e

weight f4 [64, 32]
0.043371063 -0.19308256 0.71167773 0.6398219 0.54224586 0.92439795 -0.099811785 0.0018701075
-0.1549133 -0.069353275 0.08000799 -1.2707853 0.43124628 -0.33292684 0.055038203 -0.41392198
0.46522212 -0.5912438 0.081741884 0.45797446 -0.33999228 1.1126037 0.4243874 0.26841506
0.31327406 -0.018186886 0.055980463 0.2036863 0.44841412 0.18945037 0.0983534 -0.13704865
0.48466423 0.47583902 -0.7961181 -0.42276803 -0.33629686 -0.70877326 0.40424025 -0.26966193
0.7749177 0.4552077 -0.25131541 0.888648 -0.005534141 0.20391601 0.22878055 0.8251364
-0.37095672 0.6097053 0.16672002 -0.12708896 0.59674895 -0.53991616 -0.20361197 -0.6296553
0.098989 -0.07542251 0.2213853 -0.3824454 -0.103223085 -0.061369173 0.14865048 0.00843266
0.33419365 -0.21738462 0.5484474 0.7710624 0.7468486 0.6967146 -0.3511782 0.32771823
-0.053343084 -0.07571185 0.3842591 -0.8795034 0.54850173 -0.15510477 0.4179522 -0.52112216
0.3068647 -0.6279989 0.044814825 0.6012443 -0.63272023 1.0342964 0.11521468 -0.0014520676
-0.21215102 0.41526082 0.18012038 0.5470856 0.40877968 0.34387347 0.066703625 0.15173423
0.45487544 0.31327072 -0.6803261 -0.39498588 -0.46510294 -0.72638065 1.0297998 -0.34854192
0.77518964 0.4632618 -0.21961218 0.84511137 -0.18371055 -0.11814474 0.32415274 0.93939334
0.01588221 0.6728148 -0.10700954 0.054419108 0.6951274 -0.86643106 -0.07159938 -0.3305077
0.30338714 -0.52874523 0.16590904 -0.4609172 0.24753426 -0.036926016 -0.23465233 0.10649181
0.30974746 0.3434904 -0.8240167 -0.3690705 -0.4557787 -0.54283816 0.7677612 -0.32400247
0.63331 0.6270495 -0.13284698 0.9311778 -0.038043793 0.1813639 0.14708138 0.8066388
-0.014422729 0.65990186 0.08667089 -0.1689836 0.65812284 -0.71069705 0.009788564 -0.04107592
0.018040113 -0.3600637 0.07870434 -0.30333775 0.120513886 0.07606543 -0.26976475 -0.11437632
0.031207278 0.10594265 -0.031924337 -0.043115556 -0.02915302 0.07990132 -0.018305644 0.14739646
-0.097825296 0.06871255 -0.16226281 0.119403705 0.094163045 0.035562053 -0.039125383 -0.015652329
0.09636216 -0.12918766 -0.05992184 -0.13468674 -0.10396947 0.10821514 -0.08320953 -0.113398746
-0.06144966 0.09567325 -0.09312799 -0.11756012 -0.10091765 0.14235918 -0.093680575 0.15348239
0.2781705 0.56757545 -0.6357176 -0.41089234 -0.14235805 -0.46239427 0.48077807 -0.12638438
0.8630639 0.39396286 -0.037037645 0.9646531 -0.089849226 0.31716377 0.21314776 0.856006
-0.3470887 0.78557336 0.055575892 -0.18663283 0.70873904 -0.6437028 0.0036379034 -0.35050792
-0.074337676 -0.21112405 -0.0026809257 -0.34875497 -0.11643833 0.12172969 -0.13960421 0.1235611
0.07134122 -0.3012405 0.6069384 0.7054815 0.5342822 0.70493686 -0.45495746 0.20495929
0.042406484 0.15813172 0.32070568 -0.9167168 0.5044108 -0.39728642 0.114652276 -0.18773359
0.39716837 -0.5820464 0.1038595 0.55137235 -0.6361826 0.9473871 0.08917112 0.08844097
0.11787615 0.24234721 0.34545964 0.20121215 0.32129332 0.20214538 -0.0034140507 -0.07903622
00000000: dba5 313d 6fb7 45be 8330 363f 5ecb 233f
00000010: a0d0 0a3f 58a5 6c3f 1f6a ccbd 651e f53a
00000020: 98a1 1ebe 1709 8ebd 3bdb a33d 18a9 a2bf
00000030: 50cc dc3e 6375 aabe bd6f 613d 95ed d3be
00000040: 9831 ee3e c15b 17bf 4a68 a73d a17b ea3e
00000050: 7813 aebe cc69 8e3f 4e49 d93e b36d 893e
00000060: 7565 a03e aafc 94bc c54b 653d 2493 503e
00000070: 8996 e53e 47ff 413e 826d c93d 7b56 0cbe
00000080: e925 f83e 2ca1 f33e 65ce 4bbf 0d75 d8be
00000090: 1a2f acbe 2a72 35bf 94f8 ce3e 2111 8abe
000000a0: 0261 463f fc10 e93e 6aac 80be 6f7e 633f
000000b0: bd57 b5bb 5ccf 503e 7345 6a3e 243c 533f
000000c0: 0aee bdbe a615 1c3f a7b8 2a3e 9c23 02be
000000d0: 8ac4 183f f237 0abf a87f 50be 1731 21bf
000000e0: bfba ca3d 1e77 9abd d4b2 623e e2cf c3be
000000f0: a066 d3bd 3e5e 7bbd d537 183e 2429 0a3c
00000100: 6e1b ab3e 139a 5ebe 0c67 0c3f 5864 453f
00000110: 7831 3f3f e35b 323f a1cd b3be afca a73e
00000120: 477e 5abd d00e 9bbd 9cbd c43e 2327 61bf
00000130: 9c6a 0c3f c9d3 1ebe d5fd d53e 4368 05bf
00000140: 5f1d 9d3e 89c4 20bf c08f 373d 25eb 193f
00000150: f4f9 21bf d363 843f adf5 eb3d 4e53 beba
00000160: 1e3e 59be 119d d43e 7a71 383e cd0d 0c3f
00000170: 924b d13e 2f10 b03e e99b 883d 3860 1b3e
00000180: 6fe5 e83e 0565 a03e da29 2ebf 973b cabe
00000190: f921 eebe 15f4 39bf 7bd0 833f 1674 b2be
000001a0: d472 463f a730 ed3e 04e2 60be 3859 583f
000001b0: 9e1e 3cbe dff5 f1bd 59f7 a53e 157c 703f
000001c0: 691b 823c 973d 2c3f d127 dbbd 92e6 5e3d
000001d0: dff3 313f 6dce 5dbf b2a2 92bd 4e38 a9be
000001e0: 8f55 9b3e d95b 07bf 0fe4 293e 57fd ebbe
000001f0: 9f79 7d3e bc3f 17bd b348 70be 6118 da3d
00000200: 3897 9e3e f9dd af3e c2f2 52bf cff6 bcbe
00000210: d35b e9be 71f7 0abf ff8b 443f a7e3 a5be
00000220: 9b20 223f 5186 203f 0a09 08be ab61 6e3f
00000230: cfd3 1bbd 75b7 393e 809c 163e e17f 4e3f
00000240: 4f4d 6cbc 54ef 283f 8280 b13d 090a 2dbe
00000250: bd7a 283f 3ef0 35bf 3760 203c 393f 28bd
00000260: dcc8 933c 455a b8be be2f a13d 164f 9bbe
00000270: fccf f63d 31c8 9b3d 9b1e 8abe 223e eabd
00000280: 68a6 ff3c 76f8 d83d 18c3 02bd f099 30bd
00000290: 50d2 eebc 4ea3 a33d b8f5 95bc 19ef 163e
000002a0: a158 c8bd 2ab9 8c3d 3928 26be ee89 f43d
000002b0: 8ed8 c03d 84a9 113d f041 20bd 5039 80bc
000002c0: 8659 c53d c549 04be 9a70 75bd 52eb 09be
000002d0: f2ed d4bd e69f dd3d c269 aabd 9a3d e8bd
000002e0: a4b2 7bbd 56f0 c33d e3b9 bebd 5cc3 f0bd
000002f0: eaad cebd 9bc6 113e 9adb bfbd 7d2a 1d3e
00000300: 5d6c 8e3e a04c 113f 63be 22bf 7b60 d2be
00000310: 4fc6 11be f1be ecbe 8b28 f63e e86a 01be
00000320: c1f1 5c3f 80b5 c93e c9b4 17bd 81f3 763f
00000330: df02 b8bd 4a63 a23e 6843 5a3e 3623 5b3f
00000340: 9cb5 b1be 561b 493f 8ca3 633d ad1c 3fbe
00000350: ec6f 353f b5c9 24bf e469 6e3b c675 b3be
00000360: 5a3e 98bd e730 58be 78b2 2fbb 0390 b2be
00000370: 3877 eebd 6a4d f93d 68f4 0ebe 9a0d fd3d
00000380: 581b 923d 323c 9abe 5160 1b3f 709a 343f
00000390: b8c6 083f be76 343f 2ff0 e8be d9e0 513e
000003a0: 6cb2 2d3d 48ed 213e 8933 a43e f4ad 6abf
000003b0: 1121 013f 2069 cbbe d0ce ea3d 3c3d 40be
000003c0: a759 cb3e fe00 15bf 4ab4 d43d bd26 0d3f
000003d0: dddc 22bf f687 723f 599f b63d 8a20 b53d
000003e0: 0d69 f13d de29 783e 16e0 b03e 8f0a 4e3e
000003f0: 8f80 a43e 33ff 4e3e 44be 5fbb bedd a1bd

bias f4 [64]
0.17299566 0.50518596 0.06124716 0.3705948 0.35670027 -0.16811939 0.4772843 0.28518787
0.5586692 -0.0652418 -0.057590205 0.4176321 0.21492922 0.27909 0.23113571 0.18106076
0.16116065 0.15119635 0.36550018 0.45537052 -0.084717296 0.3087402 -0.23627788 0.10785281
0.3247822 -0.08664044 -0.15164505 0.025797328 -0.006442117 0.38648367 0.3253044 -0.033442993
-0.08648084 0.028192637 0.06341942 -0.014939587 0.16162682 0.14509366 0.35481855 -0.053571712
0.2591486 0.3995289 -0.19093296 0.10021769 -0.09476842 0.025978988 0.41012657 -0.019962221
0.5831351 0.21397835 0.20081298 0.37420732 0.120414905 -0.048692115 0.14384374 0.28150207
-0.11899121 0.25597054 0.1610996 0.10022731 0.32665277 0.49248463 -0.06798587 -0.016662378
00000000: c625 313e de53 013f 4dde 7a3d 9abe bd3e
00000010: 6ba1 b63e 7d27 2cbe 9c5e f43e 2504 923e
00000020: f204 0f3f 7e9d 85bd b5e3 6bbd e0d3 d53e
00000030: 6816 5c3e e2e4 8e3e d7ae 6c3e fe67 393e
00000040: 4c07 253e 37d3 1a3e d722 bb3e 5326 e93e
00000050: 4380 adbd 3213 9e3e d4f2 71be efe1 dc3d
00000060: da49 a63e 8b70 b1bd d748 1bbe eb54 d33c
00000070: 6518 d3bb 30e1 c53e 4c8e a63e 85fb 08bd
00000080: de1c b1bd 3ff4 e63c 0ae2 813d 2bc5 74bc
00000090: 8081 253e 6f93 143e c7aa b53e 036e 5bbd
000000a0: 20af 843e 0d8f cc3e ee83 43be ef3e cd3d
000000b0: f215 c2bd e3d1 d43c 1cfc d13e d087 a3bc
000000c0: 5848 153f 241d 5b3e eba1 4d3e 1a98 bf3e
000000d0: 179c f63d 6271 47bd c64b 133e 0a21 903e
000000e0: aab1 f3bd 920e 833e 4bf7 243e fa43 cd3d
000000f0: 083f a73e f226 fc3e 2d3c 8bbd 8a7f 88bc

weight f4 [4, 64]
0.2304349 -0.5893025 0.16864668 -0.6181869 -0.4892204 -0.088853344 -0.44213298 0.1520491
-0.56849533 0.026458148 -0.009610553 -0.5737722 -0.6627929 0.1783707 -0.37765515 -0.52590734
0.0755726 -0.29018453 0.3212825 0.46301866 -0.070902 0.3566013 0.53243697 0.50946194
-0.6006747 0.038363427 0.03437296 0.43031648 0.028076546 -0.51098126 -0.4448516 -0.09625223
-0.096825734 0.08083405 0.46827707 0.49905622 0.396517 1.3803297 -0.4255524 0.54733545
0.31696114 -0.3860686 0.42979833 0.4676772 1.2664454 0.47341543 -0.39581105 -0.034995988
-0.43105906 0.59529346 0.05843948 -0.5395959 0.750353 0.4146397 -0.42887476 -0.52386177
0.34493837 0.499251 0.32539096 0.47113806 0.19902234 0.17738688 0.03411602 0.0076447274
-0.13429151 -0.46877098 0.12234067 -0.7646679 -0.5763741 -0.012843609 -0.4244069 -0.0018016582
-0.60950375 -0.0005589045 0.10011518 -0.4924641 -0.7666647 0.18572733 -0.0037545718 -0.51884645
0.16863818 -0.6138997 0.53630257 0.37857264 -0.1139024 0.43272266 0.64957917 0.63279617
-0.37404874 0.025298774 -0.058173522 0.16323501 0.10121666 -0.47078767 -0.38540795 0.10515079
0.09089808 -0.11119901 0.66042644 0.6299837 0.6677086 1.0209779 -0.4168506 0.5307665
0.17881843 -0.58464384 0.08615737 0.58471304 1.057879 0.6233227 -0.55548346 0.08006512
-0.5524101 0.49236315 0.31663918 -0.66396177 1.7906626 0.5843322 -0.27709994 -0.5300057
0.1125955 0.43840858 0.43786243 0.6049584 0.14020142 0.20111647 -0.0452571 0.07117566
0.4603847 -0.41194937 0.67852026 -0.6845504 -0.5719854 0.058430955 -0.53254503 0.67640114
-0.5974619 0.06182885 0.02067137 -0.3585718 -0.692483 0.48451766 -0.66451544 -0.2854179
0.7364364 -0.4927631 0.5547083 0.6246521 0.07470719 0.4786085 0.7695885 0.7207692
-0.70738614 0.011440653 -0.10306201 0.3492357 0.013802152 -0.18484077 -0.6493121 0.019985056
0.060282677 0.020223217 0.08342141 0.007007236 0.14029142 0.54166 -0.41564268 0.34709266
0.5590999 -0.67587006 0.045602024 0.27690393 0.6756793 0.35886267 -0.38142863 -0.026680395
-0.6149716 0.42779055 0.4478819 -0.70336866 1.3003004 0.10339749 -0.6440321 -0.64974415
0.3908144 0.42136616 0.42221245 0.8796277 0.6342756 0.6613928 -0.18404777 -0.039791357
0.5742609 -0.70625895 0.21121556 -0.42320496 -0.43252867 -0.09075497 -0.5998392 0.24107444
-0.45574147 -0.05953756 0.06835037 -0.5597924 -0.43581793 0.41708887 -0.46518627 -0.28383955
-0.024017185 0.046527192 0.23065755 0.2629331 0.023053315 0.08046154 0.42173174 0.5813521
-0.6741085 0.03267318 -0.12594593 0.5605914 0.10470106 -0.43416417 -0.48441386 0.056199946
-0.107426405 0.00019019745 0.3443705 0.50726277 0.30902067 1.3608862 -0.48667255 0.6284439
0.28267434 -0.44165784 0.60194093 0.39607662 1.2904941 0.64046305 -0.48530176 -0.010722622
-0.6398677 0.53411406 0.090538375 -0.59753174 0.68892103 0.13539015 -0.58108515 -0.51482517
0.64155287 0.41877684 0.46295834 0.38669214 0.16626216 0.18025447 0.05689204 0.047478877
00000000: 20f7 6b3e 87dc 16bf b7b1 2c3e 7f41 1ebf
00000010: 197b fabe bef8 b5bd 415f e2be c2b2 1b3e
00000020: e988 11bf c2be d83c 9575 1dbc bce2 12bf
00000030: ccac 29bf cfa6 363e 045c c1be dda1 06bf
00000040: cfc5 9a3d 1193 94be 247f a43e c810 ed3e
00000050: 1135 91bd 7294 b63e ca4d 083f 196c 023f
00000060: d1c5 19bf f822 1d3d a9ca 0c3d 7152 dc3e
00000070: c900 e63c abcf 02bf 97c3 e3be e41f c5bd
00000080: 924c c6bd 538c a53d 03c2 ef3e 4c84 ff3e
00000090: 4704 cb3e a5ae b03f 01e2 d9be 2d1e 0c3f
000000a0: bb48 a23e c9aa c5be 870e dc3e 6373 ef3e
000000b0: e21a a23f 8263 f23e bfa7 cabe f457 0fbd
000000c0: c6b3 dcbe 2765 183f 3c5e 6f3d f522 0abf
000000d0: 2217 403f a84b d43e 7995 dbbe ce1b 06bf
000000e0: c39b b03e d49d ff3e a599 a63e 0239 f13e
000000f0: 83cc 4b3e e8a4 353e 3dbd 0b3d 9f80 fa3b
00000100: b783 09be c002 f0be bf8d fa3d 47c1 43bf
00000110: 418d 13bf 006e 52bc dc4b d9be 9e25 ecba
00000120: 7008 1cbf 7283 12ba 3009 cd3d 4124 fcbe
00000130: 2344 44bf 4e2f 3e3e 430f 76bb 1fd3 04bf
00000140: 7daf 2c3e 8828 1dbf 204b 093f 46d4 c13e
00000150: a945 e9bd d38d dd3e d24a 263f eefe 213f
00000160: 5183 bfbe 603f cf3c 5c47 6ebd 1427 273e
00000170: ae4a cf3d 150b f1be 3154 c5be 4c59 d73d
00000180: c628 ba3d 4ebc e3bd b511 293f 9d46 213f
00000190: f3ee 2a3f 67af 823f 716d d5be 50e0 073f
000001a0: 2e1c 373e 38ab 15bf 4673 b03d c1af 153f
000001b0: 9468 873f 1492 1f3f 2a34 0ebf 2ef9 a33d
000001c0: c06a 0dbf 0617 fc3e 881e a23e 66f9 29bf
000001d0: 6f34 e53f cc96 153f 0be0 8dbe 74ae 07bf
000001e0: 7898 e63d 1777 e03e 812f e03e 8ede 1a3f
000001f0: f690 0f3e 7af1 4d3e 825f 39bd 8bc4 913d
00000200: 8bb7 eb3e 07eb d2be 81b3 2d3f b23e 2fbf
00000210: a36d 12bf 4c55 6f3d df54 08bf a028 2d3f
00000220: 43f3 18bf 4040 7d3d 0157 a93c b996 b7be
00000230: 9146 31bf b312 f83e af1d 2abf 4c22 92be
00000240: 1987 3c3f 724b fcbe 5d01 0e3f 33e9 1f3f
00000250: 1500 993d 2c0c f53e c003 453f 5584 383f
00000260: 4217 35bf 9471 3b3c 2d12 d3bd 06cf b23e
00000270: 6c22 623c e646 3dbe 5139 26bf b3b7 a33c
00000280: f8ea 763d 29ab a53c d8d8 aa3d f59c e53b
00000290: 8ea8 0f3e 3baa 0a3f 1ecf d4be 21b6 b13e
000002a0: 2c21 0f3f d205 2dbf 30c9 3a3d 5ac6 8d3e
000002b0: 52f9 2c3f d9bc b73e 9d4a c3be d890 dabc
000002c0: c76e 1dbf 5d07 db3e c750 e53e f80f 34bf
000002d0: 3e70 a63f 10c2 d33d 4adf 24bf a255 26bf
000002e0: d318 c83e 4ebd d73e 3b2c d83e 482f 613f
000002f0: e35f 223f 0a51 293f 0577 3cbe 43fc 22bd
00000300: c302 133f 63cd 34bf e448 583e 52ae d8be
00000310: 6674 ddbe bedd b9bd 108f 19bf 38dc 763e
00000320: f256 e9be a8dd 73bd 47fb 8b3d 8e4e 0fbf
00000330: 8723 dfbe ac8c d53e e52c eebe 6b53 91be
00000340: b0bf c4bc 4c93 3e3d 7e31 6c3e 2b9f 863e
00000350: 4eda bc3c 05c9 a43d 39ed d73e 7ed3 143f
00000360: 6092 2cbf 50d4 053d f8f7 00be eb82 0f3f
00000370: 826d d63d c44a debe 1805 f8be ea31 663d
00000380: 6002 dcbd bd6f 4739 5551 b03e f9db 013f
00000390: f537 9e3e 8531 ae3f 252d f9be b3e1 203f
000003a0: b1ba 903e fa20 e2be cd18 1a3f 8eca ca3e
000003b0: e92e a53f 63f5 233f 7979 f8be f0ad 2fbc
000003c0: 5fce 23bf b3bb 083f 2f6c b93d d7f7 18bf
000003d0: 215d 303f b7a3 0a3e ffc1 14bf 95cb 03bf
000003e0: cf3c 243f eb69 d63e e008 ed3e 83fc c53e
000003f0: a140 2a3e a194 383e a107 693d 3679 423d

bias f4 [4]
0.0057357373 -0.18018548 -0.0057404153 -0.273486
00000000: daf2 bb3b 8b82 38be 181a bcbb 5b06 8cbe
