neural-network-5-700epc.pt (torch, 55631 bytes, 8 tensors)

weight f4 [32, 8]
0	0x3c80636a	0.015672404
1	0xbebcc5fc	-0.368698
2	0x3e9e0ef7	0.30870792
3	0xbf88201c	-1.0634799
4	0x3dd3ffca	0.10351522
5	0xbdd3d8b7	-0.103440695
6	0xbdf92388	-0.1216498
7	0x3e8dd5e6	0.27702254
8	0xbcf25cbc	-0.029585235
9	0x3e43ca2d	0.19120093
10	0xbc9e4aa4	-0.0193227
11	0xbf77bc35	-0.96771556
12	0xbe629391	-0.22126605
13	0xbe7217cd	-0.23641892
14	0xbf0baaa7	-0.5455727
15	0x3c5a18f1	0.013311611
16	0x3d8bcde7	0.06826382
17	0x3dc95c0f	0.09832012
18	0x3e698140	0.22803211
19	0xbe8eec58	-0.2791469
20	0xbf0b4fce	-0.5441865
21	0x3e861450	0.26187372
22	0xbd06ea9b	-0.03293858
23	0xbec44b8b	-0.38338885
24	0x3e72407c	0.23657411
25	0x3e88340c	0.2660221
26	0x3d28f5c2	0.041249998
27	0x3e2a3011	0.16619898
28	0x3e2ef7ea	0.17086759
29	0x3effbd08	0.49948907
30	0x3df0c4a1	0.11756254
31	0xbdff0c15	-0.12453476
32	0xbed26401	-0.41091922
33	0xbdccf638	-0.100079
34	0x3e913f78	0.28368735
35	0xbee0a503	-0.43875894
36	0x3e754b13	0.2395442
37	0x3cf09ede	0.029372629
38	0x3ddbf309	0.10739715
39	0x3df2d9d3	0.11857953
40	0x3e5e755b	0.21724455
41	0x3ef24e2e	0.4732527
42	0x3e898323	0.26857862
43	0xbcab3aad	-0.020902002
44	0x3f39a32b	0.725146
45	0x3f51d6cb	0.81968373
46	0x3e423ebe	0.18969247
47	0xbf0090d2	-0.5022098
48	0x3e59ff9d	0.21288915
49	0x3ee42769	0.44561318
50	0x3dd4c408	0.103889525
51	0xbf222d4d	-0.63350374
52	0xbed28e4d	-0.41124192
53	0xbe902521	-0.28153327
54	0xbf366ce0	-0.7125988
55	0xbdb99a22	-0.090626016
56	0x3eccd29a	0.40004426
57	0xbf479db6	-0.7797502
58	0xbeda8d8c	-0.42686117
59	0x3e9d8ffd	0.30773917
60	0xbccaec02	-0.02477074
61	0xbcf555d1	-0.029948147
62	0x3e88ea8a	0.2674144
63	0x3e890ee4	0.26769173
64	0xbdd0bfd2	-0.10192837
65	0x3ef0311d	0.4691247
66	0x3ed431dc	0.4144429
67	0xbe9dcc68	-0.30820012
68	0x3e1e816b	0.15479057
69	0x3f3a1bfa	0.7269894
70	0xbf3098c1	-0.68983084
71	0xbdd3ecef	-0.10347926
72	0xbec00a40	-0.3750782
73	0xbdf51352	-0.11966576
74	0x3e7ed848	0.24887192
75	0xbdb09d81	-0.086237915
76	0x3dbb486a	0.09144671
77	0x3e5fbcd6	0.21849379
78	0xbf219951	-0.6312457
79	0xbd49c0e1	-0.04925621
80	0x3d2a49d0	0.0415743
81	0x3d87b0cf	0.066255204
82	0xbf3eb146	-0.7448925
83	0xbf092389	-0.5356985
84	0xbc541a62	-0.012945743
85	0x3ee8f44d	0.45498887
86	0xbe2afeef	-0.16698812
87	0x3bb9cf87	0.005670491
88	0x3ebda616	0.37040776
89	0xbe5f465f	-0.21804188
90	0x3e715aee	0.23569843
91	0xbf0939da	-0.536039
92	0xbf651e8f	-0.89499754
93	0xbd2f1a5d	-0.04274975
94	0x3ce27fd0	0.027648836
95	0xbd1fc66e	-0.039007597
96	0x3e476fd1	0.19476248
97	0xbd55f774	-0.052237943
98	0xbec4e435	-0.38455358
99	0xbef67d57	-0.48142502
100	0x3ebfa52e	0.3743071
101	0x3eb3b9f2	0.35102803
102	0x3e22f5a9	0.15914024
103	0x3d2594d7	0.040425148
104	0x3ec2987f	0.3800697
105	0xbd151ac1	-0.036402468
106	0x3e8c5a7a	0.27412778
107	0xbed11dec	-0.4084314
108	0xbeef9d67	-0.46799776
109	0xbe21c7ac	-0.15798825
110	0x3da69576	0.08133976
111	0x3d8000af	0.062501304
112	0xbed35db2	-0.4128242
113	0x3dd0ae6d	0.10189519
114	0xbe8d802b	-0.27636847
115	0xbc925d9f	-0.017866908
116	0xbdc9e5aa	-0.09858258
117	0x3eb700ce	0.357428
118	0x3de05165	0.10953025
119	0xbf66dc8a	-0.90180266
120	0x3df86524	0.12128666
121	0xbe9e5f6f	-0.30932185
122	0xbf0ca12f	-0.54933447
123	0x3e485fe4	0.1956783
124	0xbf1b55dc	-0.60677886
125	0x3e0c3a90	0.13694215
126	0x3e1e8263	0.15479426
127	0x3c4ad598	0.012380026
128	0xbdac457a	-0.08411689
129	0x3ed9419d	0.4243287
130	0xbd7a2218	-0.06106767
131	0xbe901d81	-0.2814751
132	0xbdd08cff	-0.10183143
133	0xbe33e2a5	-0.17566927
134	0x3e4601f6	0.19336686
135	0x3ded284e	0.11579953
136	0xbea7360b	-0.3265842
137	0x3e0132f9	0.12617101
138	0xbf04e5db	-0.5191323
139	0x3ed74b3d	0.4204959
140	0x3ebb7f6c	0.36620653
141	0x3f3c797a	0.7362286
142	0x3ec67e4d	0.38768235
143	0xbe24e6cb	-0.16103666
144	0xbe380f5f	-0.17974614
145	0xbd476e6c	-0.04868929
146	0x3f1f4c31	0.62225634
147	0xbf52ee99	-0.8239532
148	0x3f3c94f9	0.73664814
149	0xbe847896	-0.2587325
150	0xbeb6c82b	-0.3569959
151	0xbd09c6eb	-0.03363697
152	0xbe15267d	-0.14565463
153	0x3ec1f35e	0.37880987
154	0xbd875f3b	-0.06609961
155	0x3bdb98be	0.006701558
156	0x3e93e405	0.28884903
157	0x3d5ad29a	0.0534235
158	0x3eda4f91	0.4263883
159	0xbdc116ee	-0.094282016
160	0xbdb0a74c	-0.08625659
161	0xbd5dc994	-0.054147318
162	0x3e559190	0.20856309
163	0x3f08b917	0.53407425
164	0x3bf0b665	0.007345962
165	0xbe4d7815	-0.20065339
166	0x3d357bc4	0.044307485
167	0xbeadb67f	-0.33928296
168	0xbe9893be	-0.29800218
169	0x3ee10ccf	0.43955085
170	0x3e02037d	0.12696643
171	0x3c952df0	0.018210381
172	0x3e7f6ced	0.24943896
173	0x3d686ed9	0.056746338
174	0xbd670fd6	-0.056411587
175	0xbe386526	-0.18007335
176	0xbd25dacf	-0.040491875
177	0xbe59a1ba	-0.212531
178	0xbe906988	-0.28205514
179	0xbf561aea	-0.8363482
180	0x3ea61ff5	0.32446256
181	0x3e156161	0.14587928
182	0x3df17aeb	0.11791023
183	0xbddff54a	-0.10935457
184	0xbe5fe7d5	-0.2186578
185	0x3eda7162	0.4266463
186	0x3f109257	0.56473297
187	0x3ea8a299	0.32936552
188	0xbe3dc649	-0.18532671
189	0x3f42b920	0.7606373
190	0xbf3a872d	-0.7286251
191	0x3d44f3a6	0.048083924
192	0xbe2a7f62	-0.16650155
193	0xbd99448c	-0.074837774
194	0x3a82dbac	0.000998368
195	0xbaa2240c	-0.0012370362
196	0xbfb80083	-1.4375156
197	0x3dbea67d	0.09309099
198	0x3d454b94	0.04816778
199	0x3d49df32	0.04928512
200	0x3c9d1668	0.019175723
201	0x3d8a237c	0.06745049
202	0x3e571cf0	0.21007133
203	0xbc3fbca9	-0.011702695
204	0xbea5fde6	-0.32420272
205	0xbedda11c	-0.4328698
206	0x3e243127	0.16034375
207	0x3e5cc4b2	0.21559408
208	0x3edc7434	0.43057406
209	0xbde1b2aa	-0.110204056
210	0xbc176627	-0.009240664
211	0xbd6e49f4	-0.058175996
212	0x3e95fc67	0.2929413
213	0x3f1467d2	0.5797092
214	0x3e461d59	0.19347133
215	0x3eb79c6e	0.35861534
216	0xbe082144	-0.1329394
217	0xbde12333	-0.10993042
218	0x3e8293d5	0.25503412
219	0x3e2bd104	0.16778952
220	0xbd44841c	-0.04797755
221	0x3f1b99ea	0.6078173
222	0x3e96d073	0.2945591
223	0xbe4de4d5	-0.20106824
224	0x3dedb3a2	0.11606528
225	0xbde5364f	-0.11191999
226	0x3cc58342	0.02411044
227	0x3e6adeb5	0.22936518
228	0x3f7829f3	0.9693901
229	0xbd8f7412	-0.070045605
230	0x3e9ce9f6	0.30647248
231	0x3ebb232a	0.36550266
232	0xbf23e832	-0.64026177
233	0x3e9e0df2	0.30870014
234	0xbf2a03cc	-0.66412044
235	0x3f2f60b8	0.68506956
236	0x3d7ffb33	0.06249542
237	0x3db2a620	0.08723092
238	0xbd08b7c3	-0.033378374
239	0x3d04edca	0.032453336
240	0x3d03ba60	0.032160163
241	0xbe5b25e6	-0.21401176
242	0xbe37ed24	-0.17961556
243	0xbe8e9eae	-0.27855438
244	0xbeecbe7d	-0.4623908
245	0xbf53c62c	-0.8272426
246	0x3db52801	0.08845521
247	0x3f04cef7	0.51878303
248	0xbdbf65a4	-0.09345558
249	0xbd565b2b	-0.05233304
250	0xbd925947	-0.071459346
251	0xbf06e69b	-0.52695626
252	0xbd068c55	-0.032848675
253	0x3f1325f8	0.5747981
254	0x3d996712	0.07490362
255	0xbf39f1f9	-0.72634846

bias f4 [32]
0	0x3eb4d912	0.35321862
1	0x3e42c71c	0.19021267
2	0xbe7b0ea2	-0.245173
3	0x3ee73d09	0.45163754
4	0x3e1fb815	0.15597565
5	0x3ec294ad	0.38004056
6	0x3e85e092	0.26147896
7	0x3e99707b	0.29968628
8	0xbce3853a	-0.027773488
9	0x3ea1e4ff	0.31620023
10	0x3e238265	0.1596771
11	0x3edd084f	0.431704
12	0x3e80a37e	0.25124735
13	0x3eb73705	0.35784164
14	0xbd6c7d76	-0.057736836
15	0xbe9043be	-0.28176683
16	0x3f126879	0.5719066
17	0x3ee9985e	0.4562406
18	0x3bf83722	0.0075749317
19	0x3ee55586	0.44791812
20	0xbf020332	-0.50786126
21	0x3f2cfb89	0.6757131
22	0x3eb93116	0.36170262
23	0x3eb8e681	0.3611336
24	0x3dc1b627	0.09458571
25	0x3f0b7c7c	0.54486823
26	0x3ce06981	0.027394058
27	0x3eccebd5	0.40023676
28	0x3ecfd711	0.4059377
29	0x3ca8c3fc	0.020601265
30	0x3de81b85	0.11333374
31	0xbef1e1bd	-0.47242537

weight f4 [128, 32]
0	0xbde2c04e	-0.110718355
1	0x3ddba9b6	0.10725729
2	0xbe01d0e0	-0.12677336
3	0x3e2f9af5	0.17148955
4	0xbd3769fc	-0.04477881
5	0xbda9c6ed	-0.08289895
6	0x3ca856f0	0.020549268
7	0xbd36dc08	-0.044643432
8	0xbdc0e892	-0.09419359
9	0x3e146eb3	0.14495353
10	0x3daf3c36	0.08556406
11	0xbe10e36c	-0.14149255
12	0x3c995a88	0.018719926
13	0xbcd45a98	-0.025922105
14	0xbe11bdcb	-0.14232557
15	0xbe18ec2c	-0.14933842
16	0xbdb40b1f	-0.08791184
17	0xbd8395df	-0.0642507
18	0xbdfdd1b6	-0.12393515
19	0xbdb90c82	-0.09035589
20	0x3e32cfcf	0.17462085
21	0xbe011833	-0.12606888
22	0xbd9cb329	-0.076513596
23	0xbe328e88	-0.17437184
24	0x3e22952b	0.15877216
25	0xbe2c9da6	-0.16857013
26	0x3e193b33	0.14963989
27	0xbe200f7f	-0.15630911
28	0xbd8b844e	-0.068123445
29	0xbdeb4b9e	-0.11489032
30	0x3e2c352b	0.16817157
31	0x3d3efca0	0.04662764
32	0xbe855986	-0.26044863
33	0xbed25572	-0.41080815
34	0xbea32344	-0.31862843
35	0x3e87c9b4	0.26521075
36	0xbf0d6bc3	-0.55242556
37	0x3e51eed5	0.20501263
38	0xbca35fb1	-0.01994309
39	0x3ec0c38e	0.37649196
40	0x3dda5122	0.10660006
41	0xbeb02347	-0.34401914
42	0x3e5ed390	0.21760392
43	0xbeca775b	-0.39544186
44	0xbecfb9a5	-0.40571323
45	0xbf688854	-0.9083302
46	0x3d27a7fa	0.04093168
47	0x3f38e7b4	0.7222855
48	0x3d13a583	0.036046516
49	0x3d8ea36e	0.069647655
50	0xbe8f72bc	-0.28017223
51	0x3ea3a3aa	0.31960803
52	0x3e082947	0.13296996
53	0x3e349202	0.17633823
54	0x3ea6b2a8	0.3255818
55	0x3ecb5ee8	0.39720845
56	0x3f45fc6d	0.77338296
57	0xbe2fd426	-0.17170772
58	0xbdf44959	-0.119280525
59	0x3e42d25a	0.19025555
60	0x3d2c1ee7	0.04202166
61	0x3f24628f	0.6421289
62	0xbe55a6ad	-0.20864363
63	0xbc979f81	-0.018508675
64	0x3d255366	0.040362738
65	0x3d8d0b62	0.06886937
66	0x3e1a3406	0.15058908
67	0x3e368ac0	0.17826366
68	0xbedbc160	-0.4292097
69	0x3e5ae4de	0.21376368
70	0x3dc629da	0.09675951
71	0xbdbada5e	-0.091236815
72	0x3e98ace4	0.29819405
73	0xbeb695a8	-0.35661054
74	0x3ecd1234	0.4005295
75	0x3e161125	0.14654978
76	0xbe9d8a03	-0.30769357
77	0xbe63f1a5	-0.22260149
78	0xbe87af9d	-0.2650117
79	0xbef6862a	-0.48149234
80	0x3e3a2f2c	0.18182057
81	0xbee3b84e	-0.4447655
82	0x3e8b536d	0.27212086
83	0x3c6cb04e	0.014446331
84	0x3da52d99	0.08065338
85	0x3eb6057f	0.35551068
86	0x3eafdf03	0.34349832
87	0x3efea0c5	0.49732032
88	0x3d46f935	0.048577506
89	0xbe60add6	-0.21941313
90	0xbefd3a26	-0.49458426
91	0xbe223647	-0.15841018
92	0xbd5aa35f	-0.05337846
93	0x3e886555	0.2663981
94	0xbf17264e	-0.59042823
95	0xbf030bfa	-0.5119015
96	0x3e5395a2	0.20662549
97	0x3e9a8ed1	0.30187085
98	0xbeb1443a	-0.34622365
99	0x38497060	4.802679e-05
100	0x3d95f621	0.07322336
101	0xbe266377	-0.1624888
102	0x3efae1f6	0.4900052
103	0xbe9027bd	-0.28155318
104	0x3d2b7d5d	0.041867603
105	0xbe292d14	-0.16521102
106	0x3ce0e6af	0.027453749
107	0x3dc06f9b	0.09396287
108	0x3d80082d	0.062515594
109	0x3ee7eb66	0.45296782
110	0x3d1f9f3c	0.038970217
111	0x3cf3eba1	0.029775443
112	0x3e0ed461	0.13948204
113	0x3e54cf15	0.2078212
114	0x3e9cf70d	0.30657235
115	0x3d050c29	0.0324823
116	0xbd471f0e	-0.0486136
117	0x3c824c96	0.01590566
118	0xbdae4a22	-0.085102335
119	0xbd6f8b66	-0.05848255
120	0x3dadb927	0.08482581
121	0x3e08992e	0.13339683
122	0x3e8d74af	0.27628085
123	0xbda25eee	-0.07928263
124	0x3da31169	0.07962305
125	0xbdedee66	-0.116177365
126	0x3ec60707	0.38677236
127	0x3d9a8f85	0.075469054
128	0x3d3a2e5d	0.04545437
129	0xbe006dd2	-0.12541893
130	0xbeb39c14	-0.35080016
131	0x3d84b920	0.06480622
132	0xbda9fe8f	-0.08300506
133	0x3e21cf65	0.15801771
134	0x3d034f91	0.032058302
135	0x3ee866da	0.4539097
136	0x3e2a58bc	0.16635412
137	0xbde7fa15	-0.11326996
138	0x3e8be6b1	0.2732444
139	0xbe968e10	-0.2940526
140	0x3dcd5951	0.100268014
141	0xbec1096f	-0.3770251
142	0xbed98709	-0.42485836
143	0x3e5b2934	0.21402436
144	0xbd13dd7c	-0.036099896
145	0xbd2c6d6d	-0.042096544
146	0xbdf41ba4	-0.119193345
147	0x3eaec5ce	0.34135288
148	0x3e81767a	0.25285703
149	0xbd00f1bb	-0.031480532
150	0x3e0cfc92	0.13768223
151	0xbe113ade	-0.14182612
152	0xbad4d755	-0.001623849
153	0xbca7c1b1	-0.020478101
154	0xbe446b31	-0.19181515
155	0xbe446d78	-0.19182384
156	0x3e81823e	0.2529468
157	0xbd7b1734	-0.061301425
158	0xbe5367f4	-0.20645124
159	0xbe9b5811	-0.30340627
160	0x3df3f05d	0.1191108
161	0xbdeb2a47	-0.11482673
162	0x3e811290	0.25209475
163	0x3e83b834	0.25726473
164	0xbd58558c	-0.05281596
165	0x3e4548f0	0.19266105
166	0x3e02b4ae	0.12764236
167	0x3e417912	0.18893841
168	0x3ddd4d33	0.1080574
169	0xbe257d72	-0.16161135
170	0x3e3f6270	0.18689895
171	0x3e5049aa	0.203406
172	0xbe6c9bfe	-0.23106381
173	0xbdee1be7	-0.11626416
174	0xbe69d2dd	-0.22834344
175	0x3db7ec6b	0.0898064
176	0x3e995aa8	0.29951978
177	0xbdf491ef	-0.11941897
178	0x3d7f8910	0.062386572
179	0x3ec40609	0.38285854
180	0x3e73b754	0.23800403
181	0x3e5bf27a	0.21479216
182	0x3e827871	0.25482515
183	0x3efb54fa	0.4908827
184	0x3eee4b54	0.46541846
185	0x3e8b3654	0.27189887
186	0xbdad73bb	-0.084693395
187	0xbe138ef3	-0.1441
188	0x3e447076	0.19183525
189	0xbd359bfc	-0.04433821
190	0xbe8bd5c3	-0.27311525
191	0xbeaba111	-0.3352132
192	0x3d8a16dd	0.06742642
193	0x3d90acc4	0.070642024
194	0xbc87de75	-0.016585568
195	0x3e8d16dd	0.27556506
196	0xbe3ac2c0	-0.18238354
197	0x3e2dabe8	0.16960108
198	0xbd44b2ca	-0.04802207
199	0x3e270382	0.16309932
200	0x3e5d640a	0.21620193
201	0xbe64f483	-0.22358899
202	0x3e9514cc	0.2911743
203	0xbd2d751a	-0.042348005
204	0xbd818bbf	-0.063254826
205	0xbe5f89ff	-0.21829985
206	0xbcfe47ef	-0.03104016
207	0x3de6d1a3	0.11270454
208	0x3e5b8ffe	0.21441647
209	0xbe9f898e	-0.31159633
210	0x3d5609fa	0.05225561
211	0x3e7324fe	0.2374458
212	0x3c323848	0.010877676
213	0x3d25d85a	0.040489532
214	0x3e9cb819	0.30609205
215	0x3e97db6a	0.29659587
216	0x3eb88ce6	0.36044997
217	0xbe21b3eb	-0.1579129
218	0x3c557e46	0.013030594
219	0xbd96dbc1	-0.073661335
220	0xbdf1b5f0	-0.1180228
221	0xbda476a2	-0.0803044
222	0xbeb501c2	-0.35352904
223	0xbeaa089d	-0.33209696
224	0x3d99f266	0.07516937
225	0x3d8a030e	0.06738864
226	0xbf3a75f1	-0.72836214
227	0xbe3a889b	-0.18216173
228	0xbf5ecc96	-0.87030923
229	0xbe59e9ba	-0.21280566
230	0x3d5d28c5	0.05399396
231	0x3f1a0a7b	0.6017224
232	0x3db3869c	0.08765909
233	0xbf9b2c7a	-1.2122948
234	0x3f406314	0.7515118
235	0x3c132ee1	0.008983345
236	0xbe2a45a7	-0.16628133
237	0xbef2182d	-0.4728407
238	0xbee44f34	-0.44591677
239	0x3dfa9860	0.122360945
240	0x3dafe6cc	0.08588943
241	0xbe1f3d46	-0.15550718
242	0xbdeb68a6	-0.114945695
243	0x3dc6dc27	0.097099595
244	0x3cc7b166	0.024376582
245	0x3d8b1fd5	0.06793181
246	0x3e60abf4	0.21940595
247	0xbd3791f6	-0.044816934
248	0x3f566628	0.8374963
249	0xbe4dd154	-0.20099384
250	0xbeafbb57	-0.34322616
251	0xbf862d96	-1.0482662
252	0xbd8880d3	-0.06665196
253	0x3e9e65c9	0.3093703
254	0x3eacc532	0.33744198
255	0x3e229ac5	0.15879352

bias f4 [128]
0	0xbdd4e4a7	-0.103951745
1	0x3d9c6c29	0.076378174
2	0x3d42792e	0.047478847
3	0x3d39a5dd	0.045324195
4	0x3e4786f1	0.1948507
5	0x3e918cd2	0.2842775
6	0x3e3dbee7	0.18529855
7	0xbe24d9b5	-0.16098674
8	0x3eaa4466	0.3325531
9	0x3e85f8c4	0.26166356
10	0x3e7a4535	0.24440463
11	0x3c1d6394	0.009606261
12	0x3dff4ae7	0.12465458
13	0x3e606b63	0.21915965
14	0x3e3b38a7	0.1828333
15	0x3c4762c6	0.0121695455
16	0x3ea2c7b9	0.31793
17	0xbe27fb31	-0.16404416
18	0x3da7f325	0.08200673
19	0x3d07df08	0.033171684
20	0x3c3d87c3	0.011568013
21	0x3e91b0fa	0.28455335
22	0x3e679515	0.22615464
23	0xbc169abb	-0.009192164
24	0x3e83b2e9	0.25722435
25	0x3e4c49bf	0.19950007
26	0xbde0f3d4	-0.109840065
27	0x3df6f41c	0.12058279
28	0x3c966e36	0.0183631
29	0x3dce8d5f	0.10085558
30	0x3e6de4bc	0.23231786
31	0xbddb6b09	-0.10713775
32	0x3e4e5ad8	0.20151842
33	0x3eaa2b2d	0.33236066
34	0x3e85aad6	0.261069
35	0x3e85d27c	0.2613715
36	0x3e70c357	0.23512016
37	0x3e703982	0.23459437
38	0x3b40e53e	0.0029433514
39	0x3e4c6750	0.19961286
40	0x3e840baf	0.25790164
41	0x3e99feb5	0.3007714
42	0x3e290b2d	0.1650817
43	0xbd32e0db	-0.04367147
44	0xbdf552a0	-0.1197865
45	0xbedb61a6	-0.42847937
46	0x3e73eb49	0.23820223
47	0x3e6d3e52	0.23168305
48	0x3eb7c830	0.35894918
49	0x3e2b496b	0.16727225
50	0x3dc05a53	0.09392228
51	0x3e7e9d0a	0.24864593
52	0x3e679a7e	0.22617528
53	0xbe19aa0e	-0.15006277
54	0x3e274975	0.16336615
55	0x3e4ab2f5	0.19794829
56	0x3dddbd71	0.10827149
57	0x3ea9f92a	0.3319791
58	0x3e359914	0.17734176
59	0x3db6cd06	0.08925824
60	0x3e0ecb0c	0.13944644
61	0x3d86a1b2	0.0657381
62	0x3e23e2ba	0.16004458
63	0xbe106c3a	-0.14103785
64	0x3ea574c8	0.3231566
65	0x3c81fe7d	0.01586842
66	0xbc898eb8	-0.016791686
67	0x3d193d18	0.03741178
68	0x3dcd0db2	0.10012378
69	0x3e9814fe	0.29703516
70	0x3d02b53f	0.03191113
71	0x3da5085b	0.08058234
72	0xbda3e4ff	-0.08002662
73	0xbeb93cb2	-0.3617912
74	0x3e0c1305	0.1367913
75	0xbcfa3ca0	-0.030546486
76	0x3eaaf55a	0.33390313
77	0xbe0389ec	-0.12845582
78	0x398b2b98	0.00026544626
79	0x3dc480c1	0.0959487
80	0xbb0e54d8	-0.0021718051
81	0x3e04833a	0.12940684
82	0x3ddf2954	0.108965546
83	0xbd1a5d5e	-0.0376867
84	0x3d877609	0.0661431
85	0x3e47c134	0.19507295
86	0x3db0ff4f	0.08642446
87	0x3dcd165a	0.10014029
88	0x3e483b4a	0.19553867
89	0xbe179acd	-0.14805146
90	0x3e6716b6	0.22567257
91	0x3dea6cf6	0.11446564
92	0x3ea0801b	0.31347737
93	0x3e29a75f	0.16567753
94	0xbe15c731	-0.14626767
95	0x3e4096f7	0.18807589
96	0x3e4190dc	0.18902916
97	0x3c5f4665	0.013627623
98	0xbc2863a7	-0.010277665
99	0x3d798246	0.060915254
100	0xbc9abe29	-0.018889504
101	0xbb8d641b	-0.004314912
102	0xbcf693c5	-0.030099759
103	0x3e2525e4	0.16127735
104	0xbec21570	-0.3790698
105	0x3c12b53f	0.008954345
106	0x3ea8bf15	0.32958284
107	0x3e9a7878	0.30170035
108	0x3dd3e891	0.10347093
109	0x3c987377	0.018609745
110	0x3bb2116f	0.005434207
111	0x3eb1b668	0.34709477
112	0xbe93c904	-0.288643
113	0x3e90d4bc	0.28287303
114	0x3e3183e9	0.17335476
115	0x3e7fe447	0.24989425
116	0x3e323eeb	0.17406814
117	0x3e6daceb	0.23210494
118	0x3e6f4c50	0.23368955
119	0xbe645b0d	-0.22300358
120	0x3d2771b5	0.040879924
121	0x3e7b9941	0.2457018
122	0x3e9f5637	0.31120464
123	0x3e2f31bf	0.1710882
124	0x3ea36fba	0.31921178
125	0x3d3e9985	0.046533126
126	0x3e968098	0.29394984
127	0xbe2df29d	-0.16987081

weight f4 [64, 128]
0	0x3c9b6aa4	0.018971749
1	0xbedda14f	-0.4328713
2	0xbedc70d5	-0.43054834
3	0x3e2bc174	0.16773015
4	0xbf2272d9	-0.63456494
5	0xbdf2abfc	-0.1184921
6	0xbdefcedb	-0.117093764
7	0xbf3137f5	-0.6922601
8	0x3d01cccd	0.031689454
9	0xbf1c7df0	-0.61129665
10	0xbe8182f8	-0.25295234
11	0xbf300e19	-0.6877151
12	0xbd820912	-0.06349386
13	0x3ae6f205	0.0017619735
14	0x3e288af8	0.16459262
15	0xbed5e03a	-0.41772634
16	0xbef90c06	-0.48641986
17	0x3ed28542	0.41117293
18	0xbe2a29e9	-0.1661755
19	0xbd3061bc	-0.043061957
20	0x3e1941dd	0.14966531
21	0xbe841676	-0.25798386
22	0x3df39084	0.118927985
23	0x3e3d4aef	0.18485616
24	0xbeb2d1ed	-0.34925786
25	0xbee5fbef	-0.44918773
26	0x3eebcf73	0.4605671
27	0xbe8d805d	-0.27636996
28	0xbc66211e	-0.014045982
29	0xbf371fcc	-0.71532893
30	0xbea13e2b	-0.31492743
31	0x3ce65a80	0.028119326
32	0xbeff0ddf	-0.4981527
33	0xbeea0e66	-0.4571411
34	0x3e1411d6	0.14459929
35	0xbebebb9e	-0.37252516
36	0xbe8fda3a	-0.2809618
37	0x3db8ddf3	0.090267085
38	0x3e13e001	0.1444092
39	0x3e4e2d20	0.20134401
40	0x3e1a19c8	0.15048897
41	0xbe5e6f68	-0.21722186
42	0xbddcfba0	-0.10790181
43	0x3edb054d	0.42777482
44	0x3ed1b66c	0.4095949
45	0x3f4e2b38	0.80534697
46	0x3d81daeb	0.063405834
47	0x3e1d4343	0.1535769
48	0xbb81feac	-0.003967127
49	0xbc656c49	-0.014002868
50	0x3e08aa21	0.13346149
51	0xbdab79b5	-0.08372823
52	0xbe0dc9ab	-0.13846461
53	0x3e1f180a	0.15536514
54	0xbf028af2	-0.50993264
55	0xbd50ccc8	-0.050976545
56	0x3df149c8	0.11781651
57	0x3d378eec	0.044814035
58	0xbf4e2c59	-0.8053642
59	0x3e9e7de4	0.30955422
60	0x3e3cb1ed	0.18427248
61	0x3c7ff234	0.015621711
62	0x3e689dc1	0.22716428
63	0xbcd379e7	-0.025814964
64	0xbeac3123	-0.33631238
65	0x3f216cf5	0.6305688
66	0x3ed75268	0.42055058
67	0xbea28f23	-0.3174983
68	0x3e952ab8	0.29134154
69	0xbe87d6f1	-0.26531175
70	0xbe1b6802	-0.15176395
71	0xbf3ebb4f	-0.7450456
72	0x3e5f55bd	0.2181005
73	0x3f3a2418	0.72711325
74	0x3d111c38	0.035427302
75	0xbf08584d	-0.53259736
76	0xbd2563d9	-0.040378425
77	0xbe669081	-0.22516061
78	0xbee0c897	-0.43903038
79	0x3daf93e5	0.085731305
80	0x3e1c488a	0.15262046
81	0x3e8e7661	0.2782469
82	0x3d07a233	0.03311367
83	0x3e84f616	0.25969
84	0xbc93ea9e	-0.01805621
85	0xbe6afcd1	-0.22948004
86	0x3e80ab95	0.25130907
87	0xbe8604e1	-0.26175597
88	0xbeb8eba9	-0.36117294
89	0xbe636777	-0.22207437
90	0xbe96c664	-0.29448235
91	0xbe544cad	-0.20732374
92	0xbee2368c	-0.4418224
93	0xbf38b277	-0.72147316
94	0xbef6bc9d	-0.48190776
95	0x3e2ab66a	0.16671148
96	0x3e89df6b	0.26928267
97	0x3e418881	0.18899728
98	0xbea08bfa	-0.31356794
99	0x3e355f4f	0.17712139
100	0xbde1169d	-0.10990641
101	0x3e0ac279	0.13550748
102	0x3e517211	0.20453669
103	0xbf13fd22	-0.57808125
104	0x3f3bbb59	0.73332745
105	0x3da8308c	0.082123846
106	0xbdbe64a8	-0.092965424
107	0xbe0d5758	-0.1380285
108	0x3e805f3d	0.2507266
109	0xbcef5807	-0.02921678
110	0x3e610baf	0.21977113
111	0xbf00eb4e	-0.50359046
112	0x3efa9371	0.48940614
113	0xbcf3296b	-0.029682836
114	0xbe95d6ca	-0.29265434
115	0xbec9f7a8	-0.3944676
116	0xbea67eaa	-0.32518512
117	0xbe8a7b8c	-0.27047384
118	0xbe8f2368	-0.279567
119	0xbf3fdad0	-0.74943256
120	0xbeb41e82	-0.35179526
121	0xbe8360d2	-0.25659806
122	0xbe221963	-0.15829997
123	0x3e28ee62	0.16497186
124	0xbe927209	-0.28602627
125	0xbee94411	-0.45559743
126	0xbee2d488	-0.44302773
127	0x3d6a8352	0.057254143
128	0xbdb124f3	-0.08649626
129	0xbede17c9	-0.43377522
130	0xbe2f20ee	-0.17102405
131	0x3e42c600	0.19020844
132	0xbd79ce69	-0.060987864
133	0x3d18f437	0.037342276
134	0xbe11a621	-0.1422353
135	0xbf8d638b	-1.1046003
136	0x3e2e5c7f	0.17027472
137	0xbf551de5	-0.8324874
138	0x3d84e5b8	0.06489128
139	0xbf31f223	-0.69510096
140	0xbe272f2e	-0.16326591
141	0x3e1739fb	0.14768212
142	0x3eab6223	0.3347331
143	0xbe4c51d2	-0.19953087
144	0xbeda0647	-0.42582914
145	0x3eca8091	0.39551213
146	0xbea92375	-0.33034864
147	0xbe5db5b3	-0.21651344
148	0x3eaaae65	0.33336177
149	0xbe6819ea	-0.22666135
150	0x3c5f7560	0.013638824
151	0xbe7ac0c0	-0.24487591
152	0xbe3f8ac1	-0.18705274
153	0xbdbe9e65	-0.09307555
154	0x3ee0b675	0.43889204
155	0xbe74881a	-0.23880044
156	0xbf5d4fcf	-0.86449903
157	0xbec1f432	-0.3788162
158	0xbdd83bd5	-0.10558287
159	0x3d85c8b9	0.065324254
160	0xbde1d931	-0.11027754
161	0xbee92325	-0.45534626
162	0x3c926d2d	0.017874325
163	0xbeb17a80	-0.34663773
164	0xbe0f6420	-0.14003038
165	0xbce79995	-0.028271476
166	0x3efa518a	0.48890334
167	0x3ed8871b	0.42290577
168	0x3e9e0e58	0.30870318
169	0xbe06255d	-0.1310019
170	0xbc2571fc	-0.010097977
171	0x3ed2edb9	0.41196993
172	0x3f07060d	0.5274361
173	0x3f5050d8	0.8137336
174	0x3e9d2267	0.3069031
175	0x3e97275d	0.2952222
176	0x3dcb296b	0.09920009
177	0x3e22eac8	0.15909874
178	0x3f057313	0.52128714
179	0x3c847c83	0.016172653
180	0x3e05b0c2	0.13055709
181	0x3f0ae394	0.54253507
182	0xbf09247d	-0.535713
183	0x3e3eef61	0.18646003
184	0x3e936bc9	0.2879317
185	0x3d6792dc	0.05653654
186	0xbd5ab6fc	-0.053397164
187	0x3ee4f9ad	0.44721738
188	0x3ea7ef74	0.32799876
189	0x3d13b180	0.03605795
190	0x3d7a1c7f	0.061062332
191	0xbd1aa77c	-0.03775738
192	0xbe52a132	-0.20569304
193	0x3ec1f0fb	0.37879166
194	0x3ea2887d	0.31744757
195	0xbe033645	-0.12813671
196	0x3e8c794b	0.2743629
197	0xbce6b2de	-0.028161462
198	0x3d6402a3	0.055666577
199	0xbf8f9d25	-1.1219832
200	0x3e980c12	0.2969671
201	0x3f621b3f	0.88322824
202	0x3e7cae14	0.2467578
203	0xbeb12b11	-0.3460317
204	0x3e8a0416	0.26956242
205	0xbed5b553	-0.41739902
206	0xbe45f42f	-0.1933143
207	0xbfa8fbfb	-1.3201898
208	0x3efee686	0.4978525
209	0xbdca341a	-0.09873219
210	0x3e60fc93	0.2197135
211	0x3ecb447a	0.3970068
212	0xbb2b32fb	-0.0026122916
213	0xbe13d418	-0.14436376
214	0x3e78b688	0.2428838
215	0xbe71d0bf	-0.23614787
216	0xbdbe40e5	-0.092897214
217	0xbe39ad45	-0.18132503
218	0xbe49d4bd	-0.1971006
219	0xbe221c35	-0.15831073
220	0xbe15dc03	-0.14634709
221	0xbf5a896c	-0.8536594
222	0xbec880b8	-0.39160705
223	0x3df42986	0.119219825
224	0x3e6245e6	0.22096977
225	0x3f159162	0.5842496
226	0xbdec2b12	-0.115316525
227	0x3e8eafe7	0.27868578
228	0xbd44e647	-0.048071172
229	0x3ec8961a	0.39177018
230	0x3e951a5e	0.2912168
231	0xbd6fee2e	-0.058576755
232	0x3f48285e	0.78186595
233	0x3f1ae0e0	0.6049938
234	0xbc3fe6da	-0.011712754
235	0xbd22d018	-0.039749235
236	0x3e80d092	0.25159127
237	0xbd6e0745	-0.0581124
238	0x3f0e3917	0.5555586
239	0xbef3a9f1	-0.47590593
240	0x3ed95052	0.42444092
241	0x3e1f30e3	0.15545993
242	0xbe35b411	-0.17744471
243	0xbf21aba3	-0.6315252
244	0xbe417a7f	-0.18894385
245	0x3cf87f75	0.030334214
246	0xbefdef8b	-0.4959682
247	0xbf1af655	-0.6053212
248	0xbcf0f797	-0.029414935
249	0xb9e643ac	-0.00043919438
250	0x3c872c3b	0.016500583
251	0x3ec92897	0.3928878
252	0xbe65a729	-0.22427048
253	0xbef4c295	-0.47804704
254	0xbd9baf13	-0.07601752
255	0xbd36b22a	-0.044603504

bias f4 [64]
0	0xbd8dd7db	-0.06925937
1	0xbb11863c	-0.0022205254
2	0x3e178e5a	0.14800397
3	0xbd083b06	-0.033259414
4	0x3e71e7a3	0.23623519
5	0xbda39ce2	-0.079889074
6	0x3df96ea3	0.121793054
7	0x3d54a64e	0.051916413
8	0x3d3d6139	0.046235297
9	0x3e24be97	0.1608833
10	0x3c91145c	0.017709903
11	0xbd81b63d	-0.06333587
12	0x3e187c67	0.14891206
13	0xbdc1f057	-0.09469669
14	0x3d715172	0.058915563
15	0x3c75947c	0.014989015
16	0x3d1f7af4	0.038935617
17	0x3e1fb085	0.1559468
18	0xbc840ff0	-0.01612088
19	0xbc5c6db8	-0.013453893
20	0x3ddfc626	0.10926466
21	0xbe286c5e	-0.16447589
22	0x3d40460d	0.046941806
23	0x3d7bb536	0.061452113
24	0x3e20a05f	0.15686177
25	0x3c0fda77	0.008780113
26	0x3c6d7f23	0.014495644
27	0x3db7b77d	0.089705445
28	0x3aaf7410	0.001338603
29	0xbcc573b8	-0.02410303
30	0x3ce1808c	0.027527116
31	0x3c8a302a	0.01686867
32	0xbbeded36	-0.0072609438
33	0x3d875057	0.066071205
34	0xbce20e87	-0.027594818
35	0xbd0fa412	-0.03506858
36	0x3e6a2de1	0.22869064
37	0x3dd6eade	0.10494016
38	0xbabc69e0	-0.0014374815
39	0xbda1a003	-0.07891848
40	0x3d935a62	0.071949735
41	0x3c97e90c	0.018543743
42	0xbdba6c79	-0.09102721
43	0x3e4412be	0.19147775
44	0x3e1cdfdb	0.15319769
45	0x3ca6a3c1	0.020341756
46	0x3b0c0432	0.0021364805
47	0x3d88b871	0.066758044
48	0x3e3e8cea	0.18608442
49	0xbd9f53ab	-0.0777963
50	0x3e353d93	0.1769927
51	0xbda54e21	-0.080715425
52	0xbb0b8d62	-0.0021293988
53	0x3d1c1768	0.03810826
54	0xbce641e7	-0.028107597
55	0x3c1d58aa	0.009603659
56	0x3dabc98e	0.08388053
57	0x3bb81e55	0.0056188502
58	0x3e4dbf2e	0.2009246
59	0x3d14ba95	0.03631075
60	0x3e67b22a	0.22626558
61	0x3e236a42	0.15958503
62	0x3e6ea551	0.2330525
63	0x3d78e424	0.060764447

weight f4 [4, 64]
0	0xbedc1499	-0.42984465
1	0xbeb0c51f	-0.3452539
2	0x3ed8feb7	0.42381832
3	0xbeacfc38	-0.33786178
4	0x3db65e1e	0.0890467
5	0xbdc5d9ab	-0.096606575
6	0xbecb6ceb	-0.39731535
7	0x3f6d6c89	0.92743737
8	0x3e4fa5b5	0.20278056
9	0x3e7cc053	0.24682741
10	0xbec0f421	-0.37686256
11	0x3dd42994	0.10359493
12	0x3ec1812e	0.3779387
13	0xbe5e66ec	-0.21718949
14	0xbe9659bd	-0.2936534
15	0xbeb7a31c	-0.3586663
16	0xbec0d92e	-0.37665695
17	0xbeea665d	-0.45781222
18	0xbde327f4	-0.11091605
19	0xbdd9bece	-0.10632096
20	0x3ef6e980	0.4822502
21	0x3ee476ca	0.4462188
22	0x3e6039f4	0.21897107
23	0x3db92d9b	0.09041902
24	0x3ebf1d78	0.3732717
25	0xbeb527fc	-0.35382068
26	0x3e4b58ec	0.1985814
27	0x3ed289c1	0.41120723
28	0xbeaba7e8	-0.3352654
29	0xbe901e98	-0.2814834
30	0xbea9512a	-0.33069736
31	0xbd752a7b	-0.059854966
32	0xbedc34dd	-0.4300908
33	0xbeeb8c2b	-0.46005377
34	0xbee50b98	-0.44735408
35	0x3be5c373	0.0070118248
36	0x3ee6d6ea	0.4508584
37	0x3e0700fc	0.1318397
38	0xbe7ed984	-0.24887663
39	0xbdedf7f8	-0.11619562
40	0x3e7814de	0.2422671
41	0x3ed6cb71	0.41952088
42	0x3dc0ab84	0.09407714
43	0x3ebdffbb	0.3710917
44	0xbefcfc76	-0.49411362
45	0x3eb58ca8	0.35458875
46	0x3bff1448	0.0077844
47	0xbec4aa71	-0.38411286
48	0xbeeb6e8d	-0.4598278
49	0xbdb897a0	-0.09013295
50	0x3eb6b945	0.35688224
51	0xbbdb2520	-0.0066877753
52	0xbddc98c8	-0.10771328
53	0xbee5c79f	-0.4487886
54	0xbe8e1242	-0.27748305
55	0x3daf128e	0.08548461
56	0xbeb83f5f	-0.35985848
57	0xb9a03408	-0.00030556344
58	0x3eef34da	0.4672001
59	0xbede5313	-0.43422756
60	0x3e8b7132	0.272348
61	0x3e70038a	0.2343885
62	0x3f39edfc	0.7262876
63	0x3edc67e5	0.43048015
64	0xbf019ca4	-0.5062964
65	0xbeb165d2	-0.34647995
66	0x3e39edfe	0.18157193
67	0xbeba53d6	-0.36392087
68	0x3d92ffc6	0.07177691
69	0x3d7f2ecb	0.062300485
70	0xbe8746a3	-0.2642108
71	0x3f94705d	1.159679
72	0x3eaf99ee	0.34297127
73	0x3e590586	0.21193513
74	0xbf10c433	-0.56549376
75	0x3cc862c8	0.024461165
76	0x3e0e157a	0.1387538
77	0xbe3db16e	-0.18524715
78	0xbec58fdc	-0.38586318
79	0xbecf0379	-0.40432337
80	0xbe18ff04	-0.1494103
81	0xbeeb4ea6	-0.45958441
82	0x3c338721	0.01095751
83	0xbd55ba64	-0.05217971
84	0x3f0519e7	0.5199265
85	0x3f1bcb07	0.6085667
86	0x3e22f8a9	0.15915169
87	0x3d8348e0	0.06410384
88	0x3eef47b2	0.46734387
89	0xbebce223	-0.3689128
90	0x3edbb5ab	0.4291204
91	0x3ee8abf1	0.4544368
92	0xbf25397d	-0.64540845
93	0xbe8d01a2	-0.27540308
94	0xbefcf7e2	-0.4940787
95	0x3dc6962f	0.09696614
96	0xbe6a2c30	-0.22868419
97	0xbed8d394	-0.4234892
98	0xbe6692d9	-0.22516955
99	0xbd259cec	-0.040432855
100	0x3c86f7e3	0.016475623
101	0x3e7bffe5	0.24609335
102	0xbee6a3bf	-0.45046803
103	0x3d08573f	0.03328633
104	0x3df70c29	0.12062866
105	0x3f056e25	0.5212119
106	0x3dd41ee3	0.10357454
107	0x3e507c9d	0.20360036
108	0xbee4753b	-0.4462069
109	0x3f0b71f1	0.54470736
110	0x3c9f65b5	0.019457677
111	0xbeb932f7	-0.36171696
112	0xbf12a121	-0.57277113
113	0xbd2589d4	-0.040414646
114	0x3e5252e8	0.20539439
115	0xbc086b70	-0.008326396
116	0x3e11e5ec	0.14247864
117	0xbeed4316	-0.46340245
118	0xbeeeffb2	-0.46679455
119	0x3e9b4668	0.30327153
120	0xbea7b8f5	-0.327583
121	0x3bb9f6e0	0.0056751817
122	0x3e1f4721	0.15554477
123	0xbf195aab	-0.59903973
124	0x3dc7920a	0.097446516
125	0x3e8f53de	0.27993673
126	0x3f36848a	0.7129599
127	0x3ed354a8	0.41275525
128	0xbf4e640f	-0.8062143
129	0xbefdeae4	-0.4959327
130	0x3e6c730e	0.23090765
131	0xbf165ec1	-0.58738333
132	0x3ee92a5b	0.45540127
133	0x3d8e29ba	0.069415525
134	0xbeaff51a	-0.34366685
135	0x3f51ef99	0.8200622
136	0x3ed9c304	0.42531598
137	0x3eeaf18b	0.45887408
138	0xbee3d046	-0.44494838
139	0x3cbfc870	0.023411006
140	0x3ee5c465	0.448764
141	0xbf069677	-0.5257334
142	0xbed8f26c	-0.42372453
143	0xbeeed401	-0.4664612
144	0xbeeb3c01	-0.45944217
145	0xbe9a65a5	-0.30155674
146	0x3d4ef4a2	0.05052627
147	0x3cf03b00	0.029325008
148	0x3e086bf1	0.13322426
149	0x3f04c4d6	0.5186285
150	0xbefcf0db	-0.49402508
151	0x3df1c838	0.11805767
152	0x3eae4203	0.34034738
153	0xbd612121	-0.054963235
154	0x3ecf7f43	0.4052678
155	0x3edc8c8b	0.43075976
156	0xbf36cf0c	-0.7140968
157	0xbefa6a24	-0.48909104
158	0xbf1cd083	-0.61255664
159	0x3d58c934	0.052926257
160	0xbe860461	-0.26175216
161	0xbe8aa5af	-0.27079532
162	0xbeddda35	-0.4333054
163	0xbd17389c	-0.03691922
164	0x3dd7a12c	0.10528788
165	0x3f03b04f	0.514409
166	0xbea9329e	-0.3304643
167	0x3ce1ea2f	0.027577488
168	0x3ec5561a	0.38542253
169	0x3e046f86	0.12933168
170	0x3b253ec6	0.0025214418
171	0x3e28b5d5	0.16475613
172	0xbeb152fb	-0.34633622
173	0x3e6758a9	0.22592415
174	0xbdbd2eed	-0.09237466
175	0xbebd6f19	-0.36998823
176	0x3ddd0a1d	0.107929446
177	0xbd86b248	-0.06576973
178	0x3ee3df2b	0.445062
179	0xbd5e98a8	-0.054344803
180	0xbf386551	-0.72029597
181	0xbecaa9b1	-0.3958259
182	0xbd831c49	-0.06401879
183	0x3ec4c020	0.3842783
184	0xbe350765	-0.17678602
185	0xbd645e44	-0.05575396
186	0x3da17171	0.07882965
187	0xbe403a6e	-0.18772289
188	0x3e2fe564	0.1717735
189	0x3ee6b460	0.4505949
190	0x3fa2edbc	1.2728801
191	0x3c9befe7	0.019035293
192	0xbedd0c87	-0.4317362
193	0xbeea299f	-0.4573488
194	0x3efac152	0.48975617
195	0xbef9852e	-0.4873442
196	0x3e6f552e	0.23372337
197	0x3ced2756	0.02894942
198	0xbea88ec2	-0.32921416
199	0x3de30f6e	0.11086927
200	0x3d298b9d	0.04139291
201	0x3e97ce77	0.29649708
202	0xbea358eb	-0.31903777
203	0x3d7f1660	0.062277198
204	0x3e9d605f	0.30737588
205	0xbed3edb7	-0.413923
206	0xbef47c19	-0.4775093
207	0xbee9fd7f	-0.45701215
208	0xbec000c7	-0.37500593
209	0xbe908ad2	-0.28230911
210	0x3d421be5	0.047389884
211	0xbd6eccf4	-0.058300927
212	0x3edfb8c7	0.4369566
213	0x3dc4c70f	0.0960828
214	0x3e9872b0	0.29775
215	0x3dafbea9	0.085812874
216	0x3e953576	0.2914235
217	0xbec77310	-0.38954973
218	0x3eaaf449	0.333895
219	0x3e80136c	0.25014818
220	0x3dc92392	0.098212376
221	0xbee899cf	-0.45429847
222	0xbebcb50e	-0.36856884
223	0x3d27f390	0.041003764
224	0xbed9997d	-0.42499915
225	0xbe80ff7b	-0.25194916
226	0xbeb6dbd9	-0.35714605
227	0x3de31e7a	0.11089797
228	0x3f1a812f	0.6035337
229	0x3e63e8d5	0.22256787
230	0xbe9967d5	-0.2996203
231	0x3c59fafb	0.013304467
232	0x3efd7e2c	0.49510324
233	0x3ee2810a	0.44239074
234	0x3d04777e	0.03234052
235	0x3ef44fdc	0.47717178
236	0xbe99d737	-0.30047008
237	0xbbcd9743	-0.0062741353
238	0x3c6fd51b	0.014638211
239	0xbee42856	-0.44562024
240	0xbf067b81	-0.525322
241	0x3d8ab2a0	0.06772351
242	0x3ee8b91b	0.45453724
243	0xbc1156d6	-0.008870801
244	0xbe9e938b	-0.3097194
245	0xbead6667	-0.3386719
246	0xbeea23c4	-0.45730412
247	0xbd62d8bd	-0.05538248
248	0xbe8f9ed5	-0.28050867
249	0x3ba8c260	0.0051501244
250	0x3f0a3d7e	0.5400008
251	0xbdfd2b2f	-0.12361752
252	0x3f2f6f3a	0.68529093
253	0x3e53c6d1	0.20681311
254	0xbe3a1e68	-0.18175662
255	0x3ee72685	0.45146576

bias f4 [4]
0	0xbdf75d2e	-0.120783195
1	0xbdc616e5	-0.096723355
2	0x3deadc51	0.11467803
3	0x3cd0b0f5	0.025475005
