parameters_passed_1.pth (torch, 15759 bytes, 8 tensors)

weight f4 [16, 8]
-0.04720151 0.045804106 0.15089905 1.3689238 0.35427585 -0.26004696 -0.43202046 0.18572798
-0.17999941 -0.1932152 -0.029837042 -0.37026173 0.61092424 1.1585996 0.0031226568 -0.91107357
-0.06463888 0.43014878 -0.6162463 0.48222792 0.026101531 -0.24166994 0.12117163 0.41782117
0.5153226 0.6709513 -0.10727853 -0.91848457 0.31774178 -1.0770296 -1.2085116 0.017880056
-0.1663537 -0.45036075 0.12994877 -0.39244172 0.3151257 0.33195505 0.4452287 -0.17892136
-0.14753707 0.5003794 -0.6701915 -0.35153797 -0.16091749 0.09974843 0.59118986 0.22960448
-0.21550201 -0.95934516 0.77926517 -0.08917708 -0.5594806 -0.6904431 -0.27418151 0.0142445
-0.03434394 -0.38212472 -0.00042126284 -0.6916231 0.16665806 0.56572646 0.33392316 -0.20750764
-0.2818473 0.07097443 -0.34194326 -0.2256178 0.7164167 0.5713614 -0.12567367 -0.24284448
0.2527289 0.23825455 -0.10179579 -0.34724784 0.23126817 1.4239266 -0.03661936 -1.0499089
0.2399365 -0.09111463 0.1500833 0.0755169 -0.68491966 -0.7528087 -0.18145962 0.38727635
-0.0545061 0.20907877 0.07478789 -1.3167454 1.0560778 -0.26273155 -0.41156134 -0.079112485
-0.04540711 0.7962581 0.087623 0.091127604 0.011727074 0.7280389 0.10783922 -0.49066383
0.20662382 0.19412571 0.088396326 0.2433625 0.25839925 0.90902823 0.28073198 -0.27669674
-0.3485985 -0.2250476 -0.36789 0.4869052 0.7582801 -0.695259 -0.27596596 0.1461136
0.07499316 -0.28247264 -0.27553156 -0.52470845 -0.48419777 0.23174681 -0.010934953 0.31144795
00000000: 5f56 41bd 169d 3b3d 4885 1a3e e538 af3f
00000010: a563 b53e e024 85be c931 ddbe 7a2f 3e3e
00000020: c451 38be 35da 45be d06c f4bc f292 bdbe
00000030: 8865 1c3f fe4c 943f 7da5 4c3b 1e3c 69bf
00000040: 6461 84bd 763c dc3e 51c2 1dbf 94e6 f63e
00000050: e1d2 d53c 5378 77be d528 f83d a8ec d53e
00000060: 2fec 033f 77c3 2b3f d9b4 dbbd ce21 6bbf
00000070: 0daf a23e 1bdc 89bf 82b0 9abf 3279 923c
00000080: a058 2abe af95 e6be 4a11 053e 1fee c8be
00000090: 2858 a13e 03f6 a93e 04f5 e33e 2937 37be
000000a0: f513 17be dd18 003f ac91 2bbf c9fc b3be
000000b0: 8ec7 24be e848 cc3d 3858 173f 701d 6b3e
000000c0: 8fac 5cbe a597 75bf ec7d 473f 79a2 b6bd
000000d0: 1f3a 0fbf e1c0 30bf 8561 8cbe c361 693c
000000e0: 3bac 0cbd daa5 c3be f1dc dcb9 360e 31bf
000000f0: 69a8 2a3e 73d3 103f faf7 aa3e e27c 54be
00000100: 4a4e 90be 0b5b 913d 3013 afbe 5a08 67be
00000110: 1667 373f be44 123f 99b0 00be 39ac 78be
00000120: af65 813e 00f9 733e 507a d0bd 78ca b1be
00000130: 90d1 6c3e 3a43 b63f 2ffe 15bd 6a63 86bf
00000140: eab1 753e 4f9a babd 70af 193e 9ba8 9a3d
00000150: e556 2fbf 12b8 40bf 8dd0 39be 1649 c63e
00000160: ca41 5fbd bf18 563e 652a 993d 1d8b a8bf
00000170: 8f2d 873f c084 86be 2bb8 d2be ba05 a2bd
00000180: cefc 39bd 92d7 4b3f b073 b33d 1ca1 ba3d
00000190: ea22 403c c260 3a3f cfda dc3d 4a38 fbbe
000001a0: 3295 533e e4c8 463e 2209 b53d 0534 793e
000001b0: e84c 843e 13b6 683f 1abc 8f3e 32ab 8dbe
000001c0: 817b b2be e172 66be 145c bcbe a34b f93e
000001d0: a51e 423f 7efc 31bf 694b 8dbe ce9e 153e
000001e0: 0496 993d 41a0 90be 7912 8dbe 4b53 06bf
000001f0: c5e8 f7be 094f 6d3e 8428 33bc 1b76 9f3e

bias f4 [16]
-0.02104481 -0.33678424 0.720513 -0.1792643 -0.124979764 0.7135658 0.14236715 -0.13947763
-0.13484298 0.2856672 0.3497695 0.6060655 0.3471135 0.53002477 0.420399 -0.26846597
00000000: 2a66 acbc fc6e acbe 8a73 383f 1091 37be
00000010: 64f5 ffbd 40ac 363f b2c8 113e 39d3 0ebe
00000020: 4714 0abe f942 923e fd14 b33e 1c27 1b3f
00000030: dcb8 b13e b4af 073f 8a3e d73e 5f74 89be

weight f4 [32, 16]
1.125362 -0.07624049 0.6914608 -0.5410503 0.008864934 0.34390467 0.6617795 0.25151727
0.36887 -0.25282285 0.06857969 -0.430381 -0.19418885 -0.027374173 0.3778398 0.86384755
-0.19621052 0.50552684 -0.6599192 0.76562965 0.82192826 -0.5967568 0.2701291 0.68561876
1.2915086 0.006486839 0.4806142 0.41662115 -0.6704969 -0.38737068 0.17172456 -0.0785856
0.9316878 -0.10970253 0.76044345 -0.41164842 -0.95126665 0.45160243 0.14882801 -0.66998154
-0.19260287 0.19351362 -0.45343024 0.35753363 0.3742532 0.261409 0.73270077 -0.1024121
1.3295902 1.3812319 0.19050696 0.88912296 -0.78257257 0.32762033 0.9400168 -0.023605905
0.28457025 0.7289344 -0.22749637 0.41795906 0.50961936 -0.041660935 0.054181542 -0.025695035
-0.7723006 1.2726784 -0.3586941 -0.8074164 0.52799064 0.015781667 0.09815327 0.4265272
0.038225487 0.6120181 0.42688233 -0.13063453 0.31916127 0.9232857 -0.2419111 -0.60209036
0.6740951 -0.23091958 0.7702109 0.20024465 -0.6289921 0.5827085 0.19830291 -0.77482677
-0.379284 0.1304865 -0.3048404 -0.090026885 0.20575216 -0.009807434 0.27702126 0.93086547
-0.27948537 0.8820902 0.1999144 0.91349715 0.15050386 0.049473196 0.12598024 0.11782694
0.56317604 0.40279788 0.66879827 0.08209481 0.40881142 0.7795345 -0.03953186 -0.8566128
1.0402848 -0.7661493 0.35848078 0.18753704 -0.6401922 0.33515054 0.65287334 -0.37651837
-0.21206462 0.09540136 -0.33385032 0.19224328 0.5301804 0.24421476 -0.3264682 0.5714322
-0.5150428 1.320119 -1.0584449 -0.6165658 0.64784276 -0.24460137 0.123923205 0.6819936
0.59121895 0.4879746 -0.4653986 -0.38311163 0.39090937 0.576702 -0.3778971 -0.59240097
0.7598629 0.94434196 0.12304865 0.8463935 0.13176613 0.020402495 0.85670424 0.6077108
0.28555468 0.37328386 0.41758204 0.66794133 0.59763956 0.09059552 -0.3373058 0.12234618
0.18821888 0.17022733 -0.056328304 0.9296592 0.41373482 0.055767786 0.18624517 0.44986585
0.5076866 -0.35615268 0.6822496 0.097364716 -0.47004002 -0.33336693 0.5827343 -0.4975345
0.88548416 -0.4768918 0.20727664 0.6913909 -0.33451948 0.2559955 0.8836601 0.043739922
0.16140111 0.23946093 -0.4242277 0.3895377 0.32242554 -0.38333517 -0.25063312 0.7244761
0.53439426 -0.15319113 0.11624658 0.88834393 -0.24524058 0.12069777 1.130233 0.15439926
0.24267289 0.5296906 -0.18817082 0.15033546 0.37539437 -0.062384136 -0.5745828 0.8502378
-0.027272481 -0.64505225 -0.12133057 1.1307348 -0.4161866 -0.6784438 0.13934544 0.18777011
0.6485445 -0.40744525 0.8976069 0.096212134 -0.683544 -0.88629425 0.18803188 -0.36824673
-0.046016846 0.99996173 0.04652075 -0.42137837 -0.07826707 0.2931251 -0.78476554 0.07212078
0.5482202 0.51135045 0.0018297329 -0.12946038 0.02601401 0.4911935 0.47782958 -0.852575
0.47794047 -0.6869079 0.70071584 0.41516462 -0.4977619 0.37772533 0.37391293 -0.41074833
-0.06253894 0.18331091 -0.17542464 0.06542417 0.5656031 0.11214487 -0.30020916 0.21399292
00000000: dd0b 903f f923 9cbd 9303 313f 4682 0abf
00000010: 3a3e 113c 4614 b03e 626a 293f dfc6 803e
00000020: 87dc bc3e ff71 81be 8273 8c3d e65a dcbe
00000030: 71d9 46be cd3f e0bc 3874 c13e 1d25 5d3f
00000040: 69eb 48be 356a 013f 77f0 28bf 4e00 443f
00000050: e469 523f 0ec5 18bf 5d4e 8a3e b684 2f3f
00000060: 2750 a53f 8d8f d43b 1013 f63e 5e4f d53e
00000070: afa5 2bbf 7355 c6be 90d8 2f3e 7df1 a0bd
00000080: 1783 6e3f b8ab e0bd 6cac 423f 95c3 d2be
00000090: 3686 73bf 6f38 e73e 5f66 183e e983 2bbf
000000a0: b039 45be 6f28 463e 0228 e8be a60e b73e
000000b0: 1e9e bf3e 67d7 853e 4792 3b3f 6fbd d1bd
000000c0: 0330 aa3f 35cc b03f 4214 433e 909d 633f
000000d0: ad56 48bf dabd a73e f1a4 703f 2c61 c1bc
000000e0: 31b3 913e 729b 3a3f cff4 68be bbfe d53e
000000f0: 6a76 023f a8a4 2abd 77ed 5d3d 657e d2bc
00000100: 7eb5 45bf 20e7 a23f c1a6 b7be d7b2 4ebf
00000110: 652a 073f 8e48 813c 9504 c93d c661 da3e
00000120: 5492 1c3d 38ad 1c3f 5290 da3e 0fc5 05be
00000130: 1b69 a33e 745c 6c3f 8bb7 77be 9822 1abf
00000140: 7f91 2c3f 2f76 6cbe 8b2c 453f ef0c 4d3e
00000150: a005 21bf 622c 153f eb0f 4b3e 0c5b 46bf
00000160: 8331 c2be 419e 053e 0a14 9cbe 0460 b8bd
00000170: b2b0 523e 5caf 20bc bbd5 8d3e 334d 6e3f
00000180: b518 8fbe aad0 613f 5cb6 4c3e f3da 693f
00000190: af1d 1a3e 68a4 4a3d f700 013e 404f f13d
000001a0: 4e2c 103f 863b ce3e 5d36 2b3f 5321 a83d
000001b0: bb4f d13e 938f 473f 29ec 21bd fa4a 5bbf
000001c0: 0d28 853f 5c22 44bf cb8a b73e b609 403e
000001d0: a3e3 23bf da98 ab3e b522 273f 04c7 c0be
000001e0: 7827 59be ca61 c33d 6eee aabe 6cdb 443e
000001f0: e7b9 073f 6f13 7a3e d726 a7be 6149 123f
00000200: d8d9 03bf a9f9 a83f 1f7b 87bf 42d7 1dbf
00000210: 06d9 253f c878 7abe 73cb fd3d 2297 2e3f
00000220: 205a 173f cfd7 f93e ba48 eebe 3527 c4be
00000230: 4625 c83e bea2 133f bb7b c1be 97a7 17bf
00000240: 6086 423f 65c0 713f ee00 fc3d 3fad 583f
00000250: b3ed 063e 2223 a73c f850 5b3f ef92 1b3f
00000260: 3934 923e 101f bf3e 50cd d53e 34fe 2a3f
00000270: e8fe 183f 258a b93d 59b3 acbe a290 fa3d
00000280: 73bc 403e 1350 2e3e 82b8 66bd 25fe 6d3f
00000290: 0dd5 d33e c36c 643d 0eb7 3e3e d154 e63e
000002a0: c0f7 013f a559 b6be e9a7 2e3f 2767 c73d
000002b0: 16a9 f0be 12af aabe 132e 153f d8bc febe
000002c0: 17af 623f 292b f4be 5440 543e fefe 303f
000002d0: 2346 abbe d811 833e 8c37 623f a228 333d
000002e0: 5546 253e 3f35 753e 6034 d9be 7c71 c73e
000002f0: f614 a53e 8244 c4be fc52 80be 4477 393f
00000300: 10ce 083f 23de 1cbe b012 ee3d 826a 633f
00000310: 5920 7bbe 6430 f73d 7aab 903f d71a 1e3e
00000320: 3e7f 783e ce99 073f daaf 40be 8af1 193e
00000330: b133 c03e 8286 7fbd dc17 13bf 2fa9 593f
00000340: 8a6a dfbc 2522 25bf 297c f8bd ebbb 903f
00000350: 6916 d5be 7eae 2dbf 92b0 0e3e cf46 403e
00000360: 0307 263f aa9c d0be 91c9 653f de0a c53d
00000370: bdfc 2ebf 2ee4 62bf 6e8b 403e d68a bcbe
00000380: 297c 3cbd 7efd 7f3f 8b8c 3e3d e8be d7be
00000390: 7c4a a0bd 7e14 963e 65e6 48bf 0fb4 933d
000003a0: 2958 0c3f dde7 023f a6d3 ef3a 4391 04be
000003b0: 551b d53c b77d fb3e 14a6 f43e 5b42 5abf
000003c0: 9db4 f43e 32d9 2fbf 1d62 333f 7590 d43e
000003d0: a6da febe 3765 c13e 8471 bf3e 9b4d d2be
000003e0: 6a14 80bd dbb5 3b3e 84a2 33be 1bfd 853d
000003f0: 5dcb 103f 36ac e53d 04b5 99be f620 5b3e

bias f4 [32]
0.031625103 -0.22310066 0.17778505 -0.22627985 0.14002839 0.32274666 0.23973355 0.4625224
-0.51369965 0.26545364 0.025321417 0.42300808 0.32988146 -0.06569208 -0.052866127 0.3463208
0.33926463 -0.23419139 0.0661828 0.5453325 -0.42353642 0.44417456 0.45657295 -0.047097217
0.23281558 0.084447585 0.33286604 0.33108494 0.1639835 -0.2171798 -0.41713488 0.4991151
00000000: 5389 013d 8074 64be 490d 363e e8b5 67be
00000010: 9a63 0f3e 0d3f a53e b67c 753e bccf ec3e
00000020: d281 03bf 8ae9 873e dc6e cf3c 8494 d83e
00000030: 39e6 a83e 9289 86bd 278a 58bd f650 b13e
00000040: 18b4 ad3e decf 6fbe d98a 873d e99a 0b3f
00000050: c4d9 d8be d96a e33e eec3 e93e 03e9 40bd
00000060: 3567 6e3e dbf2 ac3d 6b6d aa3e f783 a93e
00000070: 4aeb 273e 6264 5ebe b492 d5be 048c ff3e

weight f4 [64, 32]
0.7056979 -0.9459331 -0.010122723 0.09447604 -0.6016298 0.13635121 0.116133824 0.43841955
-0.85470676 0.2443576 -0.3952541 0.33668005 0.53887606 -0.35848606 -0.3417694 0.38592532
0.21614417 -0.5266897 0.1451683 0.12994437 -1.1713337 0.30935502 0.3693458 0.29191095
-0.43872553 0.2583416 0.47847363 0.2751439 0.5357979 -0.036981523 -0.9078297 0.21799031
0.5299907 -0.78694 0.027220393 0.015054941 -0.8205392 0.08811545 0.2081798 0.3717469
-1.3008811 0.48536655 -0.13464391 0.3501264 0.5064729 -0.20883025 -0.6452417 0.49592078
0.37593418 -0.411554 -0.15808049 0.15633203 -0.8527065 0.4262165 0.54628855 -0.028235007
-0.49791622 0.327304 0.41671076 0.40123308 0.4366947 -0.11162165 -0.49735975 0.18187693
-0.018300274 0.13579379 0.60706717 0.48997936 0.23156218 -0.04396303 -0.07593221 -0.23346198
0.86187863 0.274322 -0.25038475 0.01723206 -0.27670076 -0.22018154 0.6337174 -0.17022856
-0.09328498 0.024510704 0.35555452 0.13682969 0.31740817 7.608303e-05 -0.037028685 0.069603816
0.06805354 -0.20423402 -0.005870203 0.07719922 0.1842157 0.13134627 0.20704319 0.073024966
0.77354753 -0.8539881 0.009800776 0.1344517 -0.14940268 0.02509215 0.08446378 0.18439142
-0.42625803 0.13174018 -0.39091212 0.39554998 0.21194793 -0.11090273 -0.29120645 -0.09359889
0.5170518 -0.73578894 -0.04893647 0.33925065 -1.0619161 -0.06910062 0.46217003 0.20345442
-0.6129465 0.38273078 0.32472235 0.33181497 0.617007 0.046984438 -0.49001127 0.6451112
-1.0491192 1.0455453 -0.26376733 0.31581384 1.0796365 -0.85251695 0.5672562 -0.49781868
1.287343 0.3670538 0.81235373 0.014520563 0.22073749 0.99622864 0.51779413 -0.18258731
-0.2637597 0.54492736 0.7021341 -0.5187677 1.570432 -0.41693404 -0.28976616 -0.3653854
0.8301379 -0.3899563 0.24058546 -0.21091582 -0.5718787 0.05535397 1.211201 -0.17662853
0.6916652 -1.1948212 0.44146007 0.45972523 -0.59791106 0.19262971 0.2193067 0.17920814
-0.41282424 0.15904607 -0.488173 0.30880785 0.11011303 -0.9137905 -0.29361573 0.005296659
0.29794258 -0.5374873 0.27177888 0.43340138 -1.0967205 -0.10689592 0.5057837 0.4343181
-1.0638331 0.31205234 0.37979025 0.10476349 0.5903361 0.06773766 -1.1680932 0.6257728
-0.6983017 0.7006044 -0.20996359 -0.20112918 0.6670771 -0.014013173 0.26363015 0.4028062
0.37261724 0.21284094 0.18274172 0.30667216 0.4130265 0.93269295 0.18356188 0.50556666
0.097913645 0.7558878 0.09317954 -0.05673979 1.0269293 0.5168139 -0.22548096 -0.025951978
0.42705783 -0.041244756 -0.03606549 -0.09673445 -0.21914174 0.016800389 0.9760739 -0.30502173
-0.56013054 0.9091201 0.48720086 0.29508072 0.8466384 -0.070219 0.46827248 -0.044279277
1.2808998 0.26886114 0.51281536 -0.16987365 -0.09877388 0.67846596 0.82017505 -0.0939855
-0.15700634 0.91519135 0.3702052 0.18830386 1.5317566 0.21360171 -0.20237803 0.21710002
0.46468905 -0.40316135 0.14800772 -0.03481724 -0.3332202 -0.0023033416 1.0714011 0.010959625
00000000: 9ea8 343f ac28 72bf c7d9 25bc a77c c13d
00000010: 6904 1abf a79f 0b3e 92d7 ed3d 8778 e03e
00000020: 10ce 5abf e138 7a3e bf5e cabe 5461 ac3e
00000030: c8f3 093f 7c8b b7be 66fc aebe 0198 c53e
00000040: e654 5d3e 23d5 06bf 00a7 143e 2310 053e
00000050: 43ee 95bf c863 9e3e e51a bd3e 5a75 953e
00000060: a2a0 e0be 5a45 843e 7ffa f43e a9df 8c3e
00000070: 0d2a 093f f079 17bd 8767 68bf da38 5f3e
00000080: 78ad 073f e674 49bf 4dfd de3c 00a9 763c
00000090: db0e 52bf e075 b43d 162d 553e 9c55 be3e
000000a0: 4683 a6bf f781 f83e 18e0 09be c443 b33e
000000b0: 35a8 013f 99d7 55be 8f2e 25bf 54e9 fd3e
000000c0: 727a c03e 35b7 d2be dadf 21be 8115 203e
000000d0: f94a 5abf 0d39 da3e 91d9 0b3f 1a4d e7bc
000000e0: e0ee febe 6494 a73e 1d5b d53e 6c6e cd3e
000000f0: 7396 df3e e499 e4bd f0a5 febe f23d 3a3e
00000100: 75ea 95bc 870d 0b3e c168 1b3f 93de fa3e
00000110: a31e 6d3e 9412 34bd 5982 9bbd a810 6fbe
00000120: 14a4 5c3f ef73 8c3e 6e32 80be 402a 8d3c
00000130: b9ab 8dbe 4577 61be 4e3b 223f 6550 2ebe
00000140: 320c bfbd acca c83c 3e0b b63e 151d 0c3e
00000150: 5383 a23e c48e 9f38 64ab 17bd 728c 8e3d
00000160: a85f 8b3d b922 51be d55a c0bb a01a 9e3d
00000170: 0aa3 3c3e a37f 063e 2103 543e 1d8e 953d
00000180: 3607 463f f79e 5abf 6f93 203c b5ad 093e
00000190: 04fd 18be 0d8e cd3c 59fb ac3d 1bd1 3c3e
000001a0: 7e3e dabe e6e6 063e a225 c8be 8785 ca3e
000001b0: e108 593e f820 e3bd 0319 95be c6b0 bfbd
000001c0: 825d 043f aa5c 3cbf 9c71 48bd 43b2 ad3e
000001d0: deec 87bf a084 8dbd 8da1 ec3e 5b56 503e
000001e0: 10ea 1cbf 4af5 c33e 0242 a63e a7e3 a93e
000001f0: 2cf4 1d3f c172 403d c2e2 fabe 0226 253f
00000200: 8a49 86bf 6ed4 853f 830c 87be 5ab2 a13e
00000210: 8731 8a3f 8d3e 5abf b437 113f 17e2 febe
00000220: a8c7 a43f 7aee bb3e 6af6 4f3f a8e7 6d3c
00000230: 0209 623e d708 7f3f 288e 043f 2bf8 3abe
00000240: 830b 87be 5c80 0b3f 0fbf 333f f6cd 04bf
00000250: ea03 c93f 6178 d5be 3b5c 94be cc13 bbbe
00000260: eb83 543f 5aa8 c7be 095c 763e 51fa 57be
00000270: a466 12bf d8ba 623d a208 9b3f 1cde 34be
00000280: f810 313f e7ef 98bf 0e07 e23e 1b61 eb3e
00000290: b310 19bf b940 453e f091 603e 5782 373e
000002a0: b35d d3be f9dc 223e d0f1 f9be 101c 9e3e
000002b0: f182 e13d 2dee 69bf cd54 96be 998f ad3b
000002c0: ee8b 983e c598 09bf 9a26 8b3e c9e6 dd3e
000002d0: 5661 8cbf 40ec dabd 0a7b 013f f15e de3e
000002e0: af2b 88bf 53c5 9f3e de73 c23e 3e8e d63d
000002f0: 4420 173f 0bba 8a3d 1484 95bf a532 203f
00000300: e6c3 32bf cf5a 333f b200 57be cff4 4dbe
00000310: 91c5 2a3f 8297 65bc 88fa 863e 9d3c ce3e
00000320: b0c7 be3e faf2 593e a520 3b3e 2204 9d3e
00000330: 3678 d33e f7c4 6e3f a5f7 3b3e d16c 013f
00000340: f386 c83d dd81 413f ead4 be3d fb67 68bd
00000350: 6b72 833f ea4d 043f 7be4 66be 3e99 d4bc
00000360: 53a7 da3e 43f0 28bd 68b9 13bd b61c c6bd
00000370: b166 60be f8a0 893c fbdf 793f cf2b 9cbe
00000380: b764 0fbf 18bc 683f 6472 f93e d214 973e
00000390: 4bbd 583f fbce 8fbd 69c1 ef3e 305e 35bd
000003a0: 86f4 a33f 2ba8 893e de47 033f 5cf3 2dbe
000003b0: f649 cabd f2af 2d3f fef6 513f 787b c0bd
000003c0: 45c6 20be fb49 6a3f 898b bd3e bad2 403e
000003d0: 9a10 c43f 68ba 5a3e 303c 4fbe 784f 5e3e
000003e0: b9eb ed3e 2a6b cebe 568f 173e 869c 0ebd
000003f0: d79b aabe a9f3 16bb ac23 893f 0090 333c

bias f4 [64]
0.18666281 0.30365348 0.35536724 0.11182151 -0.105040774 0.078365855 0.15448885 0.044423908
-0.10370378 0.2857 -0.08880305 -0.04435375 -0.3046657 0.22512498 0.14596139 -0.09970864
0.19922625 -0.26956803 -0.07298932 0.008757045 -0.039290827 0.14345771 -0.01925776 0.23819253
-0.1072933 0.051100206 -0.30149883 -0.29247048 -0.36865607 0.27668107 0.053718388 0.2767683
0.217547 0.03008868 -0.10053899 0.19877197 -0.11347804 0.39797843 0.29363385 0.1407152
0.23379956 0.1970449 -0.037686795 0.15222523 0.23821141 -0.01682628 0.4311565 -0.0743641
-0.05222932 0.14035167 -0.25049967 0.085958816 0.119213395 -0.186264 0.3503936 0.22459021
-0.1536403 -0.04759405 -0.26640397 -0.024487678 -0.07023239 -0.112997465 0.3182673 0.46769783
00000000: 8924 3f3e 7878 9b3e b2f2 b53e ad02 e53d
00000010: 9e1f d7bd 477e a03d 5332 1e3e d8f5 353d
00000020: a662 d4bd 4547 923e 60de b5bd 47ac 35bd
00000030: 25fd 9bbe 2a87 663e e776 153e 0b34 ccbd
00000040: f701 4c3e d204 8abe 6d7b 95bd b579 0f3c
00000050: 6bef 20bd 94e6 123e 73c2 9dbc bee8 733e
00000060: 97bc dbbd 734e 513d 0e5e 9abe b1be 95be
00000070: 7dc0 bcbe 24a9 8d3e d007 5c3d 93b4 8d3e
00000080: a4c4 5e3e 897c f63c 63e7 cdbd e18a 4b3e
00000090: 2d67 e8bd d4c3 cb3e 2d57 963e a517 103e
000000a0: 2769 6f3e 23c6 493e 785d 1abd eee0 1b3e
000000b0: b1ed 733e 44d7 89bc 8bc0 dc3e 354c 98bd
000000c0: 69ee 55bd 59b8 0f3e 7e41 80be 2d0b b03d
000000d0: 2726 f43d fdbb 3ebe ca66 b33e fafa 653e
000000e0: e253 1dbe fbf1 42bd 1a66 88be 629a c8bc
000000f0: 00d6 8fbd 376b e7bd eef3 a23e 1776 ef3e

weight f4 [4, 64]
0.3577884 0.5281767 -0.4586537 0.24952807 -0.8650589 0.36413717 -0.30833605 -0.6830234
-0.81109715 0.20470546 0.43043116 -0.73956984 -0.82288766 -0.7213725 -0.23145135 -0.68335545
-0.46819022 -0.7696273 -0.87835795 -0.7929618 -0.80199426 -0.07317009 0.645022 0.32379967
0.6207453 -0.53466797 -0.8383571 -0.70207715 -0.7348857 0.37666234 0.17841884 -0.40094143
-0.43649763 0.328049 -0.81566966 0.38875255 -0.5667174 -0.5607007 0.397227 0.4518177
0.45178476 0.58162016 -0.84728307 -0.65566844 -0.5316043 -0.92606133 0.11092423 0.3255299
0.71565735 -0.1740655 0.7179809 0.19173111 -0.0019525428 -0.4296516 0.1615844 -0.7100019
0.080003425 -0.8450096 0.37763453 -0.054250076 0.060522057 -0.7454752 -0.528845 -0.43752724
0.5744927 0.84373635 -0.6106903 0.20224415 -0.6953947 -0.004712265 0.17960429 -0.7070227
-0.8624652 0.49192935 -0.021634473 -0.87810063 -0.6609111 -0.6722035 0.1127759 -0.76956916
-0.6002081 -0.63116103 -0.69327956 -0.54078966 -0.76872176 -0.51528543 0.75525945 0.44461107
0.5269489 -0.5422744 -0.73718435 -0.9149367 -0.6875862 0.55408245 0.17666027 -0.343204
-0.56482255 0.41370735 -0.51857716 0.19503227 -0.71055984 -0.51278865 0.5787664 0.5344693
0.5041774 0.4271726 -0.60062414 -0.605858 -0.7090446 -0.7594831 0.2875003 0.84871775
0.6381255 0.09316878 0.165302 0.27663288 0.0481642 -0.40077838 0.88125527 -0.54064375
-0.12327269 -0.81848556 0.01196865 -0.049213957 -0.5941311 -0.9147215 -0.6263551 -0.3439656
0.35414588 0.4070629 -0.051689073 0.69843817 -0.7807955 0.530548 -0.5273075 -0.591139
-0.7490181 0.6912029 -0.20587622 -0.93016875 -0.9476417 -0.32459515 0.17936228 -0.5937136
-0.69886416 -0.90618545 -0.820375 -0.6595429 -0.83221817 0.48953828 0.14569625 0.6876592
-0.007753615 -0.7302551 -1.0460602 -0.9446093 -1.1091481 0.59761465 0.7500864 -0.7111044
-0.5187183 -0.051177032 -0.59737736 0.5737059 -0.6962823 -0.45735124 0.6357171 0.46616435
0.48141024 0.69251674 -0.6928716 -0.5671721 -0.74304783 -0.8160661 0.61500347 -0.28032124
0.40566376 0.14590618 -0.4549253 1.0092739 0.046623748 -0.70115924 0.5402236 -0.5363399
0.00048163533 -0.8016593 0.23799242 -0.12483652 0.22067069 -0.90056217 -0.6438451 -0.24014884
0.41553274 0.10496493 -0.08906591 0.21665448 -1.030016 0.7031299 -0.833323 -0.47765154
-1.1168544 0.21114679 0.5136578 -0.8620627 -0.6193459 -1.1348084 0.17737694 -0.87174565
-0.6040511 -1.1378677 -1.1434957 -1.1103113 -0.9655728 0.023532907 0.67165476 0.004621402
0.67929333 -0.6544133 -0.8759772 -0.655184 -1.0154161 0.19303411 0.326309 -0.66333073
-0.3624804 0.03440757 -1.1535132 0.5081851 -0.49699795 -0.49768856 0.12889265 0.5701703
0.5557182 0.62413603 -1.0892239 -0.6521551 -0.3952158 -0.94910187 0.008543146 -0.34686106
0.7282663 0.036043312 1.195241 -0.18502519 -0.04217204 -0.6048337 -0.5511424 -0.41171035
0.065400064 -0.7968402 0.64015126 -0.081235364 0.7276411 -1.0165571 -0.5075278 -0.45065585
00000000: 0b30 b73e 9736 073f a8d4 eabe 4984 7f3e
00000010: 8074 5dbf 3070 ba3e 39de 9dbe 9fda 2ebf
00000020: 10a4 4fbf 4f9e 513e 7961 dc3e 7354 3dbf
00000030: c4a8 52bf deab 38bf 9501 6dbe 62f0 2ebf
00000040: a1b6 efbe 4b06 45bf 11dc 60bf 8bff 4abf
00000050: 7f4f 4dbf 33da 95bd 2920 253f 12c9 a53e
00000060: 2ae9 1e3f 00e0 08bf 929e 56bf 54bb 33bf
00000070: 7821 3cbf e3d9 c03e 6eb3 363e 3248 cdbe
00000080: 9e7c dfbe 0af6 a73e bacf 50bf 930a c73e
00000090: 6414 11bf 158a 0fbf 5661 cb3e a654 e73e
000000a0: 5550 e73e 0fe5 143f 8be7 58bf e3d9 27bf
000000b0: 3817 08bf 5b12 6dbf 3e2c e33d dbab a63e
000000c0: 5235 373f 3a3e 32be 99cd 373f 2955 443e
000000d0: 77ec ffba 4bfb dbbe 6276 253e afc2 35bf
000000e0: d6d8 a33d 8d52 58bf 5059 c13e 5435 5ebd
000000f0: fae5 773d 76d7 3ebf 6362 07bf 9203 e0be
00000100: f411 133f 1bff 573f 3356 1cbf 1719 4f3e
00000110: 6305 32bf 5869 9abb 30ea 373e 71ff 34bf
00000120: 85ca 5cbf 2ade fb3e c73a b1bc 34cb 60bf
00000130: 7831 29bf 8715 2cbf 0df7 e63d 7c02 45bf
00000140: 3da7 19bf c593 21bf c57a 31bf 3171 0abf
00000150: f3ca 44bf bfe9 03bf af58 413f 10a4 e33e
00000160: 20e6 063f 7fd2 0abf 1db8 3cbf 4b39 6abf
00000170: a605 30bf 59d8 0d3f 6ee6 343e 6fb8 afbe
00000180: 3698 10bf 73d1 d33e 79c1 04bf 8ab6 473e
00000190: 40e7 35bf 1e46 03bf 092a 143f fbd2 083f
000001a0: c511 013f 5eb6 da3e 81c2 19bf 8319 1bbf
000001b0: f283 35bf 7c6d 42bf 3d33 933e 9145 593f
000001c0: 315c 233f 46cf be3d ed44 293e d3a2 8d3e
000001d0: d347 453d d332 cdbe f299 613f a167 0abf
000001e0: 6476 fcbd 4588 51bf 2818 443c 9394 49bd
000001f0: fa18 18bf 302b 6abf cf58 20bf 421c b0be
00000200: 9c52 b53e 8c6a d03e ecb7 53bd d8cc 323f
00000210: 37e2 47bf fed1 073f a0fd 06bf e354 17bf
00000220: a6bf 3fbf acf2 303f 37d1 52be 8a1f 6ebf
00000230: a598 72bf 5631 a6be bfaa 373e 9dfd 17bf
00000240: c3e8 32bf c5fb 67bf 1904 52bf ced7 28bf
00000250: 400c 55bf c3a4 fa3e 6631 153e 6f0a 303f
00000260: 0912 febb 00f2 3abf 4de5 85bf ead1 71bf
00000270: 91f8 8dbf 46fd 183f aa05 403f f00a 36bf
00000280: b9ca 04bf 029f 51bd b9ed 18bf 64de 123f
00000290: 8f3f 32bf f129 eabe 5bbe 223f 18ad ee3e
000002a0: 677b f63e c748 313f 0860 31bf 3132 11bf
000002b0: 6238 3ebf b5e9 50bf de70 1d3f 4486 8fbe
000002c0: 29b3 cf3e 6e68 153e f8eb e8be e32f 813f
000002d0: 8bf8 3e3d 2c7f 33bf 184c 0a3f 924d 09bf
000002e0: 0084 fc39 8b39 4dbf 49b4 733e 4aaa ffbd
000002f0: 7ff7 613e 3e8b 66bf 08d3 24bf 94e9 75be
00000300: b5c0 d43e daf7 d63d 3068 b6bd acda 5d3e
00000310: 90d7 83bf 5200 343f a854 55bf be8e f4be
00000320: 16f5 8ebf dd36 583e 147f 033f 24b0 5cbf
00000330: 748d 1ebf 6741 91bf 4da2 353e b92a 5fbf
00000340: 18a3 1abf a6a5 91bf 115e 92bf ae1e 8ebf
00000350: c72f 77bf 15c8 c03c 91f1 2b3f 216f 973b
00000360: 2be6 2d3f a187 27bf 0b40 60bf 23ba 27bf
00000370: 28f9 81bf bcaa 453e f911 a73e 0bd0 29bf
00000380: 0897 b9be f4ee 0c3d 52a6 93bf 6b18 023f
00000390: 8476 febe 09d1 febe 6ffc 033e aef6 113f
000003a0: 8c43 0e3f 61c7 1f3f b06b 8bbf a3f3 26bf
000003b0: ba59 cabe 57f8 72bf 8df8 0b3c c697 b1be
000003c0: a96f 3a3f 27a2 133d a8fd 983f 3e77 3dbe
000003d0: 97bc 2cbd 62d6 1abf ab17 0dbf b3cb d2be
000003e0: 78f0 853d b8fd 4bbf f4e0 233f ba5e a6bd
000003f0: b046 3a3f 8b1e 82bf 58ed 01bf 5dbc e6be

bias f4 [4]
0.06473415 -0.03816089 0.255597 -0.209771
00000000: 5793 843d 984e 1cbd 9cdd 823e 36ce 56be
