lab2/problem1/model5.pt (torch, 55631 bytes, 8 tensors)

weight f4 [32, 8]
-0.07423751 0.39875683 -0.8925718 0.2955279 -0.10467252 0.032409087 0.53207874 -0.40554228
0.017087502 0.2752108 -0.13425006 -0.25939423 -0.27820203 -0.505295 -0.08129793 -0.23426259
-0.14543183 -0.009878467 0.31411743 -0.16417722 -0.926441 -0.17384061 -0.009892315 -0.07885823
-0.35217676 0.0076104263 -0.4430666 -1.1772584 -0.22737938 -0.30139044 0.07183435 0.01893875
0.12698223 0.32590893 0.64695776 0.8348422 -0.35209215 -0.37946346 -0.24446037 0.21354426
-0.47289222 -0.08639813 -0.14479356 -0.41732913 -0.039918244 -0.640251 -0.07198421 0.1733207
-0.2902934 0.67283505 0.3032789 -0.10429511 -0.17580333 -0.61792326 0.100081205 -0.011338287
-0.08409753 -0.08130478 0.9168934 -0.4036591 0.38145164 -0.16052587 0.27742603 -0.17497386
0.1726529 0.2577953 -0.03745295 -0.33030623 0.24976264 0.3175369 0.30671635 -0.49456784
0.43276766 -0.10871897 0.023727521 0.013153804 1.1194944 0.13344456 -0.28344384 -0.09561691
0.09130255 0.40475598 -0.20589405 -0.06240822 0.13001531 -0.4313407 0.22969012 -0.2618071
-0.035273228 0.28708568 -0.122100554 0.30631587 0.11736415 0.57112867 0.5063483 0.16210853
-0.1248308 -0.017135087 -0.2681173 0.7218492 -0.5036163 -0.22594829 0.08922836 -0.16219515
0.37804213 -0.07446826 -0.19401866 -0.13000971 -0.35233933 -0.62763333 0.16419324 0.2455136
0.0778605 0.45984834 0.19599792 0.092179805 0.16640732 -0.1656208 0.031649623 0.0699971
-0.25908706 -0.079774976 0.07253174 0.77393043 -0.31831953 -0.12681459 -0.3322958 -0.06347618
-0.23022367 0.29273045 -0.36577097 0.5892643 0.36871526 0.46977162 -0.3349559 -0.060769908
0.35315618 0.6061946 -0.25822255 -0.4440584 0.682025 0.037345942 -0.212311 0.008345948
0.117712 0.20024164 -0.32444358 -0.6707782 -0.43544945 0.29579505 0.20506401 0.20212157
0.05826065 0.94935846 0.5212762 -0.2744509 -0.18483019 -0.112653896 -0.44775507 -0.23489039
-0.1798039 -0.03858201 -0.037364136 -0.05299409 0.58555144 0.5591475 0.4957142 -0.024339594
0.023650369 0.020481836 -0.2658727 1.0510649e-05 0.40852758 -0.39414603 -0.30931544 -0.08555682
0.067156956 0.20011277 -0.77990633 0.5873622 -0.73931974 0.22648308 0.19788356 0.12823136
-0.34828326 -0.116163164 -0.20107353 -0.19044858 0.45861882 0.3130562 0.14857176 0.21094108
0.3126228 0.39522484 0.0006484329 -0.51447785 -0.54529655 0.2740977 -0.14691907 0.18930082
-0.4466089 0.7215249 -0.81877697 0.1155383 0.30373457 -0.19050473 -0.1614791 0.0028365836
0.15920644 0.39457223 0.020986795 0.71363676 0.12383476 -0.44163573 0.26402932 0.56509846
0.21729463 0.15873198 -0.26436898 0.07546383 0.63294554 -0.41291717 0.25433806 0.099303804
-0.039901465 0.15202492 -0.31382063 -0.4283154 -0.17898537 -0.2769148 -0.13671046 -0.09213265
-0.028331324 0.25891063 0.15181199 0.115762234 -0.84205586 0.3721751 -0.025757387 0.17200641
0.2459621 -0.06342243 -0.26621956 0.099175334 -0.7543138 0.25306067 0.28046367 -0.10135526
1.1398678 0.15667376 0.30952382 -0.25894564 -0.41955987 -0.06340071 -0.0021425148 0.05673199
00000000: d609 98bd db29 cc3e 967f 64bf 6f4f 973e
00000010: 8c5e d6bd 64bf 043d 5036 083f 3da3 cfbe
00000020: 17fb 8b3c 6ee8 8c3e d978 09be 52cf 84be
00000030: 7f70 8ebe 035b 01bf 877f a6bd 88e2 6fbe
00000040: 15ec 14be 4bd9 21bc 00d4 a03e 131e 28be
00000050: 3d2b 6dbf 4603 32be 6013 22bc 6c80 a1bd
00000060: 8350 b4be e260 f93b a0d9 e2be 67b0 96bf
00000070: 24d6 68be d94f 9abe e31d 933d 7025 9b3c
00000080: a107 023e 89dd a63e 069f 253f 38b8 553f
00000090: 6c45 b4be 0949 c2be d253 7abe 59ab 5a3e
000000a0: ee1e f2be 81f1 b0bd c344 14be 2aac d5be
000000b0: 5081 23bd 7de7 23bf 756c 93bd fb7a 313e
000000c0: 56a1 94be eb3e 2c3f 5f47 9b3e ad98 d5bd
000000d0: ca05 34be 3830 1ebf 60f7 cc3d 39c4 39bc
000000e0: 533b acbd 1f83 a6bd 87b9 6a3f 68ac cebe
000000f0: a14d c33e e560 24be c90a 8e3e 592c 33be
00000100: eccb 303e bffd 833e 4468 19bd e61d a9be
00000110: c7c1 7f3e 3294 a23e ed09 9d3e ff37 fdbe
00000120: b993 dd3e 0da8 debd 3860 c23c 0d83 573c
00000130: 984b 8f3f b1a5 083e 8d1f 91be ccd2 c3bd
00000140: d5fc ba3d 2d3c cf3e e4d5 52be c39f 7fbd
00000150: bc22 053e b0d8 dcbe e333 6b3e 950b 86be
00000160: a97a 10bd e5fc 923e db0f fabd 6fd5 9c3e
00000170: 9e5c f03d 7d35 123f 0ba0 013f c7ff 253e
00000180: 4aa7 ffbd e25e 8cbc ac46 89be 1ccb 383f
00000190: ffec 00bf fd5e 67be 5cbd b63d 7c16 26be
000001a0: bd8e c13e d182 98bd d4ac 46be 4421 05be
000001b0: d265 b4be 94ac 20bf 4622 283e eb67 7b3e
000001c0: 5375 9f3d 3e71 eb3e aeb3 483e c4c8 bc3d
000001d0: ae66 2a3e 8098 29be 09a3 013d a45a 8f3d
000001e0: 0fa7 84be 1061 a3bd 858b 943d 4e20 463f
000001f0: c7fa a2be afdb 01be ad22 aabe cdff 81bd
00000200: c1bf 6bbe c4e0 953e 5546 bbbe 06da 163f
00000210: 3fc8 bc3e e885 f03e 577f abbe dee9 78bd
00000220: e3d0 b43e 922f 1b3f bf35 84be 9f5b e3be
00000230: 3199 2e3f 0ff8 183d 0e68 59be 71bd 083c
00000240: fd12 f13d 250c 4d3e 781d a6be 1fb8 2bbf
00000250: 3bf3 debe 7372 973e 4dfc 513e f5f8 4e3e
00000260: b8a2 6e3d 2809 733f 5b72 053f d484 8cbe
00000270: 2044 3dbe 16b7 e6bd 2740 e5be 1b87 70be
00000280: 831e 38be 2b08 1ebd 230b 19bd 5510 59bd
00000290: b3e6 153f 4a24 0f3f 40ce fd3e d463 c7bc
000002a0: 6bbe c13c 86c9 a73c 7720 88be e556 3037
000002b0: 872a d13e 82cd c9be 985e 9ebe 6a38 afbd
000002c0: 9689 893d 5dea 4c3e f1a7 47bf 5e5d 163f
000002d0: 0f44 3dbf 2eeb 673e fda1 4a3e 154f 033e
000002e0: 2f52 b2be f4e6 edbd 38e6 4dbe f404 43be
000002f0: 16d0 ea3e e748 a03e 3223 183e f000 583e
00000300: 1810 a03e e95a ca3e 98fb 293a d2b4 03bf
00000310: 8e98 0bbf 8956 8c3e f471 16be 13d8 413e
00000320: eca9 e4be dbb5 383f 5e9b 51bf 589f ec3d
00000330: 1983 9b3e ac13 43be c75a 25be fae5 393b
00000340: 0307 233e 5f05 ca3e 80ec ab3c e6b0 363f
00000350: 149d fd3d 141e e2be da2e 873e 4baa 103f
00000360: 7c82 5e3e a38a 223e 5f5b 87be c88c 9a3d
00000370: b808 223f e169 d3be 9938 823e cb5f cb3d
00000380: b86f 23bd 6cac 1b3e 19ad a0be 284c dbbe
00000390: f147 37be c7c7 8dbe d4fd 0bbe 0bb0 bcbd
000003a0: 1817 e8bc ef8f 843e 9a74 1b3e c014 ed3d
000003b0: f990 57bf bc8d be3e 2801 d3bc 7322 303e
000003c0: 7ddd 7b3e 9ee3 81bd ee4d 88be 701c cb3d
000003d0: b61a 41bf 2b91 813e ef98 8f3e 5993 cfbd
000003e0: 30e7 913f 166f 203e e879 9e3e 8694 84be
000003f0: 8dd0 d6be 3bd8 81bd 6f69 0cbb ce5f 683d

bias f4 [32]
0.3308853 0.4853675 0.4722528 0.36109963 0.4123172 -0.042300925 0.53304857 0.44604796
0.023158295 0.64119416 0.22455105 0.060698323 -0.43464503 0.33027995 0.41792873 -0.19235796
0.33939183 -0.3197173 0.34471032 0.025173752 -0.062441133 0.037423186 0.30289164 0.3454693
0.333267 0.39505753 0.39333245 0.43950754 0.12490063 0.3717873 0.54557145 -0.06274115
00000000: cc69 a93e 1782 f83e 1ecb f13e 0de2 b83e
00000010: 3d1b d33e bc43 2dbd df75 083f 6660 e43e
00000020: 77b6 bd3c 4d25 243f b6f0 653e ce9e 783d
00000030: cb89 debe 741a a93e c1fa d53e 7cf9 44be
00000040: c4c4 ad3e fcb1 a3be df7d b03e 2f39 ce3c
00000050: 46c2 7fbd 0e49 193d 9d14 9b3e 5ae1 b03e
00000060: f9a1 aa3e fb44 ca3e df62 c93e 2207 e13e
00000070: e7cb ff3d e85a be3e 92aa 0b3f 6f7e 80bd

weight f4 [128, 32]
0.17516048 0.32850015 0.10525704 0.047670674 -0.070793025 0.28370336 0.17949508 0.13004678
0.29226184 -0.03258315 -0.051264655 0.18025658 0.26371297 0.24144106 0.13217765 1.277541
0.17729641 0.030927494 0.14556722 0.2524405 -0.20455025 0.35164914 0.3754341 -0.24208549
0.13807485 0.38644746 0.24075378 0.041776232 0.42370522 0.37507558 0.30737904 -0.14711526
0.19008268 0.26277348 -0.0436531 0.025208147 -0.2012056 -0.1593528 0.35472238 -0.00027401527
-0.037123833 0.052795224 0.31490615 0.11701017 -0.20214121 0.004766439 0.020896705 0.23695667
0.036606457 0.45025083 0.34128365 0.07257308 -0.2704113 0.055735715 0.033411533 -0.37770918
0.3418276 -0.015087426 0.15559343 0.16520913 0.016001124 0.23146023 0.35955787 -0.13435914
0.12632251 0.22378567 0.09840952 0.20964234 0.20272641 -0.021967517 0.23063117 0.12327241
-0.23314951 -0.21520129 -0.10547202 -0.46081284 -0.23023959 -0.22815984 0.03417793 0.558769
-0.058029726 0.059109755 0.014848439 0.14945196 -0.74303764 0.057848595 -0.071669 -0.47822154
0.13930178 0.12923147 -0.16716617 0.033112463 -0.0020768398 0.050360907 0.2015584 -0.31386977
0.18866639 0.2402346 -0.06324754 -0.045368355 0.078928545 0.0706879 0.23583372 0.13326164
0.29754177 -0.00844344 0.25940144 -0.07579738 -0.2449315 0.0060774474 0.10126148 0.42371333
-0.032322392 0.40837494 0.06084752 0.033654388 -0.29164433 -0.12492515 0.25348252 -0.36101654
0.34112573 0.0147389285 -0.07000552 0.17426796 -0.25940552 0.49237624 0.3466374 -0.197465
-0.07906791 0.117050014 0.082286306 0.26921967 0.1858098 0.26540598 0.13372503 0.10997727
-0.0194375 -0.09632755 0.1452744 0.34066597 0.34691256 0.40872088 -0.01096396 -0.22036755
0.3502385 -0.19232497 0.027354164 0.08111192 0.47150007 0.24456473 -0.21644796 0.17970015
-0.16203195 0.23143299 0.32237676 0.08729003 0.26931328 -0.27162343 -0.19033332 0.56525964
0.16958793 0.13975744 -0.043103408 0.11266922 -0.007633362 -0.11491596 0.28107324 0.3436973
-0.0996348 -0.100539275 0.20806748 -0.60789937 -0.16291007 -0.0832201 0.33494204 0.35284966
-0.34559137 0.14680605 0.1329733 0.04142739 -0.3719736 0.17447574 -0.09957967 -0.21623577
0.03253362 0.02285773 -0.14202572 0.07967972 -0.033088885 0.13915223 -0.1380372 -0.37408206
-0.47315645 -0.06819821 0.100907505 0.006448003 0.23070776 0.22971609 -0.09373635 0.10063451
-0.47592443 0.26904762 -0.3475814 -0.10937603 0.45161995 -0.022730377 0.09199845 0.30062562
0.17249851 -0.19083743 -0.30538887 -0.5857371 0.10552115 0.24334283 -0.31247106 -0.026334433
0.028032979 -0.34063524 0.29699415 0.22461776 0.18927918 -0.15009925 0.06395218 -0.092963405
0.042143013 0.19689697 -0.08147085 0.10604017 0.06500044 0.12769772 0.26010454 0.121217445
0.17355698 -0.10007964 0.34987262 -0.13208619 -0.18530388 -0.30094618 0.10708404 0.26140967
-0.25944287 0.24592073 -0.077360205 0.47189873 -0.26263398 -0.0686542 0.013085059 -0.19475876
0.11032452 0.057110533 -0.25799567 0.19789687 -0.16215147 0.08705709 -0.28068224 0.047275
00000000: 455d 333e 2c31 a83e 0191 d73d 5342 433d
00000010: effb 90bd 9141 913e 8fcd 373e fc2a 053e
00000020: 58a3 953e e975 05bd e3fa 51bd 2e95 383e
00000030: 6305 873e 533c 773e 9459 073e 7786 a33f
00000040: 318d 353e a85b fd3c 930f 153e e23f 813e
00000050: 9f75 51be 5b0b b43e e638 c03e 42e5 77be
00000060: 7e63 0d3e 71dc c53e 2988 763e 8e1d 2b3d
00000070: e4ef d83e e809 c03e c960 9d3e 62a5 16be
00000080: 09a5 423e 3f8a 863e 98cd 32bd 5181 ce3c
00000090: d708 4ebe 612d 23be 2c9e b53e b5a9 8fb9
000000a0: 290f 18bd ce3f 583d 613b a13e 07a3 ef3d
000000b0: 1bfe 4ebe ca2f 9c3b 912f ab3c c5a4 723e
000000c0: a7f0 153d 4787 e63e bbbc ae3e 32a1 943d
000000d0: 5a73 8abe 224b 643d 88da 083d 1963 c1be
000000e0: 0704 af3e 4031 77bc e253 1f3e 952c 293e
000000f0: ca14 833c e903 6d3e f817 b83e 7195 09be
00000100: b05a 013e 1228 653e ee8a c93d 7bac 563e
00000110: 8397 4f3e 39f5 b3bc 942a 6c3e 3f76 fc3d
00000120: bfbe 6ebe ba5d 5cbe b701 d8bd a9ef ebbe
00000130: edc3 6bbe bca2 69be 28fe 0b3d 7c0b 0f3f
00000140: 94b0 6dbd 121d 723d de46 733c ef09 193e
00000150: b737 3ebf a6f2 6c3d 32c7 92bd 74d9 f4be
00000160: 20a5 0e3e 4155 043e 9c2d 2bbe efa0 073d
00000170: 971b 08bb 3d47 4e3d 5365 4e3e 8ab3 a0be
00000180: c331 413e 0f00 763e ed87 81bd 2bd4 39bd
00000190: 4aa5 a13d d1c4 903d 657e 713e bd75 083e
000001a0: 6557 983e 5b56 0abc 44d0 843e a83b 9bbd
000001b0: 53cf 7abe 5325 c73b 2e62 cf3d f4f0 d83e
000001c0: 7c64 04bd 8516 d13e 403b 793d 2fd9 093d
000001d0: 6852 95be c2d8 ffbd 76c8 813e 29d7 b8be
000001e0: 08a8 ae3e 8c7b 713c 0e5f 8fbd 4d73 323e
000001f0: cdd0 84be bd18 fc3e 757a b13e 4434 4abe
00000200: 5bee a1bd ebb7 ef3d b985 a83d 29d7 893e
00000210: ed44 3e3e 4be3 873e 37ef 083e c33b e13d
00000220: 643b 9fbc 6147 c5bd d0c2 143e c56b ae3e
00000230: 869e b13e dd43 d13e 2ea2 33bc 08a8 61be
00000240: 7652 b33e d6f0 44be d715 e03c 021e a63d
00000250: 7568 f13e 2d6f 7a3e 89a4 5dbe 5103 383e
00000260: b4eb 25be c5fc 6c3e 910e a53e 1ec5 b23d
00000270: 6ee3 893e 3a12 8bbe bde6 42be dbb4 103f
00000280: 75a8 2d3e 931c 0f3e 338d 30bd 1fbf e63d
00000290: 4821 fabb 0f59 ebbd d5e8 8f3e 18f9 af3e
000002a0: 540d ccbd 89e7 cdbd a40f 553e 4b9f 1bbf
000002b0: e6d1 26be 4d6f aabd 867d ab3e b6a8 b43e
000002c0: 5af1 b0be 5354 163e 272a 083e c4af 293d
000002d0: 5373 bebe c5a9 323e 6df0 cbbd e96c 5dbe
000002e0: f941 053d 2240 bb3c 316f 11be 1f2f a33d
000002f0: 3688 07bd ec7d 0e3e a059 0dbe af87 bfbe
00000300: 9041 f2be 81ab 8bbd 98a8 ce3d c549 d33b
00000310: a83e 6c3e b23a 6b3e d8f8 bfbd 7719 ce3d
00000320: 5eac f3be 9cc0 893e 30f6 b1be 8a00 e0bd
00000330: bb3a e73e 0e35 babc af69 bc3d 9aeb 993e
00000340: 73a3 303e e36a 43be ee5b 9cbe def2 15bf
00000350: 791b d83d dd2e 793e 35fc 9fbe 4fbb d7bc
00000360: 6ba5 e53c be67 aebe 9e0f 983e 3302 663e
00000370: 67d2 413e 9eb3 19be 5cf9 823d 9963 bebd
00000380: 279e 2c3d 5c9f 493e 30da a6bd 972b d93d
00000390: f31e 853d 31c3 023e 6c2c 853e da40 f83d
000003a0: ecb8 313e 8ef6 ccbd 8122 b33e 9a41 07be
000003b0: 4dc0 3dbe 9e15 9abe e14e db3d 7dd7 853e
000003c0: b2d5 84be a5d2 7b3e 076f 9ebd b69c f13e
000003d0: f677 86be 939a 8cbd b762 563c d76e 47be
000003e0: d2f1 e13d bcec 693d 0218 84be 7aa5 4a3e
000003f0: 090b 26be fd4a b23d 95b5 8fbe 6ea3 413d

bias f4 [128]
0.012333566 0.121600516 0.0046933442 0.25714624 0.03497463 0.2706062 0.21387647 -0.19354342
0.26698598 0.06817979 0.041227214 0.18074937 -0.14581163 0.008705359 0.0008182953 0.38041303
0.24592125 -0.013666863 0.027236102 0.13496 0.14875428 0.44252834 -0.12207384 -0.07681876
-0.029039122 -0.18463878 -0.06842164 0.21647327 0.22704843 0.18725699 -0.17018254 0.3288839
0.08687214 0.26379624 -0.03999725 -0.083146855 0.16990705 0.1151513 0.25800717 0.17198838
0.10782413 0.27532244 0.18353206 0.19604257 0.16336833 -0.13819046 0.1348123 0.10735106
0.3151888 -0.12503535 -0.14073825 0.091696344 -0.036138646 0.18316227 -0.038169842 0.039999597
0.11366134 -0.041793954 0.27862462 -0.1242394 0.26232302 0.33198532 -0.010937057 0.038191184
0.09960496 0.2212354 0.0946464 0.07164095 -0.07857964 0.096532084 0.07160001 0.34500933
0.22632606 0.1008327 -0.06555984 -0.09273631 0.0057694577 -0.03520019 -0.04206268 0.04395782
0.10445754 0.14118427 0.2902175 -0.087583445 0.1674524 0.10655482 -0.043691143 -0.14998259
0.112849355 0.10389543 -0.14993607 0.12588547 0.005703302 -0.1109863 0.32984182 -0.096115
0.27055565 -0.17351857 -0.060359094 -0.07291183 0.0845373 0.05471537 -0.088966355 0.16104887
-0.09393888 -0.11297184 0.22996558 -0.07746599 -0.03979269 0.34262213 0.25368112 0.21664485
0.019705512 0.083554395 -0.024487475 0.18531959 0.33215165 0.13290352 0.13367876 0.2115993
0.043591503 0.10772475 -0.09746697 -0.06792554 0.2118982 0.2841916 0.3036338 0.17313269
00000000: ba12 4a3c b109 f93d a0ca 993b aca8 833e
00000010: 8f41 0f3d e58c 8a3e 6f02 5b3e 3f30 46be
00000020: 63b2 883e d9a1 8b3d dedd 283d 5d16 393e
00000030: a54f 15be eca0 0e3c de82 563a 7fc5 c23e
00000040: c8d2 7b3e faea 5fbc 3f1e df3c f432 0a3e
00000050: 0b53 183e 1393 e23e d901 fabd 2753 9dbd
00000060: 74e3 edbc f311 3dbe a520 8cbd 2bab 5d3e
00000070: 627f 683e 4cc0 3f3e 5544 2ebe 7863 a83e
00000080: 05ea b13d 4d10 873e 28d4 23bd e648 aabd
00000090: 1dfc 2d3e 72d4 eb3d 8419 843e b91d 303e
000000a0: e6d2 dc3d 10f7 8c3e d4ef 3b3e 62bf 483e
000000b0: 074a 273e cd81 0dbe 3c0c 0a3e dfda db3d
000000c0: 6d60 a13e 4409 00be b01d 10be 4bcb bb3d
000000d0: 1e06 14bd e48e 3b3e fb57 1cbd 9ed6 233d
000000e0: 47c7 e83d 2330 2bbd e3a7 8e3e 3a71 febd
000000f0: 344f 863e fbf9 a93e 5831 33bc 5c6e 1c3d
00000100: affd cb3d 888b 623e f9d5 c13d 7eb8 923d
00000110: 5dee a0bd 9db2 c53d 07a3 923d 10a5 b03e
00000120: 05c2 673e 6081 ce3d 3d44 86bd 89ec bdbd
00000130: b80d bd3b 132e 10bd eb49 2cbd 1d0d 343d
00000140: d6ed d53d 9c92 103e 6397 943e f35e b3bd
00000150: a478 2b3e 6a39 da3d 7cf5 32bd 0995 19be
00000160: 901d e73d 21c7 d43d d788 19be 1fe8 003e
00000170: c4e2 ba3b c94c e3bd 07e1 a83e f1d7 c4bd
00000180: 4586 8a3e daae 31be 193b 77bd cc52 95bd
00000190: e421 ad3d 391d 603d fe33 b6bd ffe9 243e
000001a0: 0763 c0bd c85d e7bd 197c 6b3e 7da6 9ebd
000001b0: a9fd 22bd 2b6c af3e 7ee2 813e 26d8 5d3e
000001c0: 746d a13c 911e ab3d f599 c8bc 6bc4 3d3e
000001d0: c80f aa3e dc17 083e 16e3 083e 7dad 583e
000001e0: 018d 323d cb9e dc3d c39c c7bd 8c1c 8bbd
000001f0: d7fb 583e 9081 913e e475 9b3e b249 313e

weight f4 [64, 128]
0.036312804 -0.04557098 -0.0061133946 -0.03149027 0.45703495 0.04125894 -0.41684029 -0.37336117
-0.11446404 0.24446379 -0.33852142 0.009974906 0.018744707 -0.16070798 0.07863876 0.14825574
-0.17084081 0.33245465 -0.017757436 -0.3901376 -0.027474616 -0.02370604 -0.036151238 0.19510865
0.130616 -0.087223515 0.47792923 0.171048 0.113972984 0.09744654 -0.024029298 -0.091197066
-0.49243736 -0.2162155 -0.030701585 -0.7688392 -0.0021983688 0.08388215 -0.01039379 0.0028243966
-0.08410254 -0.07771911 0.03928346 -0.014958579 0.43228865 -0.6442842 0.085883096 -0.033429127
-0.05868005 -0.016112749 -0.40911022 0.2834726 0.12623768 -0.07921658 -0.84918684 -1.0986983
0.0655554 0.26664442 -0.35197178 -0.15845567 -0.4747679 -0.5143664 0.49662957 0.44945106
-0.14421748 0.1362061 -0.63887703 0.33284554 -0.07862084 -0.058670867 -0.15796895 -0.28572196
-0.057901945 -0.30203012 0.382978 -0.24658632 0.1822379 0.11653638 -0.55982184 0.089126386
0.11586801 -0.34621373 -0.007938314 0.03907039 -0.7938613 0.49329257 -0.83246154 -0.21172887
-0.48573795 -0.89891535 0.07606964 -0.14909579 0.10495638 0.36498424 -0.17078392 0.45056564
-0.43049106 -1.3072853 0.3603869 -0.14083663 0.0013998906 0.019500937 -0.23852566 -0.2447014
-0.008749807 -0.63392264 0.38878772 0.45461786 0.46261784 -0.007630143 -0.5176197 -0.115445584
-0.71088904 -0.14495273 -0.43596214 0.090948895 0.018230155 -0.58577967 -0.4097248 0.25107703
-0.05145231 0.33413616 -0.03821145 -0.11688076 -0.01188097 0.057484567 0.009314778 0.112686045
-0.07602512 -0.041780807 -0.05679145 -0.107820325 -0.055477213 0.030258182 -0.08408422 0.0010378856
0.05496168 -0.022614032 -0.057607345 -0.0843491 -0.08635711 0.014960694 -0.052203402 -0.04323308
0.083325565 0.03478022 0.06350566 -0.054089457 -0.055273473 -0.03872702 -0.046661776 -0.083996914
-0.063839495 0.014333887 -0.051470045 0.018266989 0.0473334 -0.031381465 0.051657937 -0.08505517
-0.05094884 -0.006179939 -0.07263068 -0.012506104 0.012775797 0.03483104 -0.054054916 0.009279429
-0.08678143 0.05858121 -0.08921178 0.055350684 -0.04997099 -0.07637695 0.07392783 0.06323131
0.018114863 -0.07558825 0.077062994 0.0047300924 -0.07229867 -0.055599507 -0.021077361 0.06892835
-0.09137119 0.062164847 -0.07973063 0.06415833 -0.06011644 -0.040422622 0.06979147 -0.054966193
-0.0058629476 0.02064306 0.05851258 -0.005913438 -0.054417595 -0.09311009 -0.033889085 -0.023536516
0.0039411495 0.0011156455 -0.08374898 -0.035732128 -0.024780333 0.07053093 0.033019036 -0.0647847
-0.03207808 -0.052294888 0.06918678 0.014708839 -0.07666907 0.06512986 0.03797144 0.010605981
0.015657308 -0.0032344474 0.075150535 0.006957121 0.023478435 0.08282904 0.019967683 0.025829043
0.029026426 -0.09073596 -0.041573945 0.037270535 0.038002573 0.06648847 0.043327037 0.06672427
0.0070598796 0.06765465 -0.06143083 -0.07597307 -0.08549187 0.07543885 0.037338726 -0.022838341
0.05803153 0.07181449 -0.034255598 -0.012481206 0.07127923 0.06746519 0.072877675 0.03487739
0.06523049 0.022236468 -0.033898354 -0.056393135 -0.017324302 0.024785457 -0.029793108 0.0061092423
00000000: bcbc 143d a3a8 3abd df52 c8bb f1fb 00bd
00000010: 7c00 ea3e 22ff 283d 176c d5be 3229 bfbe
00000020: 1f6c eabd b754 7a3e ae52 adbe ca6d 233c
00000030: 808e 993c a290 24be 5c0d a13d 5ad0 173e
00000040: e5f0 2ebe 7f37 aa3e 0b78 91bc 1ec0 c7be
00000050: 7212 e1bc 2b33 c2bc 5213 14bd 90ca 473e
00000060: 33c0 053e 3ea2 b2bd 24b3 f43e 3527 2f3e
00000070: ab6a e93d 0d92 c73d 17d9 c4bc 87c5 babd
00000080: c020 fcbe 9967 5dbe e481 fbbc a5d2 44bf
00000090: 8212 10bb 68ca ab3d b74a 2abc 8319 393b
000000a0: f43d acbd 322b 9fbd b1e7 203d d414 75bc
000000b0: f054 dd3e cfef 24bf 7ae3 af3d fbec 08bd
000000c0: 7e5a 70bd e2fe 83bc e576 d1be 5223 913e
000000d0: 7344 013e 4d3c a2bd 4f64 59bf 25a2 8cbf
000000e0: e941 863d 9e85 883e a535 b4be 3442 22be
000000f0: c714 f3be 84ad 03bf 3b46 fe3e 731e e63e
00000100: bfad 13be 9d79 0b3e 728d 23bf bb6a aa3e
00000110: f703 a1bd dd50 70bd 9dc2 21be 264a 92be
00000120: 972a 6dbd b1a3 9abe b115 c43e 2081 7cbe
00000130: 929c 3a3e a0aa ee3d 7c50 0fbf e587 b63d
00000140: 354c ed3d ed42 b1be b40f 02bc 4608 203d
00000150: 7f3a 4bbf d890 fc3e 331c 55bf 74cf 58be
00000160: a5b2 f8be 511f 66bf 66ca 9b3d 91ac 18be
00000170: 5ff3 d63d 37df ba3e fbe1 2ebe 8ab0 e63e
00000180: 5369 dcbe 2055 a7bf a284 b83e 7a37 10be
00000190: 897c b73a 6ec0 9f3c 1240 74be 0193 7abe
000001a0: 5a5b 0fbc c148 22bf 2f0f c73e acc3 e83e
000001b0: 3fdc ec3e 4706 fabb ba82 04bf bc6e ecbd
000001c0: d3fc 35bf 7d6e 14be 6e36 dfbe 6a43 ba3d
000001d0: 6857 953c a8f5 15bf 73c7 d1be 2b8d 803e
000001e0: a8bf 52bd e513 ab3e 9c83 1cbd 2e5f efbd
000001f0: 66a8 42bc f074 6b3d 039d 183c f1c7 e63d
00000200: 0fb3 9bbd 5a22 2bbd 279e 68bd e7d0 dcbd
00000210: 133c 63bd 02e0 f73c 5934 acbd a909 883a
00000220: 801f 613d 1041 b9bc aef5 6bbd 39bf acbd
00000230: ffdb b0bd b31d 753c 3cd3 55bd 2c15 31bd
00000240: 98a6 aa3d b475 0e3d 410f 823d e88c 5dbd
00000250: 7066 62bd 39a0 1ebd 6b20 3fbd 9306 acbd
00000260: 48be 82bd aed8 6a3c 41d2 52bd a7a4 953c
00000270: abe0 413d da89 00bd 4697 533d 6831 aebd
00000280: bbaf 50bd 1681 cabb 65bf 94bd 67e6 4cbc
00000290: 9451 513c feaa 0e3d b068 5dbd bf08 183c
000002a0: 76ba b1bd daf2 6f3d aab4 b6bd 66b7 623d
000002b0: 61ae 4cbd 856b 9cbd 7967 973d 6b7f 813d
000002c0: 9f65 943c 03ce 9abd 34d3 9d3d e4fe 9a3b
000002d0: 5311 94bd 4fbc 63bd 6eaa acbc 4f2a 8d3d
000002e0: d220 bbbd 91a0 7e3d d049 a3bd 7165 833d
000002f0: a83c 76bd 3192 25bd d5ee 8e3d 3b24 61bd
00000300: f81d c0bb a21b a93c e3aa 6f3d 83c5 c1bb
00000310: fce4 5ebd 81b0 bebd 48cf 0abd a7cf c0bc
00000320: c224 813b da3a 923a 9684 abbd da5b 12bd
00000330: 2000 cbbc 8572 903d f83e 073d d7ad 84bd
00000340: 4e64 03bd 2a33 56bd ccb1 8d3d 58fd 703c
00000350: ac04 9dbd ce62 853d f187 1b3d b5c4 2d3c
00000360: c143 803c 06f9 53bb 86e8 993d 90f8 e33b
00000370: d955 c03c 46a2 a93d 4493 a33c 6e97 d33c
00000380: d4c8 ed3c c6d3 b9bd 7149 2abd fda8 183d
00000390: 96a8 1b3d 1b2b 883d b177 313d bca6 883d
000003a0: 9056 e73b 858e 8a3d e59e 7bbd c597 9bbd
000003b0: 5d16 afbd af7f 9a3d 7ef0 183d 7917 bbbc
000003c0: 78b2 6d3d 7a13 933d 994f 0cbd f97d 4cbc
000003d0: d8fa 913d 312b 8a3d e440 953d 98db 0e3d
000003e0: 9097 853d 4129 b63c 00d9 0abd 7dfc 66bd
000003f0: b2eb 8dbc df0a cb3c ad10 f4bc 0a30 c83b

bias f4 [64]
0.069321156 0.00092827657 0.19132498 0.16532342 0.17736201 0.2416119 0.017743858 0.004806246
0.31821293 -0.04509724 0.013052366 0.23363908 0.053222142 0.033548713 0.16468143 0.19158027
0.08468595 0.16867225 0.042850137 0.11702036 0.023540724 0.044397447 0.08969161 0.029721849
0.043807324 0.0415731 0.07803247 0.0032227985 -0.065001935 0.14486893 0.029707748 0.23651657
-0.0318601 0.16972971 -0.013415555 0.12084161 0.0070483955 0.06263684 -0.0012965994 0.012733582
0.06685084 0.05852148 0.2153142 -0.0017417313 0.12059634 0.018482918 -0.06646172 0.034834795
0.0065320153 -0.03850184 0.06489573 0.14506994 0.026362978 0.11817446 -0.021662664 0.050983682
-0.0690312 0.12015793 0.04833535 0.2102103 0.029486982 0.10963707 0.15427944 0.02575255
00000000: 40f8 8d3d 9657 733a b2ea 433e 8b4a 293e
00000010: 639e 353e 1c69 773e 915b 913c b77d 9d3b
00000020: ceec a23e e2b7 38bd 97d9 553c 153f 6f3e
00000030: 76ff 593d 606a 093d 40a2 283e 9e2d 443e
00000040: d46f ad3d 6bb8 2c3e a083 2f3d 5fa8 ef3d
00000050: 7ad8 c03c 19da 353d 3cb0 b73d 3c7b f33c
00000060: 4f6f 333d 8e48 2a3d 7dcf 9f3d 9635 533b
00000070: bc1f 85bd 8558 143e aa5d f33c 6631 723e
00000080: bc7f 02bd a0cd 2d3e eacc 5bbc ce7b f73d
00000090: 3af6 e63b be47 803d a8f2 a9ba 84a0 503c
000000a0: 18e9 883d 38b4 6f3d 537b 5c3e ce4a e4ba
000000b0: 37fb f63d 7d69 973c 151d 88bd eeae 0e3d
000000c0: 840a d63b 1bb4 1dbd 0de8 843d 378d 143e
000000d0: 2cf7 d73c 7405 f23d e675 b1bc 44d4 503d
000000e0: 3b60 8dbd 5c15 f63d 4afb 453d 5e41 573e
000000f0: af8e f13c 6689 e03d 6efb 1d3e 03f7 d23c

weight f4 [4, 64]
-0.38478604 0.11032465 0.14353508 0.27814013 0.42733324 0.18988161 0.42577997 0.33848575
0.67534953 0.07052181 -0.3047444 0.3417264 -0.21636076 -0.27544942 -0.28219298 0.19520968
0.12169551 0.3616228 0.3147265 -0.5053547 -0.31729317 -0.26644883 0.27111882 -0.36790892
-0.07683416 -0.32521024 0.27040955 0.41003227 -0.017590726 0.31333202 0.63639635 0.08848195
-0.3270948 -0.40454134 0.4493749 -0.050598685 -0.27262768 -0.32813066 -0.4848317 -0.53317034
-0.10003553 -0.31206855 0.14689597 -0.4438787 0.19565949 -0.31995448 0.39566395 -0.2907653
-0.3325969 0.044979602 -0.34832278 0.2540169 0.11598371 -0.14246945 -0.09977387 -0.4248743
0.25646976 0.31783974 -0.3552207 0.36665013 -0.36433244 0.3423079 0.30317017 -0.29500958
-0.34801045 -0.11403588 0.22479928 0.40592203 0.401572 0.39383888 0.10816733 0.23475587
0.5969143 -0.023157565 -0.26113242 0.7664499 -0.33814958 -0.296067 -0.40777525 0.31349415
0.18341167 0.36390436 0.61324084 -0.4725854 -0.36706898 -0.412979 0.28081858 -0.42969093
-0.18968938 -0.4340391 0.09472702 0.45376748 0.09624871 0.10972297 0.81234694 0.2176801
-0.22182249 -0.44227287 0.84236926 0.41264158 -0.32671088 -0.2590555 -0.5739396 -0.39397368
0.09517475 -0.25954095 0.34528974 -0.33694002 0.09130909 -0.2544934 0.24841566 -0.26791173
-0.19969136 -0.027370185 -0.41511196 0.2351726 0.096667305 -0.25254694 -0.04139518 -0.52993965
0.37196094 0.0949498 -0.24553066 0.26485613 -0.3823644 0.044663414 0.42537916 -0.32548383
-0.4300163 -0.080303706 0.371277 0.13310088 0.64360046 0.3189401 0.6744544 0.31626835
0.79790485 0.09275179 -0.050462272 -0.06338741 -0.43975353 -0.3438263 -0.2067546 0.45544007
0.40184075 0.33283785 -0.31947497 -0.40406448 -0.40074193 -0.4569491 0.15263914 -0.35984185
-0.8044206 -0.30599672 0.19594236 -0.10101591 0.069611594 0.36773187 0.6434735 0.38544166
-0.3786946 -0.3885754 -0.92335755 0.5524452 -0.3607542 -0.42953324 -0.24154925 -0.14517409
-0.085676536 -0.23213091 0.39248988 -0.14155841 0.24600524 -0.3433929 -0.076985985 -0.2743912
-0.38337907 -0.018222272 -0.36250687 0.30255705 0.1035101 -0.41391492 0.06246855 -0.086690255
-0.1242111 0.4011387 -0.24463558 0.31218973 -0.36414927 0.33567113 0.19483258 -0.34917715
-0.3569375 -0.12181812 0.26329482 0.33209944 0.5215902 0.036807496 0.55601203 0.27507016
0.88843554 0.08817562 -0.47668523 0.18335496 -0.15942831 -0.34799835 -0.36572352 0.21916823
0.27827287 0.34728134 0.25297236 -0.43096167 -0.40803176 -0.09153756 0.38802382 -0.15022226
-0.20764673 -0.12647569 0.42999735 0.15855806 -0.077536255 0.1162047 0.41101786 0.08315909
-0.32248506 -0.42956087 0.31546378 -0.42469528 -0.3416048 -0.19182238 -0.5498779 -0.5003485
0.10644962 -0.42166853 0.06088612 -0.22292066 0.44739625 -0.37670323 0.4721225 -0.28890687
-0.20128289 -0.103768736 -0.45137033 0.1691019 0.037114587 -0.33324027 -0.03646553 -0.41957796
0.25381002 0.20243503 -0.3804244 0.30948868 -0.5148896 0.44389433 0.18626083 -0.2662427
00000000: ad02 c5be e4f1 e13d dcfa 123e 6268 8e3e
00000010: 6ccb da3e 5370 423e d5ff d93e 014e ad3e
00000020: b5e3 2c3f bd6d 903d 7507 9cbe c3f6 ae3e
00000030: ad8d 5dbe b507 8dbe 997b 90be 0ce5 473e
00000040: 7f3b f93d a026 b93e d523 a13e ed5e 01bf
00000050: 4074 a2be fb6b 88be 16d0 8a3e 8f5e bcbe
00000060: 3a5b 9dbd f581 a6be 1f73 8a3e c0ef d13e
00000070: 6d1a 90bc 0e6d a03e dfea 223f 0636 b53d
00000080: f878 a7be 0b20 cfbe 7814 e63e 9140 4fbd
00000090: db95 8bbe be00 a8be dc3b f8be da7d 08bf
000000a0: 6edf ccbd 73c7 9fbe e66b 163e 1244 e3be
000000b0: f65a 483e 13d1 a3be 7794 ca3e 30df 94be
000000c0: 244a aabe 883c 383d 5d57 b2be 810e 823e
000000d0: de88 ed3d 83e3 11be 3e56 ccbd 2089 d9be
000000e0: 0150 833e e4bb a23e 7ddf b5be 91b9 bb3e
000000f0: c889 babe fb42 af3e 1f39 9b3e 7f0b 97be
00000100: 6d2e b2be a58b e9bd c831 663e 03d5 cf3e
00000110: d89a cd3e 40a5 c93e d586 dd3d d863 703e
00000120: 60cf 183f efb4 bdbc 26b3 85be 1036 443f
00000130: f121 adbe 1896 97be ebc7 d0be 4e82 a03e
00000140: 45d0 3b3e ac51 ba3e 5afd 1c3f b7f6 f1be
00000150: 77f0 bbbe fc71 d3be 74c7 8f3e 7300 dcbe
00000160: ef3d 42be 5f3a debe 3d00 c23d 3654 e83e
00000170: 0b1e c53d 70b6 e03d f8f5 4f3f 88e7 5e3e
00000180: 6f25 63be 9771 e2be 83a5 573f c245 d33e
00000190: a646 a7be eca2 84be b5ed 12bf ebb6 c9be
000001a0: fbea c23d 8de2 84be d1c9 b03e 6783 acbe
000001b0: 4300 bb3d f54c 82be ad60 7e3e ba2b 89be
000001c0: e47b 4cbe 7037 e0bc 8e89 d4be 16d1 703e
000001d0: 82f9 c53d d54d 81be fe8d 29bd 20aa 07bf
000001e0: aa71 be3e 0a75 c23d 646c 7bbe 399b 873e
000001f0: 44c5 c3be fcf0 363d 4ccb d93e d1a5 a6be
00000200: 192b dcbe 4576 a4bd 0518 be3e 994b 083e
00000210: 00c3 243f 1e4c a33e 0ba9 2c3f eded a13e
00000220: 7e43 4c3f a7f4 bd3d 87b1 4ebd 42d1 81bd
00000230: 6027 e1be 000a b0be 7ab7 53be 712f e93e
00000240: 12be cd3e b969 aa3e 3992 a3be 8ae1 cebe
00000250: 0c2e cdbe 3cf5 e9be 6f4d 1c3e 313d b8be
00000260: 82ee 4dbf 9aab 9cbe 1da5 483e 6ee1 cebd
00000270: 8690 8e3d 5a47 bc3e aeba 243f 9c58 c53e
00000280: 42e4 c1be 5bf3 c6be 2961 6cbf 0c6d 0d3f
00000290: c6b4 b8be c8eb dbbe b058 77be 84a8 14be
000002a0: 2e77 afbd bab3 6dbe 6ff4 c83e b0f4 10be
000002b0: cce8 7b3e 32d1 afbe d4aa 9dbd 017d 8cbe
000002c0: 434a c4be e046 95bc 809a b9be c2e8 9a3e
000002d0: 1afd d33d a8ec d3be 06df 7f3d a98a b1bd
000002e0: 6462 febd 0d62 cd3e c081 7abe 55d7 9f3e
000002f0: c671 babe 16dd ab3e 3182 473e 59c7 b2be
00000300: 83c0 b6be c77b f9bd 94ce 863e f008 aa3e
00000310: ef86 053f 75c3 163d ce56 0e3f ffd5 8c3e
00000320: 8370 633f 6b95 b43d 1610 f4be 67c1 3b3e
00000330: 2d41 23be d72c b2be 1d40 bbbe a36d 603e
00000340: c879 8e3e dcce b13e 9885 813e 02a7 dcbe
00000350: 8ae9 d0be 0b78 bbbd 0fab c63e ddd3 19be
00000360: 58a1 54be d882 01be 9d28 dc3e 0b5d 223e
00000370: 54cb 9ebd bbfc ed3d ef70 d23e 504f aa3d
00000380: c31c a5be 67ef dbbe 7884 a13e a971 d9be
00000390: d3e6 aebe 166d 44be ccc4 0cbf d716 00bf
000003a0: 4202 da3d f0e4 d7be b963 793d 5045 64be
000003b0: 1f11 e53e 3fdf c0be 0aba f13e 9aeb 93be
000003c0: 1a1d 4ebe b484 d4bd 031a e7be 0c29 2d3e
000003d0: 7705 183d 789e aabe e15c 15bd ecd2 d6be
000003e0: 63f3 813e 214b 4f3e fdc6 c2be 4d75 9e3e
000003f0: cecf 03bf 1e46 e33e 29bb 3e3e f750 88be

bias f4 [4]
0.047642775 0.0723539 0.019052932 -0.22788745
00000000: 1225 433d 482e 943d e514 9c3c 545b 69be
