lab2/problem1/model5-600epc.pt (torch, 55631 bytes, 8 tensors)

weight f4 [32, 8]
00000000: 56ac 46bf ed9f 0d3e a0d4 b1be f30d 683d
00000010: 8861 b63d 0a73 0abf 15d7 30bf dba4 543e
00000020: 17d7 05be b3f2 353f 31f9 d1be 28c6 cbbc
00000030: d97b 1c3f d8d2 a63e 227a 2b3e e6d6 0f3d
00000040: e65a cbbe 02e6 ba3e 2336 d63e 388a b0bc
00000050: 280c b23c 8b8b eabd b8df 61be fc24 ff3e
00000060: c139 05be 65ac 2f3f 5934 7e3d c25e 0abe
00000070: daec 31be 6ed8 b5be c900 4a3e dc70 f5bd
00000080: 71d5 afbe e42d b3be b718 d9bd 79a7 5fbc
00000090: 2504 a53e cac6 073f 0bd6 be3e 9ca5 793d
000000a0: 370d 6c3e e90c 223f ccb7 793e 751d afbe
000000b0: e527 6dbd 3332 e9bd e6cd b4bd e625 6ebe
000000c0: 6c2a 96be 4571 a53d 7485 31be cf20 743e
000000d0: 2198 73bf 1d8a 603e 8968 1abe 54a2 f7bc
000000e0: 4ad7 c93e 0675 123e 583b d73e dc1c 80bc
000000f0: 1dc5 383a 5719 893e e9fa 6c3c 733c ee3d
00000100: 988b 913e 22b1 253f 6133 fbbe 47f5 40bf
00000110: 684f 9abe 572e babe 45b4 8cbe cdec debe
00000120: 9e90 493e d064 a6bd c522 12bf 2a1c c6be
00000130: 4e68 fbbe bad2 933e f480 853e cc05 6dbe
00000140: fc3b d8bd 9cdd b3be 5f23 65bd 45a2 10be
00000150: 3adc fc3e d795 0c3f a058 9abe 9b05 54bf
00000160: 2632 733e c2a2 11bf c4ce 43be 4501 f23d
00000170: 90f9 d53d 2cff 34be eb77 93be 1dfc cd3e
00000180: f46a c13e 5789 723e bcf1 6ebf 97b9 033f
00000190: 2288 0b3f 24b5 9fbb 29e4 043e 41f9 58be
000001a0: 4700 8ebd 5508 17be 5f11 bcbe dd89 f9be
000001b0: a62b 523f 8a80 aa3e a0de 80be 9255 efbe
000001c0: 3ca4 11be a6b8 ae3d 7e49 8bbe f4ea ccbe
000001d0: 5784 fa3e 1587 f23e d1d3 813c 1380 6bbf
000001e0: a557 6bbe d217 9bbd 3343 943e eb96 fbbc
000001f0: a18a 423e 5120 203f a3d5 ca3e 4533 8a3d
00000200: e6c9 b93d 76c4 c3bf ad05 83bd 5aa3 013e
00000210: 1c75 fb3d a8ca ce3d 1a54 203e 98c0 da3e
00000220: db88 c5bd 8eab 78be 8920 483e dbad e4be
00000230: 7679 15bf 34fb 2abe 0148 413e 2d3b 40be
00000240: 4f8e dabd 364a 343e 0ab1 e4bd aa11 01bf
00000250: bcbb 0bbf 4013 bdbd 9da9 f2be 692b cbbd
00000260: 971a 8f3d 09f8 5f3e c585 013e 686d 223e
00000270: 59bc 5b3e 65cc 72be 3a9b d5be 98f3 0e3e
00000280: 1f80 a2bd f191 6b3e a454 863e de1c 263f
00000290: d1e5 0ebf ebfc bdbe fca9 e1bd 8b5e ab3e
000002a0: 1bec c43e 4fce ecbb 5ece 183e e23d 0dbf
000002b0: 746f a0be 5a7c e0be 2925 ccbe e3ee b83e
000002c0: 4979 39be a066 f73e ed43 593e 42eb 8e3e
000002d0: 81d6 4ebe 65ab 973e b333 0e3e 2833 a0bd
000002e0: be38 a73e 705a ff3e 297e f53d 4c6b 7f3e
000002f0: 87dc 173d a9a2 b03e 652a 8d3e 5b95 bc3e
00000300: 8cf9 b13d 9ef5 9d3e 1504 d03e 1e1a b5be
00000310: 1737 583e 8107 0bbe 1d3a 45be e925 59be
00000320: 6a55 db3e b26f de3d e33d 113f beb8 753e
00000330: 5fde 59bf d9bd 6cbe 2d3e a3be 24c1 24be
00000340: aca5 c43e 4d7b debd 73e4 fdbe eb53 77bc
00000350: 57fe 0b3f 9b1e e4bd 7377 713d 8295 70be
00000360: 06e8 b6be e544 be3d c773 e63d 0892 3abd
00000370: 8c42 153e 356d ba3e a442 a03d 48b2 a63d
00000380: 9501 14be 1b3f 913c 722c a2be 3d3d d7be
00000390: 7d38 d3bd 5eaf 98be 256b 493e 120c 8a3e
000003a0: b339 f63e 4d52 5fbe 629a 4fbf a39b 283d
000003b0: ed2b 8dbe a998 f7be 5dcf 86be 8dd1 1a3d
000003c0: 01b5 1ebe d646 b63e 225a bdbd 7b47 123f
000003d0: ba3a 243e a405 613f 7e92 adbe edb0 79be
000003e0: 1108 123e be68 6a3c d2d9 e03d 8357 0dbd
000003f0: 23c8 dabd 49a5 d4be 2d85 40bf f02d 2b3e
-0.77606714 0.13830538 -0.34732533 0.056653928 0.08905321 -0.54081786 -0.6907819 0.20766012
-0.13070332 0.71073455 -0.4101043 -0.024874762 0.61126477 0.32582736 0.16745809 0.035117052
-0.39717788 0.36503607 0.41838178 -0.021550283 0.021734312 -0.11452397 -0.22057998 0.49832904
-0.13010313 0.6862243 0.06206164 -0.1351271 -0.17375508 -0.35516685 0.19726862 -0.11984417
-0.3434253 -0.3499595 -0.10600417 -0.013650768 0.32229725 0.53037703 0.37272677 0.060948953
0.23051916 0.6330095 0.24386519 -0.3420216 -0.057899375 -0.11386528 -0.088283345 -0.23256645
-0.2932924 0.08078245 -0.17336065 0.2384064 -0.95154005 0.21927686 -0.1507894 -0.030228771
0.39422065 0.14302453 0.42037463 -0.015638761 0.0007048415 0.26777145 0.0144641185 0.116326235
0.28426814 0.6472341 -0.49062636 -0.75374264 -0.30138707 -0.3636348 -0.27481285 -0.4354004
0.19684073 -0.08124697 -0.57084304 -0.38693362 -0.49103016 0.2887171 0.26074946 -0.23146743
-0.10558316 -0.35130012 -0.055941936 -0.14124401 0.4938677 0.5491614 -0.3014574 -0.82821053
0.23749599 -0.56888974 -0.19121844 0.118166484 0.10447991 -0.17675465 -0.28802428 0.4023141
0.3777691 0.23685203 -0.9333761 0.5145506 0.545046 -0.0048738886 0.12977661 -0.21188833
-0.06933647 -0.14749272 -0.36732003 -0.48737994 0.8209785 0.33301193 -0.2516985 -0.46744972
-0.14222807 0.08531313 -0.27204508 -0.40023005 0.48929092 0.47368684 0.015848072 -0.919923
-0.22982652 -0.07572903 0.2895752 -0.030711612 0.18998195 0.6254931 0.39616117 0.0674806
0.09071712 -1.529433 -0.06397567 0.1265997 0.12278196 0.10097247 0.15657082 0.42725062
-0.09645244 -0.24284193 0.19543661 -0.4466389 -0.5838846 -0.16697389 0.18875124 -0.18772574
-0.106716745 0.17606434 -0.1116658 -0.5041758 -0.54583335 -0.09232187 -0.4739503 -0.09920389
0.069874935 0.21871962 0.12648685 0.15862048 0.21458568 -0.23710783 -0.4171999 0.13960111
-0.079345934 0.23004891 0.2623645 0.648878 -0.5581942 -0.37107024 -0.1101875 0.33470568
0.38461384 -0.0072267423 0.14922473 -0.5517255 -0.31335032 -0.43844873 -0.398721 0.36119756
-0.18112673 0.48320484 0.21217318 0.27913862 -0.20199014 0.2962295 0.13886909 -0.07822257
0.32660478 0.49873686 0.11986954 0.24943274 0.037075546 0.344991 0.27571407 0.368327
0.086901754 0.30851454 0.40628114 -0.35371488 0.21114765 -0.13577081 -0.1926045 -0.21205868
0.42838603 0.10861148 0.56735057 0.23996255 -0.85104936 -0.23119296 -0.31883374 -0.16089302
0.38407648 -0.108633615 -0.49588355 -0.015095691 0.54684967 -0.1113865 0.058951806 -0.23494533
-0.35723895 0.09290484 0.112525515 -0.045549423 0.14576167 0.36411443 0.07825211 0.08139473
-0.14453728 0.017730286 -0.31674534 -0.4203891 -0.10313509 -0.29821295 0.19669779 0.26962334
0.48090896 -0.21808739 -0.81094944 0.04116405 -0.27572575 -0.48358658 -0.2633008 0.0377975
-0.15498735 0.3560092 -0.09245707 0.5714032 0.16038027 0.8789923 -0.33900827 -0.24383898
0.1426089 0.014307199 0.10979046 -0.034507286 -0.10682704 -0.41532353 -0.7520321 0.16716743

bias f4 [32]
00000000: 2449 153d b014 893e 27fd f13e 0c51 60be
00000010: 757c 913e 6823 813e d6b8 5ebd 80bf 533e
00000020: e740 5d3e 823a b73c dd77 d03e e546 9cbe
00000030: 379a 0a3e 9736 293e 7e1a c13d 86e3 7d3e
00000040: 94fe ea3d 871a fe3e 9951 9a3e 1c5d 123f
00000050: 4597 9c3e 8450 bb39 3597 163f b4c2 0b3e
00000060: 2a8d 193f 5933 533e 7801 a6be 998f 2d3f
00000070: 02d6 333e 4c78 1e3f e033 b13e b08f 013d
0.036446705 0.26773596 0.47263452 -0.21905917 0.28415266 0.25222325 -0.054375492 0.2067852
0.2160679 0.022366766 0.40716448 -0.30522838 0.13535391 0.1652473 0.09428881 0.24793825
0.11474338 0.49629614 0.3014038 0.57173324 0.3058416 0.00035727408 0.58824474 0.13648492
0.59981024 0.20625056 -0.32422996 0.6779724 0.17562106 0.6190231 0.3460989 0.03163117

weight f4 [128, 32]
00000000: f5a8 f7bd 5e69 7f3d 3934 c23e aa80 e73e
00000010: 931a 483e 8a86 b6bd 4812 be3e 03ef 88be
00000020: 8713 8bbe 7834 ac3e f553 853e f300 513e
00000030: 7416 023e 9380 b3bc d189 7cbd e7d0 5fbe
00000040: 292e ae3e 545b 88bc fe0a 533e cd7f 523e
00000050: 3c22 9cbd 0033 88be d8db c53d f6e8 673e
00000060: 8a0f 823e 0d4c 10be 9e52 af3e 1856 4e3e
00000070: 077f 64be db1d 2a3e 59b7 413e 826f b9be
00000080: 1838 09be 44cb da3d c95e 4b3e 183c cb3e
00000090: 97c9 11be 6293 883d 621e 013f c916 563e
000000a0: 7e70 10be 2464 4e3e c5d1 063e 5774 cd3e
000000b0: c584 f8bd f904 9fbd 8d91 f23d 9ea8 db3c
000000c0: 4490 a73e 3a65 48be 73dd ca3e 8361 663e
000000d0: 6cee 2cbe 7f58 463c a6e0 a63e e5bf 833e
000000e0: 81ad b33e 4777 7a3d 6127 2e3f ee95 1d3d
000000f0: 6333 1abe de01 3abe e949 7cbd 1019 2abe
00000100: e215 6bbe a0c8 ce3d 36d2 bc3d 3563 cf3e
00000110: c563 10be a2f8 003d 2dde 923e 07bf 633e
00000120: 34f3 803e 8d1c 103f 4fc1 563e bf9b 173e
00000130: ae55 e3be 842e bf3e 534d 003e 2bfa 1abd
00000140: 858e 023e aa7f 35be 4531 263e f4c8 3f3e
00000150: 1f38 e5be 9d73 07be 684c c83c 2875 733e
00000160: 6401 533e 27a1 2bbe b326 be3d 12e5 223d
00000170: e9fd 0cbf 6bbd 83be 8fca a7be bc18 fcbe
00000180: 1853 ebbd 76b9 933e a574 c83d df45 373e
00000190: 3949 573e fade c0bd cb2a 86be e3d5 44be
000001a0: ecd6 6ebe 1530 24bd 25d3 d73e 5c87 29be
000001b0: 5451 043f 9cdf ffbc ca85 203e 5d99 08be
000001c0: cc1e 603e 4b12 b9bd 0ee0 083e a6c3 d23d
000001d0: 6194 463e 93a6 29bf 515d ed3e 5d29 a23e
000001e0: 171c 303d f619 193e 03a5 f6be d20c e73e
000001f0: d4ef 02bf 391b 463d 6a46 1b3f 583a bbbe
00000200: 8741 973d 3b79 ee3d ae55 8fbe a633 49be
00000210: 47a4 c33e 588e 903e 51a3 47bc 6bd8 d03e
00000220: 3468 883d 428a c53d 3a1c c93e eaa0 92be
00000230: 655e dfbe f808 863e 6589 fc3e dcd9 e03e
00000240: 1d71 99be 3f33 5e3d 2b50 c53d 756b 19be
00000250: 65ea a13e 1b91 183e 99ba 75bd 92b2 92bc
00000260: 75ea e53d d21f 063e 67ed babe 9932 203e
00000270: 74e0 413e 0a85 86be c94c 163f b6c1 8a3d
00000280: 19c1 c03e c4d0 033e dbaf ed3d cda1 8cbd
00000290: 8fb9 323e c86c 423e 2779 203f d52e dc3e
000002a0: 9335 973e 7208 263e f079 1b3f c1ab fb3e
000002b0: e30b 8d3d a085 a13e f961 ad3e e855 363b
000002c0: b280 403e 9809 82bd 5a1a b33e 33f0 953e
000002d0: 57f9 16bf 9684 fa3d 89fb e2bd 94e2 213e
000002e0: e336 053e 300c 97bd f156 22be 5e29 2d3e
000002f0: 579e 8ebd 8ed9 fc3d cfd6 943e e8a5 cb3e
00000300: 6709 41be 1af9 0abd 29bd 533e 42bf d43e
00000310: 344d 57be 55b5 073e ec32 d43e ea3e 823d
00000320: 65f2 efbd d1a0 d83e 4c89 a53e 3141 763e
00000330: 1628 ff3d 569e 87ba f529 f9b9 d1f8 40bd
00000340: d51f 003f 636a 82be 36ff 1b3e c019 1b3e
00000350: 4d45 12be 5bbb adbe 6018 033e 6aa7 f33d
00000360: b442 3d3e d5e6 f03c 410c a23e 6e51 b43e
00000370: dd43 b5be bc2e 183e 8470 a13d 1a8d 39bf
00000380: 9ad9 26be dbe8 14be 5a12 163d 654b c2bd
00000390: c369 99bc 9a88 17be c1e6 cc3d f0fa 25be
000003a0: dd24 0cbe c90b 183e 2fac f6bd bb2c 28be
000003b0: e3b0 b13a e0a1 b63b 5964 c3bd d776 2e3c
000003c0: 048d c7bd 5d13 d93d 3ce8 2abe 803d 48bd
000003d0: 47f7 c6bd 4664 b0bc 5183 fbbc bbd8 cf3d
000003e0: 2d90 0fbe bebd 1d3e 1857 2fbd 3e67 c63d
000003f0: d636 2ebe f58c abbd a77f 82bd 4425 343d
-0.12092773 0.062356345 0.37930468 0.4521535 0.19541387 -0.0891238 0.37123322 -0.2674485
-0.27163336 0.3363378 0.26040617 0.20410518 0.12703878 -0.021911895 -0.06165487 -0.21857034
0.34019592 -0.016645111 0.20609662 0.20556565 -0.07623717 -0.2660141 0.096610725 0.22647461
0.2540248 -0.14091511 0.3424272 0.2015003 -0.22314082 0.16612951 0.18917598 -0.36217886
-0.13400304 0.10683301 0.19860376 0.39694285 -0.14237057 0.06668736 0.50436985 0.2090713
-0.14105412 0.20155388 0.13165958 0.40127823 -0.12134699 -0.0776462 0.11844168 0.026813801
0.32727253 -0.19569865 0.39622077 0.22498135 -0.16887826 0.01210606 0.32593268 0.2573234
0.3509331 0.061148908 0.6802884 0.038473062 -0.15058665 -0.18164775 -0.061593924 -0.16611123
-0.22957566 0.1009686 0.09219782 0.40505376 -0.14100559 0.031487115 0.28685132 0.2224084
0.2518555 0.56293565 0.20972179 0.14805506 -0.44401306 0.37340176 0.12529497 -0.037836235
0.1274968 -0.17724481 0.16229732 0.18729001 -0.4476938 -0.13227697 0.024450496 0.2377516
0.20605999 -0.16760693 0.09284725 0.03976924 -0.55074936 -0.25730452 -0.32771727 -0.4923762
-0.11490458 0.28852433 0.09787873 0.17897747 0.21024026 -0.094175294 -0.26204523 -0.19222216
-0.23324174 -0.040084917 0.42153278 -0.16555542 0.51686597 -0.031234555 0.15676036 -0.13339753
0.21886748 -0.09036692 0.1336672 0.10291223 0.1939254 -0.662698 0.46360257 0.31672183
0.04299554 0.1495131 -0.4817277 0.4512697 -0.511472 0.048365805 0.6065432 -0.3656795
0.07385545 0.116442166 -0.27995056 -0.19648609 0.3821127 0.282336 -0.012184934 0.40790114
0.066605 0.09645511 0.39279348 -0.28638393 -0.43626705 0.26178718 0.49323574 0.43916214
-0.2996911 0.05424809 0.096344315 -0.14982398 0.3162414 0.14899103 -0.059992407 -0.017907415
0.1122636 0.13098076 -0.3650925 0.15644301 0.18933278 -0.26273376 0.58710915 0.06775229
0.37647322 0.12872607 0.116058074 -0.068667985 0.17453597 0.18986809 0.62684864 0.4300448
0.2953306 0.16214159 0.60732937 0.49154475 0.06887033 0.3154726 0.3386381 0.00278222
0.18799093 -0.06349486 0.34981042 0.2928482 -0.5897421 0.1223232 -0.11083133 0.15809089
0.13009219 -0.073753715 -0.15853478 0.16910312 -0.06963795 0.12346183 0.29070136 0.39775014
-0.18851243 -0.033928968 0.20677628 0.41552168 -0.21025544 0.13252766 0.414451 0.06359656
-0.11716155 0.42310193 0.32331312 0.24048306 0.12458818 -0.001034687 -0.0004752424 -0.04711229
0.5004857 -0.25471792 0.15234074 0.15146542 -0.14284249 -0.33932003 0.12802267 0.11897166
0.18482476 0.029406944 0.31649974 0.35218376 -0.35403338 0.14861578 0.07882789 -0.7248093
-0.16293946 -0.14541952 0.036638595 -0.094870366 -0.018727189 -0.14798203 0.1000495 -0.16209006
-0.13685937 0.14848246 -0.1204456 -0.16423313 0.0013556745 0.005573496 -0.09540624 0.010648451
-0.097436935 0.105993964 -0.16690153 -0.048886776 -0.09715133 -0.02153219 -0.030702265 0.1014876
-0.14019842 0.15404412 -0.04280767 0.09687661 -0.17013106 -0.08376495 -0.06372004 0.04398085

bias f4 [128]
00000000: b856 653e d6f5 ac3e 2e9d 943e b62e d03d
00000010: 2961 d6bb 578d b53c af01 a03e 6457 98bd
00000020: 1fc1 003e d7de 7b3b c4d2 d53d 4773 a13e
00000030: b81f 913e 8397 31be f48d 54bd 7399 d23c
00000040: e843 1f3e 0a95 8b3c ffb8 963e c035 983e
00000050: 182d 733d 4dc6 993e 7d5b 5d3e 9418 8b3d
00000060: ce8e a93d dac8 073b bbbc 99bd e91d 9a3e
00000070: 019b e13d b577 bebd 5fb9 33bd 3371 033d
00000080: 47e5 673d 024e a23c 33cc 1c3e 5794 5cbd
00000090: dd13 0abe 8311 563e af34 603e a7c5 a13e
000000a0: f9f0 8e3e 1058 4dbe 7b9f 8ebc 38b6 d3bc
000000b0: b0e5 c53c a305 f4bd ced7 883c cbfb 4d3d
000000c0: b9ee 8c3c a8ac 973e fc50 fbbc 0df8 233e
000000d0: 6fb7 2fbd 471c d9bd a209 543e 61a2 1fbe
000000e0: dd03 bdbc 0b84 f2bd b846 01bc 91dd 14be
000000f0: e1e7 c53e ef70 ad3d f58a c33e 8cb2 2cbe
00000100: 8927 c03e 1690 043e d9fe 573e 1acc e1bd
00000110: 6ad7 0f3e b611 203e ee08 c1bd 89d6 013d
00000120: 51d6 803e 4f39 a53b 5f8e ae3d 234b 52bc
00000130: 5ca6 413e 3303 efbd e59a 3f3e d467 d53d
00000140: e956 afbd 3ce8 a13e a7fe 1b3e 4e9c a23e
00000150: dd5f 3e3e ba7c 2b3d 156d 903e 105e 853d
00000160: 7597 ebbd c8a2 853e af81 a63e e1d3 d3bd
00000170: 60b3 893e 0197 f5bd 7b4e 693e b1a0 1d3c
00000180: 992f 873e 0c9f e63d df7c e63d fd33 983e
00000190: 00a2 253e c13b 04bd d671 013d e697 d0bd
000001a0: 2d5b fa3d e367 6cbd 3f4e f63d 285f 13bd
000001b0: 0172 2c3e 89b1 7f3e bff5 27bd 6af2 b33c
000001c0: 0a3a ed3c da5c aebd 37d9 d23c 3bf9 5b3e
000001d0: c9b6 e3bd bec2 003d 9c8e c23e 97b4 3c3d
000001e0: b515 933e 1ab4 41bc 1bbc ae3e 2f7b cc3e
000001f0: 9947 0e3e a977 6a3e 0f6f 873e 2863 b43d
0.22396362 0.33781308 0.2902617 0.101651594 -0.006542344 0.022162123 0.31251284 -0.074385434
0.1257367 0.0038432383 0.10440591 0.31533262 0.28344512 -0.17342953 -0.05189319 0.025707936
0.15553248 0.01703884 0.29438016 0.29728508 0.059369177 0.30034104 0.21616931 0.06791797
0.08279191 0.0020719082 -0.075067006 0.30100945 0.11015893 -0.09300176 -0.043877956 0.032090377
0.05661514 0.019812588 0.15312271 -0.053852405 -0.1348414 0.20905118 0.21895097 0.3159611
0.27918223 -0.20053124 -0.01741003 -0.025843725 0.024157375 -0.119151376 0.016704466 0.050288957
0.017203676 0.29623914 -0.030678265 0.16012593 -0.042899545 -0.106010966 0.207068 -0.15589286
-0.023073131 -0.118415914 -0.007890396 -0.14537646 0.38653472 0.08468806 0.38191953 -0.16864985
0.37530163 0.1294559 0.2109331 -0.110252574 0.14047018 0.15631756 -0.09425531 0.031698737
0.2516351 0.005042232 0.08523249 -0.012835297 0.18911117 -0.11670532 0.18711431 0.10420194
-0.08561499 0.31622493 0.15233861 0.31759876 0.18591256 0.041866995 0.28208223 0.065120816
-0.115034975 0.26100755 0.32520816 -0.10343147 0.26894665 -0.11991692 0.22783844 0.009620831
0.26403502 0.112608045 0.11254286 0.29727164 0.1617508 -0.03228355 0.031602703 -0.10185222
0.12224422 -0.05771626 0.12026643 -0.03597942 0.16840364 0.24970068 -0.041005846 0.021966178
0.02895834 -0.08513804 0.025738342 0.21481793 -0.11118848 0.03143572 0.37999427 0.04607066
0.287275 -0.011822725 0.34127888 0.39937732 0.138945 0.22897209 0.26451918 0.08807975

weight f4 [64, 128]
00000000: c28c 243d 89f6 c73d 11af a93e f574 e73d
00000010: fbce 25bd de0e 963e 0b99 493e f7a5 10bd
00000020: fb02 e33d 1036 a03c ee75 693e c8cc 063f
00000030: 6ae5 453f 9a38 bd3e 95b1 c9be 69db a73d
00000040: 51e7 3c3f 0819 673f 011d 173d a173 6c3e
00000050: 1985 813e e5b6 af3c b6a8 1f3e af7d 04bf
00000060: 7006 383e a673 9ebd 2536 343f 58aa 2f3e
00000070: 0651 913e f05f 983d a18c 6cbe d3d2 3b3c
00000080: b7e5 bb3e a437 3b3f 8f56 523f 41d8 5fbf
00000090: 548e 15be 922e 453d 18ba 903d 4e3b 553c
000000a0: 5691 243e 0683 8cbe 4c86 b83d 631a aabd
000000b0: 3ee9 a33e 9ee9 12bf 5b4d 89be cc12 87be
000000c0: c503 8e3e 724e 623e dafa b2bd a5a5 f83d
000000d0: 070c 93be 7e1e d63e 8ad6 783e 7cee 023e
000000e0: 67bb 88bf 6aa2 1f3d afe8 ec3b 4f55 3dbe
000000f0: 501c aa3d c114 c23e fd5f 923d f279 3bbd
00000100: 1e4b 413e 362f db3e a72e 213e 6139 b9bd
00000110: 9ad8 f33d df2a 153e 959a c4bd c560 823f
00000120: 768a 943d 0116 c33e 5167 9a3e 3011 173e
00000130: a47a 4f3e 2041 e9bc 81f0 253d 1809 043e
00000140: e575 26be c0e8 753d e2f1 8c3e f2fa bf3d
00000150: d5b1 de3e ff73 993e fb33 b53d 1e9b 993d
00000160: a313 593d 3c9f 533e 2d84 953d fd36 21be
00000170: 5eef 5a3d 4c95 adbe 6b61 6f3d f6a5 ecbe
00000180: 9195 923e f7b1 9e3e 2996 623e bf3f 4d3e
00000190: 3588 48bd a978 6a3f c5a6 633e 486b 5dbc
000001a0: 5082 803e dc1e aabe d50f 913d cb84 a43b
000001b0: f626 ec3e 0419 3b3e d57b c5be 3590 f1bd
000001c0: 3125 15bf 8eb4 873d d1f1 c2be f675 183e
000001d0: 8560 b53d 5d68 9a3e 13d5 1a3d e168 2b3d
000001e0: ffbe 063e 163a a63e ac25 383e 3b0f da3d
000001f0: daa2 843e ed8c c43d c5e8 2f3e 1039 cf3e
00000200: 857e 21be 6b76 acbd 2af8 66bc baf6 403e
00000210: 810e 033f 99a2 8e3d 2b6a c8bc 65ed 65bc
00000220: 581f 93be fc7f fc3e b9f3 d33c f757 54bf
00000230: dfdd 83bf 4f1a 3dbf 2dc7 db3e 270a 9a3d
00000240: b4f1 b1be c3c1 85bf 9736 3b3e f136 59be
00000250: 27e5 90bd 7355 fabd 3b81 15be 76d7 ef3e
00000260: abea 213e b701 ea3e b141 5abf d192 6ebd
00000270: 4487 28be e7b2 e23a 812a de3e a2e7 5cbe
00000280: a6c7 71bf 5675 2ebf 5349 35bf c52d 9e3e
00000290: 2458 113f 5bfa 563e f93b 853e db73 e3bd
000002a0: 7d67 1dbd cf9c 7d3f 5f42 febe 007b bfba
000002b0: 1452 abbe c256 fb3e 1a37 033f 99d5 913f
000002c0: 153c 46be 4358 9ebb 0516 de3e 13c9 26be
000002d0: 3117 053f 2131 25be 4a7d 53bd 3e18 04be
000002e0: 4937 023f 4ecd 72bd 787b 9ebe d070 953f
000002f0: ce93 a93c 17de 26bf 485e 66be 5daf b03d
00000300: ee87 3dbe 7414 04bf f7ba 623e e01b 1e3f
00000310: caf6 2dbd 2b2d 3f3e c6c4 1b3f 93a7 1bbf
00000320: f938 d93d 76e3 77bf ef89 21bf 3f09 08be
00000330: 7fe2 66bd 9c3c 02be 4f10 29be 0556 aabd
00000340: f917 233f 7d64 f3bd 6842 55be c2b6 d4bd
00000350: 7967 3abf e2ef 4bbd 8637 7d3e 7f77 123d
00000360: 69c6 31be a447 3fbf 0c37 c8bd 1810 203f
00000370: 2226 02be e301 d93e 6678 7b3e 66b4 203f
00000380: df0e 5ebe 4337 a7bd 0821 0dbf 1b4f 6abd
00000390: 06cd dd3e 2d84 81bf 5c5b 69be 0411 e03c
000003a0: fa2a bdbe ecdd eb3e 7a75 9b3d 2e9c f33e
000003b0: 051e f7bd 3c73 91be 6c44 d03e ff51 403d
000003c0: 2772 ed3e e0b6 923e 697d 0d3f d2e6 f1bc
000003d0: 0387 60bf b228 83be fdd5 39be 20da 003e
000003e0: 6805 333e d79c 15bf c9c8 54bd 3e5b 0abd
000003f0: 11ce 34bf 1840 c93d 51d3 933d cb9e e0be
0.0401733 0.0976382 0.33141378 0.11301605 -0.040480595 0.29308218 0.19687288 -0.035314526
0.11084553 0.019557029 0.22798893 0.5265622 0.77303183 0.36957246 -0.39393297 0.08196146
0.7379046 0.9027257 0.036892895 0.23090984 0.25296858 0.021449516 0.15591702 -0.5175428
0.17971206 -0.07736902 0.7039512 0.17154825 0.28382128 0.074401736 -0.2310052 0.011463839
0.36698696 0.73131776 0.8216333 -0.8743935 -0.14605075 0.048140116 0.070667446 0.013014628
0.16071066 -0.27443713 0.0900999 -0.08305814 0.32013887 -0.5738772 -0.2681683 -0.26381528
0.2773725 0.22100237 -0.087392524 0.12140969 -0.28720114 0.4182014 0.2430059 0.12786287
-1.0682191 0.03897325 0.0072298865 -0.18489574 0.083061814 0.3790646 0.071472146 -0.045770593
0.18876311 0.42809457 0.15740453 -0.09044147 0.11906548 0.14567135 -0.09599797 1.0185782
0.07252972 0.38102725 0.3015695 0.1475265 0.20261627 -0.028473437 0.040512566 0.12894094
-0.1625591 0.06003642 0.27528292 0.09374036 0.4349505 0.2997131 0.08847805 0.075002894
0.052997243 0.20666212 0.07300601 -0.15743633 0.053450935 -0.33902967 0.058442514 -0.46220368
0.28629735 0.3099515 0.22127594 0.20043848 -0.048958022 0.9159036 0.22231586 -0.013514347
0.2509942 -0.3322667 0.07083098 0.005020713 0.46123475 0.18271261 -0.3857104 -0.117950834
-0.58259875 0.06626235 -0.38075116 0.14888749 0.088563 0.30157748 0.03780086 0.041848067
0.13158797 0.3246619 0.1798312 0.10647436 0.25905496 0.09597192 0.17178638 0.40473223
-0.1577092 -0.08421024 -0.014097253 0.18844119 0.51194006 0.06964607 -0.024464687 -0.01403365
-0.2873485 0.49316394 0.025873052 -0.82946724 -1.0302085 -0.7386827 0.42925397 0.07521468
-0.34754717 -1.0449756 0.18282543 -0.21212365 -0.07074957 -0.122233294 -0.14600079 0.4684407
0.15812175 0.45704433 -0.8525649 -0.058245484 -0.1645785 0.0017295749 0.43391803 -0.21572736
-0.94445264 -0.6814779 -0.7081501 0.30894294 0.56775117 0.2099394 0.26022318 -0.11106082
-0.038428772 0.99067396 -0.49660012 -0.00146088 -0.33461058 0.49089628 0.51255953 1.139331
-0.19358857 -0.004832299 0.43376175 -0.16287641 0.5198851 -0.16132022 -0.051633157 -0.12899873
0.5086561 -0.059277825 -0.30953574 1.1675053 0.020700362 -0.6518263 -0.22496903 0.08627198
-0.18508884 -0.5159371 0.22141634 0.61761284 -0.042471685 0.18669574 0.6084713 -0.6080257
0.1060657 -0.9683145 -0.63101095 -0.13284777 -0.056368347 -0.12718433 -0.16510127 -0.08317188
0.63708454 -0.11884401 -0.20826113 -0.10386421 -0.72814137 -0.049789317 0.24728212 0.03575849
-0.17360844 -0.7471869 -0.09776124 0.6252456 -0.12709859 0.42384252 0.24557647 0.62775266
-0.2168536 -0.08164837 -0.55128527 -0.057204347 0.43320483 -1.0118462 -0.22788757 0.027351864
-0.3694685 0.4606775 0.07590766 0.47580093 -0.12066273 -0.2840823 0.40677202 0.046953198
0.46376154 0.28655148 0.55269486 -0.029529009 -0.8770601 -0.25616986 -0.18148036 0.12583208
0.17482531 -0.58442444 -0.051949296 -0.03377842 -0.7062693 0.09826678 0.0721804 -0.4387115

bias f4 [64]
00000000: 487f c73d b348 953b 16e1 8cbd 6085 73bc
00000010: 5086 5ebd 6f7f 33bd 2c3e 8bbb d7e5 bf3d
00000020: 0d17 eabd a0dc 7b3e 4788 5bbb 287b ff3d
00000030: 72fb 9abd e33f 023e 1843 393d 92ec 843e
00000040: 2451 cd3d 767e 513e 40ed 0f3e 0369 f13d
00000050: 6343 17bd 6437 c63a 08fa c6bd 0542 01be
00000060: 2448 aebd 1875 7bbc 0c34 013c 9dae 88bd
00000070: db24 01be d7f8 193c e70c 923e 1f3f d3bd
00000080: 9ac6 d63c 5318 843d 5fd0 fe3d 7971 e83c
00000090: e415 7b3e c28a 96bc fe73 513e d7ef 583e
000000a0: 88e6 d6bc 742a 1c3d d0eb 5a3d 83e9 2a3d
000000b0: 5606 18bd c16a 8b3e 5077 063d 7e42 dd3d
000000c0: 49cd bb3d 47f5 3fbd 0628 eebc a440 c8bb
000000d0: cb21 fb3d 96f7 e03d a027 383d 822b 8d3e
000000e0: cac2 b5bd 402f 443d f7fb 76bc 4e1a 593e
000000f0: edaf a2bd c5d3 50bd 0903 883e e7dc 983e
0.09741074 0.0045557856 -0.06878869 -0.014863342 -0.05432731 -0.043822702 -0.004249355 0.0937001
-0.11430178 0.2459588 -0.0033497976 0.12474662 -0.07567491 0.12719683 0.04523 0.2596174
0.10025242 0.20458397 0.14055347 0.117876075 -0.0369295 0.0015122709 -0.097156584 -0.1262284
-0.085098535 -0.015347742 0.007885944 -0.0667393 -0.12611715 0.009397707 0.2852547 -0.10314774
0.026217747 0.06449952 0.124420874 0.02837442 0.2452007 -0.018376712 0.20454404 0.21185242
-0.026232973 0.038126424 0.053447545 0.0417266 -0.037115417 0.27229884 0.03282863 0.10803698
0.091700144 -0.046864774 -0.029071819 -0.0061112214 0.12262305 0.10984723 0.044959664 0.27572256
-0.08875044 0.047896624 -0.015074722 0.2120144 -0.079437114 -0.05098321 0.26564816 0.29856035

weight f4 [4, 64]
00000000: 0ed9 303e 1f11 17bf 4096 b13d 5822 83bc
00000010: 9229 9d3d f475 01bf 3919 b2be dc2b e4be
00000020: 4c41 23bf c3ba 8d3e 6562 aebe 3453 f1be
00000030: c8af 7c3d 0d11 303f e1d5 a6be 10ee d93e
00000040: 3ae3 e4be c4bd cd3e b3d9 a5be 1eff 633e
00000050: a85b e8bc 4f24 d9be 1f4c fb3d d8e9 dc3e
00000060: 2d60 a8bd a8ff e53d 2ca5 40be b87f 673d
00000070: 1420 19bf a61e bd3e c5f2 733e ea22 c93d
00000080: 724d c5bc ff94 f9be 81f6 ef3e 8682 c3be
00000090: 432e bb3e c9b7 ddbe 408e 743e 0458 8a3e
000000a0: e8a6 e33c 8bcd 00bf ebc4 e63d 4de0 b93e
000000b0: 3bfc 823d 8aba ec3e b3f2 e8be 5212 963e
000000c0: 21fa dabe 7240 6fbd f4bf ad3d c086 bbbc
000000d0: cc90 d63e c79a f4be ae02 8c3d 7d21 32be
000000e0: 8171 05bf 68ee febe 18e0 b03c 680d cc3e
000000f0: 1121 4fbd e897 b93e 8491 5f3e 2aa9 d23d
00000100: 40b0 f93d 6aa1 fcbe 0c45 6c3d a4f5 24bd
00000110: 5ceb 903d e0ae 1fbf 80e1 04bf 3b06 0bbf
00000120: b086 33be 9a38 053e 0d85 fcbe 2ccf 14bf
00000130: 8005 f23d 8d5f c73e b39e 04bf 3246 013f
00000140: 9d5d d1be 3014 df3e 55fd a4bf 10d6 ff3d
00000150: f526 cdbc 8a90 e8be df29 11bf 99ff 503e
00000160: a9be e7bd cac7 993d 30a0 06bf 8cff 84bd
00000170: e31c d3be 151d 7c3e 4706 8a3d 5932 c83d
00000180: a4d7 e63d 529a 12bf 4bdb 613e 0676 dfbe
00000190: 395a c23e 19f8 febe 5aab b93e 9718 ee3e
000001a0: 2253 fb3c 7328 d8be 6ff8 c43d 0934 923f
000001b0: 90a1 c43d b539 d33e 0301 e4be 1fd8 5f3e
000001c0: 9433 fdbe 7c26 bf3d 402e b7bb f752 ca3d
000001d0: 204e 083f 5790 dabe a4e6 d6bd 692f ee3d
000001e0: 0924 2dbe 298e 22bf 641b 07bd e813 c63e
000001f0: c40f c3bd 59c2 bd3e e028 a83e f1ee 01bc
00000200: e8b8 f53e e1c4 03bf e0e2 763d 4efc 86bd
00000210: 7048 93bd 7ec9 0abf cc02 08bf cd7b c0be
00000220: 36f3 46bf a753 043f 65dd f0be 5135 a7be
00000230: a038 c93d f93e debc e97e 03bf be76 a53e
00000240: 6c3e c7be 31c5 8b3d 9a12 273f 900a c63e
00000250: 9ecf 903d 47ca 00bf 58f4 1dbf 952b 1b3d
00000260: e607 db3d 5c35 d63d d09c 01bf 35e0 b1bd
00000270: 6e3b 23bf f87e 81bc eca9 d53e 2c05 b83d
00000280: a0e4 163d 16b2 d7be c523 12bf e510 b6be
00000290: 72e1 cf3e 4978 03bf 5882 d03e be06 b23e
000002a0: acff 73bd c432 fabe 87cc dd3d d51a 2e3f
000002b0: 8a25 583d f994 183e 77eb f4be 47d6 c13e
000002c0: 1eba c1be 50fb ef3d 10ba 743d 7c10 a2bd
000002d0: 0d15 53be 6ff6 94be b341 f73c b6f8 683f
000002e0: e74b d2be 2a93 06bf 0574 693c 7c7a cb3e
000002f0: e885 5c3d 5b84 d43e 2ed9 d53e 8e3c f93e
00000300: 8491 8e3e e56f 0cbf c61f ee3d 4498 c8bd
00000310: 8066 4ebc 9620 26bf b697 d6be 9230 f3be
00000320: 6289 2ebf 5a4c d03d 8b84 e5bd 3827 f4be
00000330: 8843 6d3d c85a 563f ecba 5fbe f6c0 683e
00000340: ea13 fabe 54a5 d63e 1a64 6a3f cd50 473e
00000350: dc9d 803d 4426 0dbf 244d 2b3f b673 013f
00000360: b856 8ebb 28cd 89bd 952b 77be 76ff 933d
00000370: 35aa 23bf 02c9 e83e b016 283e ca9f 373d
00000380: b80c a33b 3d74 d1be 9afb 0a3f dbd8 00bf
00000390: a35b ba3e c427 98be 53f8 c73e bf83 943e
000003a0: a320 11bd 30a1 f1be a7ec 373d bbe7 97bd
000003b0: d2cf e13b 1073 3c3e 44ea e3be 4cbc ce3e
000003c0: c503 d2be d97b eb3d e033 a13d c0c8 703c
000003d0: 83bd c93e f8c9 e0be 2e81 c53d 5ff7 c5be
000003e0: 7224 2fbf 1449 72be c0f4 923d aa07 d13e
000003f0: b2bf ba3d d4be a03e 694f bf3e f4e2 873e
0.172703 -0.590105 0.08671236 -0.016007587 0.076739445 -0.5057061 -0.34784868 -0.44564712
-0.6377151 0.2768155 -0.34059444 -0.4713379 0.061691076 0.6877602 -0.32585052 0.4256444
-0.4470461 0.40183842 -0.32392654 0.22265288 -0.028364018 -0.42410514 0.12270378 0.4314716
-0.08221469 0.11230403 -0.18813008 0.056518286 -0.5981457 0.36937445 0.23823078 0.098211125
-0.02408478 -0.48746487 0.46867755 -0.3818552 0.36558732 -0.4330428 0.23882389 0.27020276
0.027789548 -0.50313634 0.11268028 0.3630394 0.063957654 0.46236068 -0.45497665 0.29310852
-0.42768958 -0.05841107 0.08483878 -0.022891402 0.41907346 -0.47774336 0.068364486 -0.17395587
-0.5212632 -0.49791265 0.021591231 0.39853978 -0.050568644 0.36248708 0.21832854 0.10286172
0.1219182 -0.493419 0.057683036 -0.040273324 0.07076141 -0.62376213 -0.51906586 -0.5430638
-0.17531848 0.13009873 -0.4932026 -0.5812862 0.11817455 0.38940087 -0.51804656 0.50497735
-0.40891734 0.4357009 -1.2889811 0.12492001 -0.02504299 -0.45422775 -0.56704515 0.20410003
-0.113156624 0.0750881 -0.52588177 -0.06494054 -0.41232976 0.24620469 0.067394786 0.09775228
0.11271599 -0.57266724 0.2205631 -0.43644732 0.3795946 -0.49798658 0.36263543 0.46503136
0.03067929 -0.4221836 0.096176974 1.142213 0.09601128 0.41254964 -0.44532022 0.21859787
-0.49453413 0.09333512 -0.00559023 0.098791055 0.5324421 -0.42688248 -0.1049321 0.116301365
-0.16908278 -0.6349817 -0.032985106 0.38687062 -0.095244914 0.37062338 0.32843685 -0.007930503
0.47992635 -0.5147229 0.06027496 -0.06591092 -0.07191551 -0.542137 -0.5312927 -0.37594453
-0.7771486 0.51690143 -0.4704391 -0.32657865 0.098252535 -0.027129637 -0.51365525 0.32317156
-0.38914812 0.06824721 0.6526276 0.38679934 0.0707085 -0.5030865 -0.61700964 0.03788336
0.10694866 0.10459396 -0.506299 -0.08685342 -0.6376256 -0.015807614 0.41731203 0.089853615
0.036839128 -0.42128056 -0.5708583 -0.35559765 0.4060169 -0.51355416 0.40724444 0.3477077
-0.05957 -0.48866856 0.10830026 0.6800969 0.052770175 0.14900579 -0.47835895 0.37858793
-0.3783731 0.11717856 0.059747756 -0.079133004 -0.20613499 -0.29094264 0.030182695 0.910045
-0.41073534 -0.52568305 0.014248853 0.39741886 0.05383864 0.4150723 0.41767257 0.48679012
0.27845395 -0.5485824 0.11627154 -0.09794667 -0.01259768 -0.6489347 -0.4191262 -0.47497994
-0.6817838 0.10170813 -0.11206921 -0.47686172 0.05792573 0.8373227 -0.21848649 0.22729859
-0.48843318 0.4192301 0.9155899 0.19464417 0.06280109 -0.55136514 0.6691458 0.50567186
-0.004343834 -0.067285836 -0.24137719 0.0722646 -0.6393159 0.45465857 0.16414905 0.04483012
0.0049758814 -0.40908995 0.54290164 -0.50330895 0.36398038 -0.2971784 0.39056644 0.29006764
-0.035431515 -0.4719329 0.044903424 -0.07417246 0.006891229 0.18403268 -0.44514668 0.40378034
-0.410185 0.114982314 0.078712225 0.0146963 0.39402398 -0.4390409 0.0964378 -0.38665292
-0.68414986 -0.2366069 0.071755886 0.4082616 0.09118594 0.3139559 0.37365273 0.2654034

bias f4 [4]
00000000: 670c e6bc b03c 01be e597 843e 632c a63c
-0.028082086 -0.12620807 0.25897136 0.020284837
